…
Test accuracy: 99.06 % Test loss: 0.0367
Epoch: [25/25], Step: [100/468], Loss: 0.0023 Acc: 99.98%
Epoch: [25/25], Step: [200/468], Loss: 0.0027 Acc: 99.96%
Epoch: [25/25], Step: [300/468], Loss: 0.0030 Acc: 99.95%
Epoch: [25/25], Step: [400/468], Loss: 0.0037 Acc: 99.93%
Test accuracy: 98.98 % Test loss: 0.0380
==========================================================================================
Layer (type:depth-idx)                   Output Shape              Param #
==========================================================================================
SimpleCNN                                [1, 10]                   --
├─Conv2d: 1-1                            [1, 32, 28, 28]           320
├─MaxPool2d: 1-2                         [1, 32, 14, 14]           --
├─Conv2d: 1-3                            [1, 64, 14, 14]           18,496
├─MaxPool2d: 1-4                         [1, 64, 7, 7]             --
├─Linear: 1-5                            [1, 10]                   31,370
==========================================================================================
Total params: 50,186
Trainable params: 50,186
Non-trainable params: 0
Total mult-adds (M): 3.91
==========================================================================================
Input size (MB): 0.00
Forward/backward pass size (MB): 0.30
Params size (MB): 0.20
Estimated Total Size (MB): 0.51
==========================================================================================
…
