…
[INFO] Register zero_ops() for <class 'torch.nn.modules.pooling.MaxPool2d'>.
[INFO] Register zero_ops() for <class 'torch.nn.modules.container.Sequential'>.
[INFO] Register count_linear() for <class 'torch.nn.modules.linear.Linear'>.
Total FLO: 
 306587648.0
Total FLOPS: 
 1977495468.641092
==========================================================================================
Layer (type:depth-idx)                   Output Shape              Param #
==========================================================================================
VGG11                                    --                        --
├─Sequential: 1-1                        [1, 512, 1, 1]            --
│    └─Conv2d: 2-1                       [1, 64, 32, 32]           1,792
│    └─ReLU: 2-2                         [1, 64, 32, 32]           --
│    └─MaxPool2d: 2-3                    [1, 64, 16, 16]           --
│    └─Conv2d: 2-4                       [1, 128, 16, 16]          73,856
│    └─ReLU: 2-5                         [1, 128, 16, 16]          --
│    └─MaxPool2d: 2-6                    [1, 128, 8, 8]            --
│    └─Conv2d: 2-7                       [1, 256, 8, 8]            295,168
│    └─ReLU: 2-8                         [1, 256, 8, 8]            --
│    └─Conv2d: 2-9                       [1, 256, 8, 8]            590,080
│    └─ReLU: 2-10                        [1, 256, 8, 8]            --
│    └─MaxPool2d: 2-11                   [1, 256, 4, 4]            --
│    └─Conv2d: 2-12                      [1, 512, 4, 4]            1,180,160
│    └─ReLU: 2-13                        [1, 512, 4, 4]            --
│    └─Conv2d: 2-14                      [1, 512, 4, 4]            2,359,808
│    └─ReLU: 2-15                        [1, 512, 4, 4]            --
│    └─MaxPool2d: 2-16                   [1, 512, 2, 2]            --
│    └─Conv2d: 2-17                      [1, 512, 2, 2]            2,359,808
│    └─ReLU: 2-18                        [1, 512, 2, 2]            --
│    └─Conv2d: 2-19                      [1, 512, 2, 2]            2,359,808
│    └─ReLU: 2-20                        [1, 512, 2, 2]            --
│    └─MaxPool2d: 2-21                   [1, 512, 1, 1]            --
├─Sequential: 1-2                        [1, 10]                   --
│    └─Linear: 2-22                      [1, 512]                  262,656
│    └─ReLU: 2-23                        [1, 512]                  --
│    └─Linear: 2-24                      [1, 512]                  262,656
│    └─ReLU: 2-25                        [1, 512]                  --
│    └─Linear: 2-26                      [1, 10]                   5,130
==========================================================================================
Total params: 9,750,922
Trainable params: 9,750,922
Non-trainable params: 0
Total mult-adds (M): 153.45
==========================================================================================
Input size (MB): 0.01
Forward/backward pass size (MB): 1.22
Params size (MB): 39.00
Estimated Total Size (MB): 40.24
…
