Files already downloaded and verified
Accuracy without pruning
Test loss: 1.3740 Test accuracy: 78.11 %

MobileNetv1(
  (conv1): Conv2d(3, 32, kernel_size=(3, 3), stride=(1, 1), padding=(1, 1), bias=False)
  (bn1): BatchNorm2d(32, eps=1e-05, momentum=0.1, affine=True, track_running_stats=True)
  (layers): Sequential(
    (0): Block(
      (conv1): Conv2d(32, 32, kernel_size=(3, 3), stride=(1, 1), padding=(1, 1), groups=32, bias=False)
      (bn1): BatchNorm2d(32, eps=1e-05, momentum=0.1, affine=True, track_running_stats=True)
      (conv2): Conv2d(32, 64, kernel_size=(1, 1), stride=(1, 1), bias=False)
      (bn2): BatchNorm2d(64, eps=1e-05, momentum=0.1, affine=True, track_running_stats=True)
    )
    (1): Block(
      (conv1): Conv2d(64, 64, kernel_size=(3, 3), stride=(2, 2), padding=(1, 1), groups=64, bias=False)
      (bn1): BatchNorm2d(64, eps=1e-05, momentum=0.1, affine=True, track_running_stats=True)
      (conv2): Conv2d(64, 128, kernel_size=(1, 1), stride=(1, 1), bias=False)
      (bn2): BatchNorm2d(128, eps=1e-05, momentum=0.1, affine=True, track_running_stats=True)
    )
    (2): Block(
      (conv1): Conv2d(128, 128, kernel_size=(3, 3), stride=(1, 1), padding=(1, 1), groups=128, bias=False)
      (bn1): BatchNorm2d(128, eps=1e-05, momentum=0.1, affine=True, track_running_stats=True)
      (conv2): Conv2d(128, 128, kernel_size=(1, 1), stride=(1, 1), bias=False)
      (bn2): BatchNorm2d(128, eps=1e-05, momentum=0.1, affine=True, track_running_stats=True)
    )
    (3): Block(
      (conv1): Conv2d(128, 128, kernel_size=(3, 3), stride=(2, 2), padding=(1, 1), groups=128, bias=False)
      (bn1): BatchNorm2d(128, eps=1e-05, momentum=0.1, affine=True, track_running_stats=True)
      (conv2): Conv2d(128, 256, kernel_size=(1, 1), stride=(1, 1), bias=False)
      (bn2): BatchNorm2d(256, eps=1e-05, momentum=0.1, affine=True, track_running_stats=True)
    )
    (4): Block(
      (conv1): Conv2d(256, 256, kernel_size=(3, 3), stride=(1, 1), padding=(1, 1), groups=256, bias=False)
      (bn1): BatchNorm2d(256, eps=1e-05, momentum=0.1, affine=True, track_running_stats=True)
      (conv2): Conv2d(256, 256, kernel_size=(1, 1), stride=(1, 1), bias=False)
      (bn2): BatchNorm2d(256, eps=1e-05, momentum=0.1, affine=True, track_running_stats=True)
    )
    (5): Block(
      (conv1): Conv2d(256, 256, kernel_size=(3, 3), stride=(2, 2), padding=(1, 1), groups=256, bias=False)
      (bn1): BatchNorm2d(256, eps=1e-05, momentum=0.1, affine=True, track_running_stats=True)
      (conv2): Conv2d(256, 512, kernel_size=(1, 1), stride=(1, 1), bias=False)
      (bn2): BatchNorm2d(512, eps=1e-05, momentum=0.1, affine=True, track_running_stats=True)
    )
    (6): Block(
      (conv1): Conv2d(512, 512, kernel_size=(3, 3), stride=(1, 1), padding=(1, 1), groups=512, bias=False)
      (bn1): BatchNorm2d(512, eps=1e-05, momentum=0.1, affine=True, track_running_stats=True)
      (conv2): Conv2d(512, 512, kernel_size=(1, 1), stride=(1, 1), bias=False)
      (bn2): BatchNorm2d(512, eps=1e-05, momentum=0.1, affine=True, track_running_stats=True)
    )
    (7): Block(
      (conv1): Conv2d(512, 512, kernel_size=(3, 3), stride=(1, 1), padding=(1, 1), groups=512, bias=False)
      (bn1): BatchNorm2d(512, eps=1e-05, momentum=0.1, affine=True, track_running_stats=True)
      (conv2): Conv2d(512, 512, kernel_size=(1, 1), stride=(1, 1), bias=False)
      (bn2): BatchNorm2d(512, eps=1e-05, momentum=0.1, affine=True, track_running_stats=True)
    )
    (8): Block(
      (conv1): Conv2d(512, 512, kernel_size=(3, 3), stride=(1, 1), padding=(1, 1), groups=512, bias=False)
      (bn1): BatchNorm2d(512, eps=1e-05, momentum=0.1, affine=True, track_running_stats=True)
      (conv2): Conv2d(512, 512, kernel_size=(1, 1), stride=(1, 1), bias=False)
      (bn2): BatchNorm2d(512, eps=1e-05, momentum=0.1, affine=True, track_running_stats=True)
    )
    (9): Block(
      (conv1): Conv2d(512, 512, kernel_size=(3, 3), stride=(1, 1), padding=(1, 1), groups=512, bias=False)
      (bn1): BatchNorm2d(512, eps=1e-05, momentum=0.1, affine=True, track_running_stats=True)
      (conv2): Conv2d(512, 512, kernel_size=(1, 1), stride=(1, 1), bias=False)
      (bn2): BatchNorm2d(512, eps=1e-05, momentum=0.1, affine=True, track_running_stats=True)
    )
    (10): Block(
      (conv1): Conv2d(512, 512, kernel_size=(3, 3), stride=(1, 1), padding=(1, 1), groups=512, bias=False)
      (bn1): BatchNorm2d(512, eps=1e-05, momentum=0.1, affine=True, track_running_stats=True)
      (conv2): Conv2d(512, 512, kernel_size=(1, 1), stride=(1, 1), bias=False)
      (bn2): BatchNorm2d(512, eps=1e-05, momentum=0.1, affine=True, track_running_stats=True)
    )
    (11): Block(
      (conv1): Conv2d(512, 512, kernel_size=(3, 3), stride=(2, 2), padding=(1, 1), groups=512, bias=False)
      (bn1): BatchNorm2d(512, eps=1e-05, momentum=0.1, affine=True, track_running_stats=True)
      (conv2): Conv2d(512, 1024, kernel_size=(1, 1), stride=(1, 1), bias=False)
      (bn2): BatchNorm2d(1024, eps=1e-05, momentum=0.1, affine=True, track_running_stats=True)
    )
    (12): Block(
      (conv1): Conv2d(1024, 1024, kernel_size=(3, 3), stride=(1, 1), padding=(1, 1), groups=1024, bias=False)
      (bn1): BatchNorm2d(1024, eps=1e-05, momentum=0.1, affine=True, track_running_stats=True)
      (conv2): Conv2d(1024, 1024, kernel_size=(1, 1), stride=(1, 1), bias=False)
      (bn2): BatchNorm2d(1024, eps=1e-05, momentum=0.1, affine=True, track_running_stats=True)
    )
  )
  (linear): Linear(in_features=1024, out_features=10, bias=True)
)
Before pruning:
Test loss: 1.3740 Test accuracy: 78.11 %

MobileNetv1(
  (conv1): Conv2d(3, 32, kernel_size=(3, 3), stride=(1, 1), padding=(1, 1), bias=False)
  (bn1): BatchNorm2d(32, eps=1e-05, momentum=0.1, affine=True, track_running_stats=True)
  (layers): Sequential(
    (0): Block(
      (conv1): Conv2d(32, 32, kernel_size=(3, 3), stride=(1, 1), padding=(1, 1), groups=32, bias=False)
      (bn1): BatchNorm2d(32, eps=1e-05, momentum=0.1, affine=True, track_running_stats=True)
      (conv2): Conv2d(32, 64, kernel_size=(1, 1), stride=(1, 1), bias=False)
      (bn2): BatchNorm2d(64, eps=1e-05, momentum=0.1, affine=True, track_running_stats=True)
    )
    (1): Block(
      (conv1): Conv2d(64, 64, kernel_size=(3, 3), stride=(2, 2), padding=(1, 1), groups=64, bias=False)
      (bn1): BatchNorm2d(64, eps=1e-05, momentum=0.1, affine=True, track_running_stats=True)
      (conv2): Conv2d(64, 128, kernel_size=(1, 1), stride=(1, 1), bias=False)
      (bn2): BatchNorm2d(128, eps=1e-05, momentum=0.1, affine=True, track_running_stats=True)
    )
    (2): Block(
      (conv1): Conv2d(128, 128, kernel_size=(3, 3), stride=(1, 1), padding=(1, 1), groups=128, bias=False)
      (bn1): BatchNorm2d(128, eps=1e-05, momentum=0.1, affine=True, track_running_stats=True)
      (conv2): Conv2d(128, 128, kernel_size=(1, 1), stride=(1, 1), bias=False)
      (bn2): BatchNorm2d(128, eps=1e-05, momentum=0.1, affine=True, track_running_stats=True)
    )
    (3): Block(
      (conv1): Conv2d(128, 128, kernel_size=(3, 3), stride=(2, 2), padding=(1, 1), groups=128, bias=False)
      (bn1): BatchNorm2d(128, eps=1e-05, momentum=0.1, affine=True, track_running_stats=True)
      (conv2): Conv2d(128, 256, kernel_size=(1, 1), stride=(1, 1), bias=False)
      (bn2): BatchNorm2d(256, eps=1e-05, momentum=0.1, affine=True, track_running_stats=True)
    )
    (4): Block(
      (conv1): Conv2d(256, 256, kernel_size=(3, 3), stride=(1, 1), padding=(1, 1), groups=256, bias=False)
      (bn1): BatchNorm2d(256, eps=1e-05, momentum=0.1, affine=True, track_running_stats=True)
      (conv2): Conv2d(256, 256, kernel_size=(1, 1), stride=(1, 1), bias=False)
      (bn2): BatchNorm2d(256, eps=1e-05, momentum=0.1, affine=True, track_running_stats=True)
    )
    (5): Block(
      (conv1): Conv2d(256, 256, kernel_size=(3, 3), stride=(2, 2), padding=(1, 1), groups=256, bias=False)
      (bn1): BatchNorm2d(256, eps=1e-05, momentum=0.1, affine=True, track_running_stats=True)
      (conv2): Conv2d(256, 512, kernel_size=(1, 1), stride=(1, 1), bias=False)
      (bn2): BatchNorm2d(512, eps=1e-05, momentum=0.1, affine=True, track_running_stats=True)
    )
    (6): Block(
      (conv1): Conv2d(512, 512, kernel_size=(3, 3), stride=(1, 1), padding=(1, 1), groups=512, bias=False)
      (bn1): BatchNorm2d(512, eps=1e-05, momentum=0.1, affine=True, track_running_stats=True)
      (conv2): Conv2d(512, 512, kernel_size=(1, 1), stride=(1, 1), bias=False)
      (bn2): BatchNorm2d(512, eps=1e-05, momentum=0.1, affine=True, track_running_stats=True)
    )
    (7): Block(
      (conv1): Conv2d(512, 512, kernel_size=(3, 3), stride=(1, 1), padding=(1, 1), groups=512, bias=False)
      (bn1): BatchNorm2d(512, eps=1e-05, momentum=0.1, affine=True, track_running_stats=True)
      (conv2): Conv2d(512, 512, kernel_size=(1, 1), stride=(1, 1), bias=False)
      (bn2): BatchNorm2d(512, eps=1e-05, momentum=0.1, affine=True, track_running_stats=True)
    )
    (8): Block(
      (conv1): Conv2d(512, 512, kernel_size=(3, 3), stride=(1, 1), padding=(1, 1), groups=512, bias=False)
      (bn1): BatchNorm2d(512, eps=1e-05, momentum=0.1, affine=True, track_running_stats=True)
      (conv2): Conv2d(512, 512, kernel_size=(1, 1), stride=(1, 1), bias=False)
      (bn2): BatchNorm2d(512, eps=1e-05, momentum=0.1, affine=True, track_running_stats=True)
    )
    (9): Block(
      (conv1): Conv2d(512, 512, kernel_size=(3, 3), stride=(1, 1), padding=(1, 1), groups=512, bias=False)
      (bn1): BatchNorm2d(512, eps=1e-05, momentum=0.1, affine=True, track_running_stats=True)
      (conv2): Conv2d(512, 512, kernel_size=(1, 1), stride=(1, 1), bias=False)
      (bn2): BatchNorm2d(512, eps=1e-05, momentum=0.1, affine=True, track_running_stats=True)
    )
    (10): Block(
      (conv1): Conv2d(512, 512, kernel_size=(3, 3), stride=(1, 1), padding=(1, 1), groups=512, bias=False)
      (bn1): BatchNorm2d(512, eps=1e-05, momentum=0.1, affine=True, track_running_stats=True)
      (conv2): Conv2d(512, 512, kernel_size=(1, 1), stride=(1, 1), bias=False)
      (bn2): BatchNorm2d(512, eps=1e-05, momentum=0.1, affine=True, track_running_stats=True)
    )
    (11): Block(
      (conv1): Conv2d(512, 512, kernel_size=(3, 3), stride=(2, 2), padding=(1, 1), groups=512, bias=False)
      (bn1): BatchNorm2d(512, eps=1e-05, momentum=0.1, affine=True, track_running_stats=True)
      (conv2): Conv2d(512, 1024, kernel_size=(1, 1), stride=(1, 1), bias=False)
      (bn2): BatchNorm2d(1024, eps=1e-05, momentum=0.1, affine=True, track_running_stats=True)
    )
    (12): Block(
      (conv1): Conv2d(1024, 1024, kernel_size=(3, 3), stride=(1, 1), padding=(1, 1), groups=1024, bias=False)
      (bn1): BatchNorm2d(1024, eps=1e-05, momentum=0.1, affine=True, track_running_stats=True)
      (conv2): Conv2d(1024, 1024, kernel_size=(1, 1), stride=(1, 1), bias=False)
      (bn2): BatchNorm2d(1024, eps=1e-05, momentum=0.1, affine=True, track_running_stats=True)
    )
  )
  (linear): Linear(in_features=1024, out_features=10, bias=True)
)
Pruning Ratio: 0.05
Iteration 1 out of 5; Before fine-tuning
Test loss: 1.3608 Test accuracy: 78.05 %

Iteration 1 out of 5; After fine-tuning
Test loss: 1.9716 Test accuracy: 75.05 %

MobileNetv1(
  (conv1): Conv2d(3, 31, kernel_size=(3, 3), stride=(1, 1), padding=(1, 1), bias=False)
  (bn1): BatchNorm2d(31, eps=1e-05, momentum=0.1, affine=True, track_running_stats=True)
  (layers): Sequential(
    (0): Block(
      (conv1): Conv2d(31, 31, kernel_size=(3, 3), stride=(1, 1), padding=(1, 1), groups=31, bias=False)
      (bn1): BatchNorm2d(31, eps=1e-05, momentum=0.1, affine=True, track_running_stats=True)
      (conv2): Conv2d(31, 63, kernel_size=(1, 1), stride=(1, 1), bias=False)
      (bn2): BatchNorm2d(63, eps=1e-05, momentum=0.1, affine=True, track_running_stats=True)
    )
    (1): Block(
      (conv1): Conv2d(63, 63, kernel_size=(3, 3), stride=(2, 2), padding=(1, 1), groups=63, bias=False)
      (bn1): BatchNorm2d(63, eps=1e-05, momentum=0.1, affine=True, track_running_stats=True)
      (conv2): Conv2d(63, 126, kernel_size=(1, 1), stride=(1, 1), bias=False)
      (bn2): BatchNorm2d(126, eps=1e-05, momentum=0.1, affine=True, track_running_stats=True)
    )
    (2): Block(
      (conv1): Conv2d(126, 126, kernel_size=(3, 3), stride=(1, 1), padding=(1, 1), groups=126, bias=False)
      (bn1): BatchNorm2d(126, eps=1e-05, momentum=0.1, affine=True, track_running_stats=True)
      (conv2): Conv2d(126, 126, kernel_size=(1, 1), stride=(1, 1), bias=False)
      (bn2): BatchNorm2d(126, eps=1e-05, momentum=0.1, affine=True, track_running_stats=True)
    )
    (3): Block(
      (conv1): Conv2d(126, 126, kernel_size=(3, 3), stride=(2, 2), padding=(1, 1), groups=126, bias=False)
      (bn1): BatchNorm2d(126, eps=1e-05, momentum=0.1, affine=True, track_running_stats=True)
      (conv2): Conv2d(126, 253, kernel_size=(1, 1), stride=(1, 1), bias=False)
      (bn2): BatchNorm2d(253, eps=1e-05, momentum=0.1, affine=True, track_running_stats=True)
    )
    (4): Block(
      (conv1): Conv2d(253, 253, kernel_size=(3, 3), stride=(1, 1), padding=(1, 1), groups=253, bias=False)
      (bn1): BatchNorm2d(253, eps=1e-05, momentum=0.1, affine=True, track_running_stats=True)
      (conv2): Conv2d(253, 253, kernel_size=(1, 1), stride=(1, 1), bias=False)
      (bn2): BatchNorm2d(253, eps=1e-05, momentum=0.1, affine=True, track_running_stats=True)
    )
    (5): Block(
      (conv1): Conv2d(253, 253, kernel_size=(3, 3), stride=(2, 2), padding=(1, 1), groups=253, bias=False)
      (bn1): BatchNorm2d(253, eps=1e-05, momentum=0.1, affine=True, track_running_stats=True)
      (conv2): Conv2d(253, 506, kernel_size=(1, 1), stride=(1, 1), bias=False)
      (bn2): BatchNorm2d(506, eps=1e-05, momentum=0.1, affine=True, track_running_stats=True)
    )
    (6): Block(
      (conv1): Conv2d(506, 506, kernel_size=(3, 3), stride=(1, 1), padding=(1, 1), groups=506, bias=False)
      (bn1): BatchNorm2d(506, eps=1e-05, momentum=0.1, affine=True, track_running_stats=True)
      (conv2): Conv2d(506, 506, kernel_size=(1, 1), stride=(1, 1), bias=False)
      (bn2): BatchNorm2d(506, eps=1e-05, momentum=0.1, affine=True, track_running_stats=True)
    )
    (7): Block(
      (conv1): Conv2d(506, 506, kernel_size=(3, 3), stride=(1, 1), padding=(1, 1), groups=506, bias=False)
      (bn1): BatchNorm2d(506, eps=1e-05, momentum=0.1, affine=True, track_running_stats=True)
      (conv2): Conv2d(506, 506, kernel_size=(1, 1), stride=(1, 1), bias=False)
      (bn2): BatchNorm2d(506, eps=1e-05, momentum=0.1, affine=True, track_running_stats=True)
    )
    (8): Block(
      (conv1): Conv2d(506, 506, kernel_size=(3, 3), stride=(1, 1), padding=(1, 1), groups=506, bias=False)
      (bn1): BatchNorm2d(506, eps=1e-05, momentum=0.1, affine=True, track_running_stats=True)
      (conv2): Conv2d(506, 506, kernel_size=(1, 1), stride=(1, 1), bias=False)
      (bn2): BatchNorm2d(506, eps=1e-05, momentum=0.1, affine=True, track_running_stats=True)
    )
    (9): Block(
      (conv1): Conv2d(506, 506, kernel_size=(3, 3), stride=(1, 1), padding=(1, 1), groups=506, bias=False)
      (bn1): BatchNorm2d(506, eps=1e-05, momentum=0.1, affine=True, track_running_stats=True)
      (conv2): Conv2d(506, 506, kernel_size=(1, 1), stride=(1, 1), bias=False)
      (bn2): BatchNorm2d(506, eps=1e-05, momentum=0.1, affine=True, track_running_stats=True)
    )
    (10): Block(
      (conv1): Conv2d(506, 506, kernel_size=(3, 3), stride=(1, 1), padding=(1, 1), groups=506, bias=False)
      (bn1): BatchNorm2d(506, eps=1e-05, momentum=0.1, affine=True, track_running_stats=True)
      (conv2): Conv2d(506, 506, kernel_size=(1, 1), stride=(1, 1), bias=False)
      (bn2): BatchNorm2d(506, eps=1e-05, momentum=0.1, affine=True, track_running_stats=True)
    )
    (11): Block(
      (conv1): Conv2d(506, 506, kernel_size=(3, 3), stride=(2, 2), padding=(1, 1), groups=506, bias=False)
      (bn1): BatchNorm2d(506, eps=1e-05, momentum=0.1, affine=True, track_running_stats=True)
      (conv2): Conv2d(506, 1013, kernel_size=(1, 1), stride=(1, 1), bias=False)
      (bn2): BatchNorm2d(1013, eps=1e-05, momentum=0.1, affine=True, track_running_stats=True)
    )
    (12): Block(
      (conv1): Conv2d(1013, 1013, kernel_size=(3, 3), stride=(1, 1), padding=(1, 1), groups=1013, bias=False)
      (bn1): BatchNorm2d(1013, eps=1e-05, momentum=0.1, affine=True, track_running_stats=True)
      (conv2): Conv2d(1013, 1013, kernel_size=(1, 1), stride=(1, 1), bias=False)
      (bn2): BatchNorm2d(1013, eps=1e-05, momentum=0.1, affine=True, track_running_stats=True)
    )
  )
  (linear): Linear(in_features=1013, out_features=10, bias=True)
)
Iteration 2 out of 5; Before fine-tuning
Test loss: 1.9721 Test accuracy: 74.72 %

Iteration 2 out of 5; After fine-tuning
Test loss: 1.9852 Test accuracy: 74.91 %

MobileNetv1(
  (conv1): Conv2d(3, 31, kernel_size=(3, 3), stride=(1, 1), padding=(1, 1), bias=False)
  (bn1): BatchNorm2d(31, eps=1e-05, momentum=0.1, affine=True, track_running_stats=True)
  (layers): Sequential(
    (0): Block(
      (conv1): Conv2d(31, 31, kernel_size=(3, 3), stride=(1, 1), padding=(1, 1), groups=31, bias=False)
      (bn1): BatchNorm2d(31, eps=1e-05, momentum=0.1, affine=True, track_running_stats=True)
      (conv2): Conv2d(31, 62, kernel_size=(1, 1), stride=(1, 1), bias=False)
      (bn2): BatchNorm2d(62, eps=1e-05, momentum=0.1, affine=True, track_running_stats=True)
    )
    (1): Block(
      (conv1): Conv2d(62, 62, kernel_size=(3, 3), stride=(2, 2), padding=(1, 1), groups=62, bias=False)
      (bn1): BatchNorm2d(62, eps=1e-05, momentum=0.1, affine=True, track_running_stats=True)
      (conv2): Conv2d(62, 125, kernel_size=(1, 1), stride=(1, 1), bias=False)
      (bn2): BatchNorm2d(125, eps=1e-05, momentum=0.1, affine=True, track_running_stats=True)
    )
    (2): Block(
      (conv1): Conv2d(125, 125, kernel_size=(3, 3), stride=(1, 1), padding=(1, 1), groups=125, bias=False)
      (bn1): BatchNorm2d(125, eps=1e-05, momentum=0.1, affine=True, track_running_stats=True)
      (conv2): Conv2d(125, 125, kernel_size=(1, 1), stride=(1, 1), bias=False)
      (bn2): BatchNorm2d(125, eps=1e-05, momentum=0.1, affine=True, track_running_stats=True)
    )
    (3): Block(
      (conv1): Conv2d(125, 125, kernel_size=(3, 3), stride=(2, 2), padding=(1, 1), groups=125, bias=False)
      (bn1): BatchNorm2d(125, eps=1e-05, momentum=0.1, affine=True, track_running_stats=True)
      (conv2): Conv2d(125, 250, kernel_size=(1, 1), stride=(1, 1), bias=False)
      (bn2): BatchNorm2d(250, eps=1e-05, momentum=0.1, affine=True, track_running_stats=True)
    )
    (4): Block(
      (conv1): Conv2d(250, 250, kernel_size=(3, 3), stride=(1, 1), padding=(1, 1), groups=250, bias=False)
      (bn1): BatchNorm2d(250, eps=1e-05, momentum=0.1, affine=True, track_running_stats=True)
      (conv2): Conv2d(250, 250, kernel_size=(1, 1), stride=(1, 1), bias=False)
      (bn2): BatchNorm2d(250, eps=1e-05, momentum=0.1, affine=True, track_running_stats=True)
    )
    (5): Block(
      (conv1): Conv2d(250, 250, kernel_size=(3, 3), stride=(2, 2), padding=(1, 1), groups=250, bias=False)
      (bn1): BatchNorm2d(250, eps=1e-05, momentum=0.1, affine=True, track_running_stats=True)
      (conv2): Conv2d(250, 501, kernel_size=(1, 1), stride=(1, 1), bias=False)
      (bn2): BatchNorm2d(501, eps=1e-05, momentum=0.1, affine=True, track_running_stats=True)
    )
    (6): Block(
      (conv1): Conv2d(501, 501, kernel_size=(3, 3), stride=(1, 1), padding=(1, 1), groups=501, bias=False)
      (bn1): BatchNorm2d(501, eps=1e-05, momentum=0.1, affine=True, track_running_stats=True)
      (conv2): Conv2d(501, 501, kernel_size=(1, 1), stride=(1, 1), bias=False)
      (bn2): BatchNorm2d(501, eps=1e-05, momentum=0.1, affine=True, track_running_stats=True)
    )
    (7): Block(
      (conv1): Conv2d(501, 501, kernel_size=(3, 3), stride=(1, 1), padding=(1, 1), groups=501, bias=False)
      (bn1): BatchNorm2d(501, eps=1e-05, momentum=0.1, affine=True, track_running_stats=True)
      (conv2): Conv2d(501, 501, kernel_size=(1, 1), stride=(1, 1), bias=False)
      (bn2): BatchNorm2d(501, eps=1e-05, momentum=0.1, affine=True, track_running_stats=True)
    )
    (8): Block(
      (conv1): Conv2d(501, 501, kernel_size=(3, 3), stride=(1, 1), padding=(1, 1), groups=501, bias=False)
      (bn1): BatchNorm2d(501, eps=1e-05, momentum=0.1, affine=True, track_running_stats=True)
      (conv2): Conv2d(501, 501, kernel_size=(1, 1), stride=(1, 1), bias=False)
      (bn2): BatchNorm2d(501, eps=1e-05, momentum=0.1, affine=True, track_running_stats=True)
    )
    (9): Block(
      (conv1): Conv2d(501, 501, kernel_size=(3, 3), stride=(1, 1), padding=(1, 1), groups=501, bias=False)
      (bn1): BatchNorm2d(501, eps=1e-05, momentum=0.1, affine=True, track_running_stats=True)
      (conv2): Conv2d(501, 501, kernel_size=(1, 1), stride=(1, 1), bias=False)
      (bn2): BatchNorm2d(501, eps=1e-05, momentum=0.1, affine=True, track_running_stats=True)
    )
    (10): Block(
      (conv1): Conv2d(501, 501, kernel_size=(3, 3), stride=(1, 1), padding=(1, 1), groups=501, bias=False)
      (bn1): BatchNorm2d(501, eps=1e-05, momentum=0.1, affine=True, track_running_stats=True)
      (conv2): Conv2d(501, 501, kernel_size=(1, 1), stride=(1, 1), bias=False)
      (bn2): BatchNorm2d(501, eps=1e-05, momentum=0.1, affine=True, track_running_stats=True)
    )
    (11): Block(
      (conv1): Conv2d(501, 501, kernel_size=(3, 3), stride=(2, 2), padding=(1, 1), groups=501, bias=False)
      (bn1): BatchNorm2d(501, eps=1e-05, momentum=0.1, affine=True, track_running_stats=True)
      (conv2): Conv2d(501, 1003, kernel_size=(1, 1), stride=(1, 1), bias=False)
      (bn2): BatchNorm2d(1003, eps=1e-05, momentum=0.1, affine=True, track_running_stats=True)
    )
    (12): Block(
      (conv1): Conv2d(1003, 1003, kernel_size=(3, 3), stride=(1, 1), padding=(1, 1), groups=1003, bias=False)
      (bn1): BatchNorm2d(1003, eps=1e-05, momentum=0.1, affine=True, track_running_stats=True)
      (conv2): Conv2d(1003, 1003, kernel_size=(1, 1), stride=(1, 1), bias=False)
      (bn2): BatchNorm2d(1003, eps=1e-05, momentum=0.1, affine=True, track_running_stats=True)
    )
  )
  (linear): Linear(in_features=1003, out_features=10, bias=True)
)
Iteration 3 out of 5; Before fine-tuning
Test loss: 1.9850 Test accuracy: 75.10 %

Iteration 3 out of 5; After fine-tuning
Test loss: 1.9714 Test accuracy: 74.99 %

MobileNetv1(
  (conv1): Conv2d(3, 31, kernel_size=(3, 3), stride=(1, 1), padding=(1, 1), bias=False)
  (bn1): BatchNorm2d(31, eps=1e-05, momentum=0.1, affine=True, track_running_stats=True)
  (layers): Sequential(
    (0): Block(
      (conv1): Conv2d(31, 31, kernel_size=(3, 3), stride=(1, 1), padding=(1, 1), groups=31, bias=False)
      (bn1): BatchNorm2d(31, eps=1e-05, momentum=0.1, affine=True, track_running_stats=True)
      (conv2): Conv2d(31, 62, kernel_size=(1, 1), stride=(1, 1), bias=False)
      (bn2): BatchNorm2d(62, eps=1e-05, momentum=0.1, affine=True, track_running_stats=True)
    )
    (1): Block(
      (conv1): Conv2d(62, 62, kernel_size=(3, 3), stride=(2, 2), padding=(1, 1), groups=62, bias=False)
      (bn1): BatchNorm2d(62, eps=1e-05, momentum=0.1, affine=True, track_running_stats=True)
      (conv2): Conv2d(62, 124, kernel_size=(1, 1), stride=(1, 1), bias=False)
      (bn2): BatchNorm2d(124, eps=1e-05, momentum=0.1, affine=True, track_running_stats=True)
    )
    (2): Block(
      (conv1): Conv2d(124, 124, kernel_size=(3, 3), stride=(1, 1), padding=(1, 1), groups=124, bias=False)
      (bn1): BatchNorm2d(124, eps=1e-05, momentum=0.1, affine=True, track_running_stats=True)
      (conv2): Conv2d(124, 124, kernel_size=(1, 1), stride=(1, 1), bias=False)
      (bn2): BatchNorm2d(124, eps=1e-05, momentum=0.1, affine=True, track_running_stats=True)
    )
    (3): Block(
      (conv1): Conv2d(124, 124, kernel_size=(3, 3), stride=(2, 2), padding=(1, 1), groups=124, bias=False)
      (bn1): BatchNorm2d(124, eps=1e-05, momentum=0.1, affine=True, track_running_stats=True)
      (conv2): Conv2d(124, 248, kernel_size=(1, 1), stride=(1, 1), bias=False)
      (bn2): BatchNorm2d(248, eps=1e-05, momentum=0.1, affine=True, track_running_stats=True)
    )
    (4): Block(
      (conv1): Conv2d(248, 248, kernel_size=(3, 3), stride=(1, 1), padding=(1, 1), groups=248, bias=False)
      (bn1): BatchNorm2d(248, eps=1e-05, momentum=0.1, affine=True, track_running_stats=True)
      (conv2): Conv2d(248, 248, kernel_size=(1, 1), stride=(1, 1), bias=False)
      (bn2): BatchNorm2d(248, eps=1e-05, momentum=0.1, affine=True, track_running_stats=True)
    )
    (5): Block(
      (conv1): Conv2d(248, 248, kernel_size=(3, 3), stride=(2, 2), padding=(1, 1), groups=248, bias=False)
      (bn1): BatchNorm2d(248, eps=1e-05, momentum=0.1, affine=True, track_running_stats=True)
      (conv2): Conv2d(248, 496, kernel_size=(1, 1), stride=(1, 1), bias=False)
      (bn2): BatchNorm2d(496, eps=1e-05, momentum=0.1, affine=True, track_running_stats=True)
    )
    (6): Block(
      (conv1): Conv2d(496, 496, kernel_size=(3, 3), stride=(1, 1), padding=(1, 1), groups=496, bias=False)
      (bn1): BatchNorm2d(496, eps=1e-05, momentum=0.1, affine=True, track_running_stats=True)
      (conv2): Conv2d(496, 496, kernel_size=(1, 1), stride=(1, 1), bias=False)
      (bn2): BatchNorm2d(496, eps=1e-05, momentum=0.1, affine=True, track_running_stats=True)
    )
    (7): Block(
      (conv1): Conv2d(496, 496, kernel_size=(3, 3), stride=(1, 1), padding=(1, 1), groups=496, bias=False)
      (bn1): BatchNorm2d(496, eps=1e-05, momentum=0.1, affine=True, track_running_stats=True)
      (conv2): Conv2d(496, 496, kernel_size=(1, 1), stride=(1, 1), bias=False)
      (bn2): BatchNorm2d(496, eps=1e-05, momentum=0.1, affine=True, track_running_stats=True)
    )
    (8): Block(
      (conv1): Conv2d(496, 496, kernel_size=(3, 3), stride=(1, 1), padding=(1, 1), groups=496, bias=False)
      (bn1): BatchNorm2d(496, eps=1e-05, momentum=0.1, affine=True, track_running_stats=True)
      (conv2): Conv2d(496, 496, kernel_size=(1, 1), stride=(1, 1), bias=False)
      (bn2): BatchNorm2d(496, eps=1e-05, momentum=0.1, affine=True, track_running_stats=True)
    )
    (9): Block(
      (conv1): Conv2d(496, 496, kernel_size=(3, 3), stride=(1, 1), padding=(1, 1), groups=496, bias=False)
      (bn1): BatchNorm2d(496, eps=1e-05, momentum=0.1, affine=True, track_running_stats=True)
      (conv2): Conv2d(496, 496, kernel_size=(1, 1), stride=(1, 1), bias=False)
      (bn2): BatchNorm2d(496, eps=1e-05, momentum=0.1, affine=True, track_running_stats=True)
    )
    (10): Block(
      (conv1): Conv2d(496, 496, kernel_size=(3, 3), stride=(1, 1), padding=(1, 1), groups=496, bias=False)
      (bn1): BatchNorm2d(496, eps=1e-05, momentum=0.1, affine=True, track_running_stats=True)
      (conv2): Conv2d(496, 496, kernel_size=(1, 1), stride=(1, 1), bias=False)
      (bn2): BatchNorm2d(496, eps=1e-05, momentum=0.1, affine=True, track_running_stats=True)
    )
    (11): Block(
      (conv1): Conv2d(496, 496, kernel_size=(3, 3), stride=(2, 2), padding=(1, 1), groups=496, bias=False)
      (bn1): BatchNorm2d(496, eps=1e-05, momentum=0.1, affine=True, track_running_stats=True)
      (conv2): Conv2d(496, 993, kernel_size=(1, 1), stride=(1, 1), bias=False)
      (bn2): BatchNorm2d(993, eps=1e-05, momentum=0.1, affine=True, track_running_stats=True)
    )
    (12): Block(
      (conv1): Conv2d(993, 993, kernel_size=(3, 3), stride=(1, 1), padding=(1, 1), groups=993, bias=False)
      (bn1): BatchNorm2d(993, eps=1e-05, momentum=0.1, affine=True, track_running_stats=True)
      (conv2): Conv2d(993, 993, kernel_size=(1, 1), stride=(1, 1), bias=False)
      (bn2): BatchNorm2d(993, eps=1e-05, momentum=0.1, affine=True, track_running_stats=True)
    )
  )
  (linear): Linear(in_features=993, out_features=10, bias=True)
)
Iteration 4 out of 5; Before fine-tuning
Test loss: 1.9739 Test accuracy: 74.66 %

Iteration 4 out of 5; After fine-tuning
Test loss: 2.0104 Test accuracy: 74.65 %

MobileNetv1(
  (conv1): Conv2d(3, 30, kernel_size=(3, 3), stride=(1, 1), padding=(1, 1), bias=False)
  (bn1): BatchNorm2d(30, eps=1e-05, momentum=0.1, affine=True, track_running_stats=True)
  (layers): Sequential(
    (0): Block(
      (conv1): Conv2d(30, 30, kernel_size=(3, 3), stride=(1, 1), padding=(1, 1), groups=30, bias=False)
      (bn1): BatchNorm2d(30, eps=1e-05, momentum=0.1, affine=True, track_running_stats=True)
      (conv2): Conv2d(30, 61, kernel_size=(1, 1), stride=(1, 1), bias=False)
      (bn2): BatchNorm2d(61, eps=1e-05, momentum=0.1, affine=True, track_running_stats=True)
    )
    (1): Block(
      (conv1): Conv2d(61, 61, kernel_size=(3, 3), stride=(2, 2), padding=(1, 1), groups=61, bias=False)
      (bn1): BatchNorm2d(61, eps=1e-05, momentum=0.1, affine=True, track_running_stats=True)
      (conv2): Conv2d(61, 122, kernel_size=(1, 1), stride=(1, 1), bias=False)
      (bn2): BatchNorm2d(122, eps=1e-05, momentum=0.1, affine=True, track_running_stats=True)
    )
    (2): Block(
      (conv1): Conv2d(122, 122, kernel_size=(3, 3), stride=(1, 1), padding=(1, 1), groups=122, bias=False)
      (bn1): BatchNorm2d(122, eps=1e-05, momentum=0.1, affine=True, track_running_stats=True)
      (conv2): Conv2d(122, 122, kernel_size=(1, 1), stride=(1, 1), bias=False)
      (bn2): BatchNorm2d(122, eps=1e-05, momentum=0.1, affine=True, track_running_stats=True)
    )
    (3): Block(
      (conv1): Conv2d(122, 122, kernel_size=(3, 3), stride=(2, 2), padding=(1, 1), groups=122, bias=False)
      (bn1): BatchNorm2d(122, eps=1e-05, momentum=0.1, affine=True, track_running_stats=True)
      (conv2): Conv2d(122, 245, kernel_size=(1, 1), stride=(1, 1), bias=False)
      (bn2): BatchNorm2d(245, eps=1e-05, momentum=0.1, affine=True, track_running_stats=True)
    )
    (4): Block(
      (conv1): Conv2d(245, 245, kernel_size=(3, 3), stride=(1, 1), padding=(1, 1), groups=245, bias=False)
      (bn1): BatchNorm2d(245, eps=1e-05, momentum=0.1, affine=True, track_running_stats=True)
      (conv2): Conv2d(245, 245, kernel_size=(1, 1), stride=(1, 1), bias=False)
      (bn2): BatchNorm2d(245, eps=1e-05, momentum=0.1, affine=True, track_running_stats=True)
    )
    (5): Block(
      (conv1): Conv2d(245, 245, kernel_size=(3, 3), stride=(2, 2), padding=(1, 1), groups=245, bias=False)
      (bn1): BatchNorm2d(245, eps=1e-05, momentum=0.1, affine=True, track_running_stats=True)
      (conv2): Conv2d(245, 491, kernel_size=(1, 1), stride=(1, 1), bias=False)
      (bn2): BatchNorm2d(491, eps=1e-05, momentum=0.1, affine=True, track_running_stats=True)
    )
    (6): Block(
      (conv1): Conv2d(491, 491, kernel_size=(3, 3), stride=(1, 1), padding=(1, 1), groups=491, bias=False)
      (bn1): BatchNorm2d(491, eps=1e-05, momentum=0.1, affine=True, track_running_stats=True)
      (conv2): Conv2d(491, 491, kernel_size=(1, 1), stride=(1, 1), bias=False)
      (bn2): BatchNorm2d(491, eps=1e-05, momentum=0.1, affine=True, track_running_stats=True)
    )
    (7): Block(
      (conv1): Conv2d(491, 491, kernel_size=(3, 3), stride=(1, 1), padding=(1, 1), groups=491, bias=False)
      (bn1): BatchNorm2d(491, eps=1e-05, momentum=0.1, affine=True, track_running_stats=True)
      (conv2): Conv2d(491, 491, kernel_size=(1, 1), stride=(1, 1), bias=False)
      (bn2): BatchNorm2d(491, eps=1e-05, momentum=0.1, affine=True, track_running_stats=True)
    )
    (8): Block(
      (conv1): Conv2d(491, 491, kernel_size=(3, 3), stride=(1, 1), padding=(1, 1), groups=491, bias=False)
      (bn1): BatchNorm2d(491, eps=1e-05, momentum=0.1, affine=True, track_running_stats=True)
      (conv2): Conv2d(491, 491, kernel_size=(1, 1), stride=(1, 1), bias=False)
      (bn2): BatchNorm2d(491, eps=1e-05, momentum=0.1, affine=True, track_running_stats=True)
    )
    (9): Block(
      (conv1): Conv2d(491, 491, kernel_size=(3, 3), stride=(1, 1), padding=(1, 1), groups=491, bias=False)
      (bn1): BatchNorm2d(491, eps=1e-05, momentum=0.1, affine=True, track_running_stats=True)
      (conv2): Conv2d(491, 491, kernel_size=(1, 1), stride=(1, 1), bias=False)
      (bn2): BatchNorm2d(491, eps=1e-05, momentum=0.1, affine=True, track_running_stats=True)
    )
    (10): Block(
      (conv1): Conv2d(491, 491, kernel_size=(3, 3), stride=(1, 1), padding=(1, 1), groups=491, bias=False)
      (bn1): BatchNorm2d(491, eps=1e-05, momentum=0.1, affine=True, track_running_stats=True)
      (conv2): Conv2d(491, 491, kernel_size=(1, 1), stride=(1, 1), bias=False)
      (bn2): BatchNorm2d(491, eps=1e-05, momentum=0.1, affine=True, track_running_stats=True)
    )
    (11): Block(
      (conv1): Conv2d(491, 491, kernel_size=(3, 3), stride=(2, 2), padding=(1, 1), groups=491, bias=False)
      (bn1): BatchNorm2d(491, eps=1e-05, momentum=0.1, affine=True, track_running_stats=True)
      (conv2): Conv2d(491, 983, kernel_size=(1, 1), stride=(1, 1), bias=False)
      (bn2): BatchNorm2d(983, eps=1e-05, momentum=0.1, affine=True, track_running_stats=True)
    )
    (12): Block(
      (conv1): Conv2d(983, 983, kernel_size=(3, 3), stride=(1, 1), padding=(1, 1), groups=983, bias=False)
      (bn1): BatchNorm2d(983, eps=1e-05, momentum=0.1, affine=True, track_running_stats=True)
      (conv2): Conv2d(983, 983, kernel_size=(1, 1), stride=(1, 1), bias=False)
      (bn2): BatchNorm2d(983, eps=1e-05, momentum=0.1, affine=True, track_running_stats=True)
    )
  )
  (linear): Linear(in_features=983, out_features=10, bias=True)
)
Iteration 5 out of 5; Before fine-tuning
Test loss: 1.9365 Test accuracy: 74.69 %

Iteration 5 out of 5; After fine-tuning
Test loss: 1.9969 Test accuracy: 74.67 %

MobileNetv1(
  (conv1): Conv2d(3, 30, kernel_size=(3, 3), stride=(1, 1), padding=(1, 1), bias=False)
  (bn1): BatchNorm2d(30, eps=1e-05, momentum=0.1, affine=True, track_running_stats=True)
  (layers): Sequential(
    (0): Block(
      (conv1): Conv2d(30, 30, kernel_size=(3, 3), stride=(1, 1), padding=(1, 1), groups=30, bias=False)
      (bn1): BatchNorm2d(30, eps=1e-05, momentum=0.1, affine=True, track_running_stats=True)
      (conv2): Conv2d(30, 60, kernel_size=(1, 1), stride=(1, 1), bias=False)
      (bn2): BatchNorm2d(60, eps=1e-05, momentum=0.1, affine=True, track_running_stats=True)
    )
    (1): Block(
      (conv1): Conv2d(60, 60, kernel_size=(3, 3), stride=(2, 2), padding=(1, 1), groups=60, bias=False)
      (bn1): BatchNorm2d(60, eps=1e-05, momentum=0.1, affine=True, track_running_stats=True)
      (conv2): Conv2d(60, 121, kernel_size=(1, 1), stride=(1, 1), bias=False)
      (bn2): BatchNorm2d(121, eps=1e-05, momentum=0.1, affine=True, track_running_stats=True)
    )
    (2): Block(
      (conv1): Conv2d(121, 121, kernel_size=(3, 3), stride=(1, 1), padding=(1, 1), groups=121, bias=False)
      (bn1): BatchNorm2d(121, eps=1e-05, momentum=0.1, affine=True, track_running_stats=True)
      (conv2): Conv2d(121, 121, kernel_size=(1, 1), stride=(1, 1), bias=False)
      (bn2): BatchNorm2d(121, eps=1e-05, momentum=0.1, affine=True, track_running_stats=True)
    )
    (3): Block(
      (conv1): Conv2d(121, 121, kernel_size=(3, 3), stride=(2, 2), padding=(1, 1), groups=121, bias=False)
      (bn1): BatchNorm2d(121, eps=1e-05, momentum=0.1, affine=True, track_running_stats=True)
      (conv2): Conv2d(121, 243, kernel_size=(1, 1), stride=(1, 1), bias=False)
      (bn2): BatchNorm2d(243, eps=1e-05, momentum=0.1, affine=True, track_running_stats=True)
    )
    (4): Block(
      (conv1): Conv2d(243, 243, kernel_size=(3, 3), stride=(1, 1), padding=(1, 1), groups=243, bias=False)
      (bn1): BatchNorm2d(243, eps=1e-05, momentum=0.1, affine=True, track_running_stats=True)
      (conv2): Conv2d(243, 243, kernel_size=(1, 1), stride=(1, 1), bias=False)
      (bn2): BatchNorm2d(243, eps=1e-05, momentum=0.1, affine=True, track_running_stats=True)
    )
    (5): Block(
      (conv1): Conv2d(243, 243, kernel_size=(3, 3), stride=(2, 2), padding=(1, 1), groups=243, bias=False)
      (bn1): BatchNorm2d(243, eps=1e-05, momentum=0.1, affine=True, track_running_stats=True)
      (conv2): Conv2d(243, 486, kernel_size=(1, 1), stride=(1, 1), bias=False)
      (bn2): BatchNorm2d(486, eps=1e-05, momentum=0.1, affine=True, track_running_stats=True)
    )
    (6): Block(
      (conv1): Conv2d(486, 486, kernel_size=(3, 3), stride=(1, 1), padding=(1, 1), groups=486, bias=False)
      (bn1): BatchNorm2d(486, eps=1e-05, momentum=0.1, affine=True, track_running_stats=True)
      (conv2): Conv2d(486, 486, kernel_size=(1, 1), stride=(1, 1), bias=False)
      (bn2): BatchNorm2d(486, eps=1e-05, momentum=0.1, affine=True, track_running_stats=True)
    )
    (7): Block(
      (conv1): Conv2d(486, 486, kernel_size=(3, 3), stride=(1, 1), padding=(1, 1), groups=486, bias=False)
      (bn1): BatchNorm2d(486, eps=1e-05, momentum=0.1, affine=True, track_running_stats=True)
      (conv2): Conv2d(486, 486, kernel_size=(1, 1), stride=(1, 1), bias=False)
      (bn2): BatchNorm2d(486, eps=1e-05, momentum=0.1, affine=True, track_running_stats=True)
    )
    (8): Block(
      (conv1): Conv2d(486, 486, kernel_size=(3, 3), stride=(1, 1), padding=(1, 1), groups=486, bias=False)
      (bn1): BatchNorm2d(486, eps=1e-05, momentum=0.1, affine=True, track_running_stats=True)
      (conv2): Conv2d(486, 486, kernel_size=(1, 1), stride=(1, 1), bias=False)
      (bn2): BatchNorm2d(486, eps=1e-05, momentum=0.1, affine=True, track_running_stats=True)
    )
    (9): Block(
      (conv1): Conv2d(486, 486, kernel_size=(3, 3), stride=(1, 1), padding=(1, 1), groups=486, bias=False)
      (bn1): BatchNorm2d(486, eps=1e-05, momentum=0.1, affine=True, track_running_stats=True)
      (conv2): Conv2d(486, 486, kernel_size=(1, 1), stride=(1, 1), bias=False)
      (bn2): BatchNorm2d(486, eps=1e-05, momentum=0.1, affine=True, track_running_stats=True)
    )
    (10): Block(
      (conv1): Conv2d(486, 486, kernel_size=(3, 3), stride=(1, 1), padding=(1, 1), groups=486, bias=False)
      (bn1): BatchNorm2d(486, eps=1e-05, momentum=0.1, affine=True, track_running_stats=True)
      (conv2): Conv2d(486, 486, kernel_size=(1, 1), stride=(1, 1), bias=False)
      (bn2): BatchNorm2d(486, eps=1e-05, momentum=0.1, affine=True, track_running_stats=True)
    )
    (11): Block(
      (conv1): Conv2d(486, 486, kernel_size=(3, 3), stride=(2, 2), padding=(1, 1), groups=486, bias=False)
      (bn1): BatchNorm2d(486, eps=1e-05, momentum=0.1, affine=True, track_running_stats=True)
      (conv2): Conv2d(486, 972, kernel_size=(1, 1), stride=(1, 1), bias=False)
      (bn2): BatchNorm2d(972, eps=1e-05, momentum=0.1, affine=True, track_running_stats=True)
    )
    (12): Block(
      (conv1): Conv2d(972, 972, kernel_size=(3, 3), stride=(1, 1), padding=(1, 1), groups=972, bias=False)
      (bn1): BatchNorm2d(972, eps=1e-05, momentum=0.1, affine=True, track_running_stats=True)
      (conv2): Conv2d(972, 972, kernel_size=(1, 1), stride=(1, 1), bias=False)
      (bn2): BatchNorm2d(972, eps=1e-05, momentum=0.1, affine=True, track_running_stats=True)
    )
  )
  (linear): Linear(in_features=972, out_features=10, bias=True)
)
Before pruning:
Test loss: 1.3740 Test accuracy: 78.11 %

MobileNetv1(
  (conv1): Conv2d(3, 32, kernel_size=(3, 3), stride=(1, 1), padding=(1, 1), bias=False)
  (bn1): BatchNorm2d(32, eps=1e-05, momentum=0.1, affine=True, track_running_stats=True)
  (layers): Sequential(
    (0): Block(
      (conv1): Conv2d(32, 32, kernel_size=(3, 3), stride=(1, 1), padding=(1, 1), groups=32, bias=False)
      (bn1): BatchNorm2d(32, eps=1e-05, momentum=0.1, affine=True, track_running_stats=True)
      (conv2): Conv2d(32, 64, kernel_size=(1, 1), stride=(1, 1), bias=False)
      (bn2): BatchNorm2d(64, eps=1e-05, momentum=0.1, affine=True, track_running_stats=True)
    )
    (1): Block(
      (conv1): Conv2d(64, 64, kernel_size=(3, 3), stride=(2, 2), padding=(1, 1), groups=64, bias=False)
      (bn1): BatchNorm2d(64, eps=1e-05, momentum=0.1, affine=True, track_running_stats=True)
      (conv2): Conv2d(64, 128, kernel_size=(1, 1), stride=(1, 1), bias=False)
      (bn2): BatchNorm2d(128, eps=1e-05, momentum=0.1, affine=True, track_running_stats=True)
    )
    (2): Block(
      (conv1): Conv2d(128, 128, kernel_size=(3, 3), stride=(1, 1), padding=(1, 1), groups=128, bias=False)
      (bn1): BatchNorm2d(128, eps=1e-05, momentum=0.1, affine=True, track_running_stats=True)
      (conv2): Conv2d(128, 128, kernel_size=(1, 1), stride=(1, 1), bias=False)
      (bn2): BatchNorm2d(128, eps=1e-05, momentum=0.1, affine=True, track_running_stats=True)
    )
    (3): Block(
      (conv1): Conv2d(128, 128, kernel_size=(3, 3), stride=(2, 2), padding=(1, 1), groups=128, bias=False)
      (bn1): BatchNorm2d(128, eps=1e-05, momentum=0.1, affine=True, track_running_stats=True)
      (conv2): Conv2d(128, 256, kernel_size=(1, 1), stride=(1, 1), bias=False)
      (bn2): BatchNorm2d(256, eps=1e-05, momentum=0.1, affine=True, track_running_stats=True)
    )
    (4): Block(
      (conv1): Conv2d(256, 256, kernel_size=(3, 3), stride=(1, 1), padding=(1, 1), groups=256, bias=False)
      (bn1): BatchNorm2d(256, eps=1e-05, momentum=0.1, affine=True, track_running_stats=True)
      (conv2): Conv2d(256, 256, kernel_size=(1, 1), stride=(1, 1), bias=False)
      (bn2): BatchNorm2d(256, eps=1e-05, momentum=0.1, affine=True, track_running_stats=True)
    )
    (5): Block(
      (conv1): Conv2d(256, 256, kernel_size=(3, 3), stride=(2, 2), padding=(1, 1), groups=256, bias=False)
      (bn1): BatchNorm2d(256, eps=1e-05, momentum=0.1, affine=True, track_running_stats=True)
      (conv2): Conv2d(256, 512, kernel_size=(1, 1), stride=(1, 1), bias=False)
      (bn2): BatchNorm2d(512, eps=1e-05, momentum=0.1, affine=True, track_running_stats=True)
    )
    (6): Block(
      (conv1): Conv2d(512, 512, kernel_size=(3, 3), stride=(1, 1), padding=(1, 1), groups=512, bias=False)
      (bn1): BatchNorm2d(512, eps=1e-05, momentum=0.1, affine=True, track_running_stats=True)
      (conv2): Conv2d(512, 512, kernel_size=(1, 1), stride=(1, 1), bias=False)
      (bn2): BatchNorm2d(512, eps=1e-05, momentum=0.1, affine=True, track_running_stats=True)
    )
    (7): Block(
      (conv1): Conv2d(512, 512, kernel_size=(3, 3), stride=(1, 1), padding=(1, 1), groups=512, bias=False)
      (bn1): BatchNorm2d(512, eps=1e-05, momentum=0.1, affine=True, track_running_stats=True)
      (conv2): Conv2d(512, 512, kernel_size=(1, 1), stride=(1, 1), bias=False)
      (bn2): BatchNorm2d(512, eps=1e-05, momentum=0.1, affine=True, track_running_stats=True)
    )
    (8): Block(
      (conv1): Conv2d(512, 512, kernel_size=(3, 3), stride=(1, 1), padding=(1, 1), groups=512, bias=False)
      (bn1): BatchNorm2d(512, eps=1e-05, momentum=0.1, affine=True, track_running_stats=True)
      (conv2): Conv2d(512, 512, kernel_size=(1, 1), stride=(1, 1), bias=False)
      (bn2): BatchNorm2d(512, eps=1e-05, momentum=0.1, affine=True, track_running_stats=True)
    )
    (9): Block(
      (conv1): Conv2d(512, 512, kernel_size=(3, 3), stride=(1, 1), padding=(1, 1), groups=512, bias=False)
      (bn1): BatchNorm2d(512, eps=1e-05, momentum=0.1, affine=True, track_running_stats=True)
      (conv2): Conv2d(512, 512, kernel_size=(1, 1), stride=(1, 1), bias=False)
      (bn2): BatchNorm2d(512, eps=1e-05, momentum=0.1, affine=True, track_running_stats=True)
    )
    (10): Block(
      (conv1): Conv2d(512, 512, kernel_size=(3, 3), stride=(1, 1), padding=(1, 1), groups=512, bias=False)
      (bn1): BatchNorm2d(512, eps=1e-05, momentum=0.1, affine=True, track_running_stats=True)
      (conv2): Conv2d(512, 512, kernel_size=(1, 1), stride=(1, 1), bias=False)
      (bn2): BatchNorm2d(512, eps=1e-05, momentum=0.1, affine=True, track_running_stats=True)
    )
    (11): Block(
      (conv1): Conv2d(512, 512, kernel_size=(3, 3), stride=(2, 2), padding=(1, 1), groups=512, bias=False)
      (bn1): BatchNorm2d(512, eps=1e-05, momentum=0.1, affine=True, track_running_stats=True)
      (conv2): Conv2d(512, 1024, kernel_size=(1, 1), stride=(1, 1), bias=False)
      (bn2): BatchNorm2d(1024, eps=1e-05, momentum=0.1, affine=True, track_running_stats=True)
    )
    (12): Block(
      (conv1): Conv2d(1024, 1024, kernel_size=(3, 3), stride=(1, 1), padding=(1, 1), groups=1024, bias=False)
      (bn1): BatchNorm2d(1024, eps=1e-05, momentum=0.1, affine=True, track_running_stats=True)
      (conv2): Conv2d(1024, 1024, kernel_size=(1, 1), stride=(1, 1), bias=False)
      (bn2): BatchNorm2d(1024, eps=1e-05, momentum=0.1, affine=True, track_running_stats=True)
    )
  )
  (linear): Linear(in_features=1024, out_features=10, bias=True)
)
Pruning Ratio: 0.1
Iteration 1 out of 5; Before fine-tuning
Test loss: 1.3473 Test accuracy: 77.97 %

Iteration 1 out of 5; After fine-tuning
Test loss: 1.9542 Test accuracy: 74.93 %

MobileNetv1(
  (conv1): Conv2d(3, 31, kernel_size=(3, 3), stride=(1, 1), padding=(1, 1), bias=False)
  (bn1): BatchNorm2d(31, eps=1e-05, momentum=0.1, affine=True, track_running_stats=True)
  (layers): Sequential(
    (0): Block(
      (conv1): Conv2d(31, 31, kernel_size=(3, 3), stride=(1, 1), padding=(1, 1), groups=31, bias=False)
      (bn1): BatchNorm2d(31, eps=1e-05, momentum=0.1, affine=True, track_running_stats=True)
      (conv2): Conv2d(31, 62, kernel_size=(1, 1), stride=(1, 1), bias=False)
      (bn2): BatchNorm2d(62, eps=1e-05, momentum=0.1, affine=True, track_running_stats=True)
    )
    (1): Block(
      (conv1): Conv2d(62, 62, kernel_size=(3, 3), stride=(2, 2), padding=(1, 1), groups=62, bias=False)
      (bn1): BatchNorm2d(62, eps=1e-05, momentum=0.1, affine=True, track_running_stats=True)
      (conv2): Conv2d(62, 125, kernel_size=(1, 1), stride=(1, 1), bias=False)
      (bn2): BatchNorm2d(125, eps=1e-05, momentum=0.1, affine=True, track_running_stats=True)
    )
    (2): Block(
      (conv1): Conv2d(125, 125, kernel_size=(3, 3), stride=(1, 1), padding=(1, 1), groups=125, bias=False)
      (bn1): BatchNorm2d(125, eps=1e-05, momentum=0.1, affine=True, track_running_stats=True)
      (conv2): Conv2d(125, 125, kernel_size=(1, 1), stride=(1, 1), bias=False)
      (bn2): BatchNorm2d(125, eps=1e-05, momentum=0.1, affine=True, track_running_stats=True)
    )
    (3): Block(
      (conv1): Conv2d(125, 125, kernel_size=(3, 3), stride=(2, 2), padding=(1, 1), groups=125, bias=False)
      (bn1): BatchNorm2d(125, eps=1e-05, momentum=0.1, affine=True, track_running_stats=True)
      (conv2): Conv2d(125, 250, kernel_size=(1, 1), stride=(1, 1), bias=False)
      (bn2): BatchNorm2d(250, eps=1e-05, momentum=0.1, affine=True, track_running_stats=True)
    )
    (4): Block(
      (conv1): Conv2d(250, 250, kernel_size=(3, 3), stride=(1, 1), padding=(1, 1), groups=250, bias=False)
      (bn1): BatchNorm2d(250, eps=1e-05, momentum=0.1, affine=True, track_running_stats=True)
      (conv2): Conv2d(250, 250, kernel_size=(1, 1), stride=(1, 1), bias=False)
      (bn2): BatchNorm2d(250, eps=1e-05, momentum=0.1, affine=True, track_running_stats=True)
    )
    (5): Block(
      (conv1): Conv2d(250, 250, kernel_size=(3, 3), stride=(2, 2), padding=(1, 1), groups=250, bias=False)
      (bn1): BatchNorm2d(250, eps=1e-05, momentum=0.1, affine=True, track_running_stats=True)
      (conv2): Conv2d(250, 501, kernel_size=(1, 1), stride=(1, 1), bias=False)
      (bn2): BatchNorm2d(501, eps=1e-05, momentum=0.1, affine=True, track_running_stats=True)
    )
    (6): Block(
      (conv1): Conv2d(501, 501, kernel_size=(3, 3), stride=(1, 1), padding=(1, 1), groups=501, bias=False)
      (bn1): BatchNorm2d(501, eps=1e-05, momentum=0.1, affine=True, track_running_stats=True)
      (conv2): Conv2d(501, 501, kernel_size=(1, 1), stride=(1, 1), bias=False)
      (bn2): BatchNorm2d(501, eps=1e-05, momentum=0.1, affine=True, track_running_stats=True)
    )
    (7): Block(
      (conv1): Conv2d(501, 501, kernel_size=(3, 3), stride=(1, 1), padding=(1, 1), groups=501, bias=False)
      (bn1): BatchNorm2d(501, eps=1e-05, momentum=0.1, affine=True, track_running_stats=True)
      (conv2): Conv2d(501, 501, kernel_size=(1, 1), stride=(1, 1), bias=False)
      (bn2): BatchNorm2d(501, eps=1e-05, momentum=0.1, affine=True, track_running_stats=True)
    )
    (8): Block(
      (conv1): Conv2d(501, 501, kernel_size=(3, 3), stride=(1, 1), padding=(1, 1), groups=501, bias=False)
      (bn1): BatchNorm2d(501, eps=1e-05, momentum=0.1, affine=True, track_running_stats=True)
      (conv2): Conv2d(501, 501, kernel_size=(1, 1), stride=(1, 1), bias=False)
      (bn2): BatchNorm2d(501, eps=1e-05, momentum=0.1, affine=True, track_running_stats=True)
    )
    (9): Block(
      (conv1): Conv2d(501, 501, kernel_size=(3, 3), stride=(1, 1), padding=(1, 1), groups=501, bias=False)
      (bn1): BatchNorm2d(501, eps=1e-05, momentum=0.1, affine=True, track_running_stats=True)
      (conv2): Conv2d(501, 501, kernel_size=(1, 1), stride=(1, 1), bias=False)
      (bn2): BatchNorm2d(501, eps=1e-05, momentum=0.1, affine=True, track_running_stats=True)
    )
    (10): Block(
      (conv1): Conv2d(501, 501, kernel_size=(3, 3), stride=(1, 1), padding=(1, 1), groups=501, bias=False)
      (bn1): BatchNorm2d(501, eps=1e-05, momentum=0.1, affine=True, track_running_stats=True)
      (conv2): Conv2d(501, 501, kernel_size=(1, 1), stride=(1, 1), bias=False)
      (bn2): BatchNorm2d(501, eps=1e-05, momentum=0.1, affine=True, track_running_stats=True)
    )
    (11): Block(
      (conv1): Conv2d(501, 501, kernel_size=(3, 3), stride=(2, 2), padding=(1, 1), groups=501, bias=False)
      (bn1): BatchNorm2d(501, eps=1e-05, momentum=0.1, affine=True, track_running_stats=True)
      (conv2): Conv2d(501, 1003, kernel_size=(1, 1), stride=(1, 1), bias=False)
      (bn2): BatchNorm2d(1003, eps=1e-05, momentum=0.1, affine=True, track_running_stats=True)
    )
    (12): Block(
      (conv1): Conv2d(1003, 1003, kernel_size=(3, 3), stride=(1, 1), padding=(1, 1), groups=1003, bias=False)
      (bn1): BatchNorm2d(1003, eps=1e-05, momentum=0.1, affine=True, track_running_stats=True)
      (conv2): Conv2d(1003, 1003, kernel_size=(1, 1), stride=(1, 1), bias=False)
      (bn2): BatchNorm2d(1003, eps=1e-05, momentum=0.1, affine=True, track_running_stats=True)
    )
  )
  (linear): Linear(in_features=1003, out_features=10, bias=True)
)
Iteration 2 out of 5; Before fine-tuning
Test loss: 1.9349 Test accuracy: 74.46 %

Iteration 2 out of 5; After fine-tuning
Test loss: 1.9838 Test accuracy: 74.85 %

MobileNetv1(
  (conv1): Conv2d(3, 30, kernel_size=(3, 3), stride=(1, 1), padding=(1, 1), bias=False)
  (bn1): BatchNorm2d(30, eps=1e-05, momentum=0.1, affine=True, track_running_stats=True)
  (layers): Sequential(
    (0): Block(
      (conv1): Conv2d(30, 30, kernel_size=(3, 3), stride=(1, 1), padding=(1, 1), groups=30, bias=False)
      (bn1): BatchNorm2d(30, eps=1e-05, momentum=0.1, affine=True, track_running_stats=True)
      (conv2): Conv2d(30, 61, kernel_size=(1, 1), stride=(1, 1), bias=False)
      (bn2): BatchNorm2d(61, eps=1e-05, momentum=0.1, affine=True, track_running_stats=True)
    )
    (1): Block(
      (conv1): Conv2d(61, 61, kernel_size=(3, 3), stride=(2, 2), padding=(1, 1), groups=61, bias=False)
      (bn1): BatchNorm2d(61, eps=1e-05, momentum=0.1, affine=True, track_running_stats=True)
      (conv2): Conv2d(61, 122, kernel_size=(1, 1), stride=(1, 1), bias=False)
      (bn2): BatchNorm2d(122, eps=1e-05, momentum=0.1, affine=True, track_running_stats=True)
    )
    (2): Block(
      (conv1): Conv2d(122, 122, kernel_size=(3, 3), stride=(1, 1), padding=(1, 1), groups=122, bias=False)
      (bn1): BatchNorm2d(122, eps=1e-05, momentum=0.1, affine=True, track_running_stats=True)
      (conv2): Conv2d(122, 122, kernel_size=(1, 1), stride=(1, 1), bias=False)
      (bn2): BatchNorm2d(122, eps=1e-05, momentum=0.1, affine=True, track_running_stats=True)
    )
    (3): Block(
      (conv1): Conv2d(122, 122, kernel_size=(3, 3), stride=(2, 2), padding=(1, 1), groups=122, bias=False)
      (bn1): BatchNorm2d(122, eps=1e-05, momentum=0.1, affine=True, track_running_stats=True)
      (conv2): Conv2d(122, 245, kernel_size=(1, 1), stride=(1, 1), bias=False)
      (bn2): BatchNorm2d(245, eps=1e-05, momentum=0.1, affine=True, track_running_stats=True)
    )
    (4): Block(
      (conv1): Conv2d(245, 245, kernel_size=(3, 3), stride=(1, 1), padding=(1, 1), groups=245, bias=False)
      (bn1): BatchNorm2d(245, eps=1e-05, momentum=0.1, affine=True, track_running_stats=True)
      (conv2): Conv2d(245, 245, kernel_size=(1, 1), stride=(1, 1), bias=False)
      (bn2): BatchNorm2d(245, eps=1e-05, momentum=0.1, affine=True, track_running_stats=True)
    )
    (5): Block(
      (conv1): Conv2d(245, 245, kernel_size=(3, 3), stride=(2, 2), padding=(1, 1), groups=245, bias=False)
      (bn1): BatchNorm2d(245, eps=1e-05, momentum=0.1, affine=True, track_running_stats=True)
      (conv2): Conv2d(245, 491, kernel_size=(1, 1), stride=(1, 1), bias=False)
      (bn2): BatchNorm2d(491, eps=1e-05, momentum=0.1, affine=True, track_running_stats=True)
    )
    (6): Block(
      (conv1): Conv2d(491, 491, kernel_size=(3, 3), stride=(1, 1), padding=(1, 1), groups=491, bias=False)
      (bn1): BatchNorm2d(491, eps=1e-05, momentum=0.1, affine=True, track_running_stats=True)
      (conv2): Conv2d(491, 491, kernel_size=(1, 1), stride=(1, 1), bias=False)
      (bn2): BatchNorm2d(491, eps=1e-05, momentum=0.1, affine=True, track_running_stats=True)
    )
    (7): Block(
      (conv1): Conv2d(491, 491, kernel_size=(3, 3), stride=(1, 1), padding=(1, 1), groups=491, bias=False)
      (bn1): BatchNorm2d(491, eps=1e-05, momentum=0.1, affine=True, track_running_stats=True)
      (conv2): Conv2d(491, 491, kernel_size=(1, 1), stride=(1, 1), bias=False)
      (bn2): BatchNorm2d(491, eps=1e-05, momentum=0.1, affine=True, track_running_stats=True)
    )
    (8): Block(
      (conv1): Conv2d(491, 491, kernel_size=(3, 3), stride=(1, 1), padding=(1, 1), groups=491, bias=False)
      (bn1): BatchNorm2d(491, eps=1e-05, momentum=0.1, affine=True, track_running_stats=True)
      (conv2): Conv2d(491, 491, kernel_size=(1, 1), stride=(1, 1), bias=False)
      (bn2): BatchNorm2d(491, eps=1e-05, momentum=0.1, affine=True, track_running_stats=True)
    )
    (9): Block(
      (conv1): Conv2d(491, 491, kernel_size=(3, 3), stride=(1, 1), padding=(1, 1), groups=491, bias=False)
      (bn1): BatchNorm2d(491, eps=1e-05, momentum=0.1, affine=True, track_running_stats=True)
      (conv2): Conv2d(491, 491, kernel_size=(1, 1), stride=(1, 1), bias=False)
      (bn2): BatchNorm2d(491, eps=1e-05, momentum=0.1, affine=True, track_running_stats=True)
    )
    (10): Block(
      (conv1): Conv2d(491, 491, kernel_size=(3, 3), stride=(1, 1), padding=(1, 1), groups=491, bias=False)
      (bn1): BatchNorm2d(491, eps=1e-05, momentum=0.1, affine=True, track_running_stats=True)
      (conv2): Conv2d(491, 491, kernel_size=(1, 1), stride=(1, 1), bias=False)
      (bn2): BatchNorm2d(491, eps=1e-05, momentum=0.1, affine=True, track_running_stats=True)
    )
    (11): Block(
      (conv1): Conv2d(491, 491, kernel_size=(3, 3), stride=(2, 2), padding=(1, 1), groups=491, bias=False)
      (bn1): BatchNorm2d(491, eps=1e-05, momentum=0.1, affine=True, track_running_stats=True)
      (conv2): Conv2d(491, 983, kernel_size=(1, 1), stride=(1, 1), bias=False)
      (bn2): BatchNorm2d(983, eps=1e-05, momentum=0.1, affine=True, track_running_stats=True)
    )
    (12): Block(
      (conv1): Conv2d(983, 983, kernel_size=(3, 3), stride=(1, 1), padding=(1, 1), groups=983, bias=False)
      (bn1): BatchNorm2d(983, eps=1e-05, momentum=0.1, affine=True, track_running_stats=True)
      (conv2): Conv2d(983, 983, kernel_size=(1, 1), stride=(1, 1), bias=False)
      (bn2): BatchNorm2d(983, eps=1e-05, momentum=0.1, affine=True, track_running_stats=True)
    )
  )
  (linear): Linear(in_features=983, out_features=10, bias=True)
)
Iteration 3 out of 5; Before fine-tuning
Test loss: 2.0012 Test accuracy: 74.21 %

Iteration 3 out of 5; After fine-tuning
Test loss: 1.9717 Test accuracy: 74.50 %

MobileNetv1(
  (conv1): Conv2d(3, 30, kernel_size=(3, 3), stride=(1, 1), padding=(1, 1), bias=False)
  (bn1): BatchNorm2d(30, eps=1e-05, momentum=0.1, affine=True, track_running_stats=True)
  (layers): Sequential(
    (0): Block(
      (conv1): Conv2d(30, 30, kernel_size=(3, 3), stride=(1, 1), padding=(1, 1), groups=30, bias=False)
      (bn1): BatchNorm2d(30, eps=1e-05, momentum=0.1, affine=True, track_running_stats=True)
      (conv2): Conv2d(30, 60, kernel_size=(1, 1), stride=(1, 1), bias=False)
      (bn2): BatchNorm2d(60, eps=1e-05, momentum=0.1, affine=True, track_running_stats=True)
    )
    (1): Block(
      (conv1): Conv2d(60, 60, kernel_size=(3, 3), stride=(2, 2), padding=(1, 1), groups=60, bias=False)
      (bn1): BatchNorm2d(60, eps=1e-05, momentum=0.1, affine=True, track_running_stats=True)
      (conv2): Conv2d(60, 120, kernel_size=(1, 1), stride=(1, 1), bias=False)
      (bn2): BatchNorm2d(120, eps=1e-05, momentum=0.1, affine=True, track_running_stats=True)
    )
    (2): Block(
      (conv1): Conv2d(120, 120, kernel_size=(3, 3), stride=(1, 1), padding=(1, 1), groups=120, bias=False)
      (bn1): BatchNorm2d(120, eps=1e-05, momentum=0.1, affine=True, track_running_stats=True)
      (conv2): Conv2d(120, 120, kernel_size=(1, 1), stride=(1, 1), bias=False)
      (bn2): BatchNorm2d(120, eps=1e-05, momentum=0.1, affine=True, track_running_stats=True)
    )
    (3): Block(
      (conv1): Conv2d(120, 120, kernel_size=(3, 3), stride=(2, 2), padding=(1, 1), groups=120, bias=False)
      (bn1): BatchNorm2d(120, eps=1e-05, momentum=0.1, affine=True, track_running_stats=True)
      (conv2): Conv2d(120, 240, kernel_size=(1, 1), stride=(1, 1), bias=False)
      (bn2): BatchNorm2d(240, eps=1e-05, momentum=0.1, affine=True, track_running_stats=True)
    )
    (4): Block(
      (conv1): Conv2d(240, 240, kernel_size=(3, 3), stride=(1, 1), padding=(1, 1), groups=240, bias=False)
      (bn1): BatchNorm2d(240, eps=1e-05, momentum=0.1, affine=True, track_running_stats=True)
      (conv2): Conv2d(240, 240, kernel_size=(1, 1), stride=(1, 1), bias=False)
      (bn2): BatchNorm2d(240, eps=1e-05, momentum=0.1, affine=True, track_running_stats=True)
    )
    (5): Block(
      (conv1): Conv2d(240, 240, kernel_size=(3, 3), stride=(2, 2), padding=(1, 1), groups=240, bias=False)
      (bn1): BatchNorm2d(240, eps=1e-05, momentum=0.1, affine=True, track_running_stats=True)
      (conv2): Conv2d(240, 481, kernel_size=(1, 1), stride=(1, 1), bias=False)
      (bn2): BatchNorm2d(481, eps=1e-05, momentum=0.1, affine=True, track_running_stats=True)
    )
    (6): Block(
      (conv1): Conv2d(481, 481, kernel_size=(3, 3), stride=(1, 1), padding=(1, 1), groups=481, bias=False)
      (bn1): BatchNorm2d(481, eps=1e-05, momentum=0.1, affine=True, track_running_stats=True)
      (conv2): Conv2d(481, 481, kernel_size=(1, 1), stride=(1, 1), bias=False)
      (bn2): BatchNorm2d(481, eps=1e-05, momentum=0.1, affine=True, track_running_stats=True)
    )
    (7): Block(
      (conv1): Conv2d(481, 481, kernel_size=(3, 3), stride=(1, 1), padding=(1, 1), groups=481, bias=False)
      (bn1): BatchNorm2d(481, eps=1e-05, momentum=0.1, affine=True, track_running_stats=True)
      (conv2): Conv2d(481, 481, kernel_size=(1, 1), stride=(1, 1), bias=False)
      (bn2): BatchNorm2d(481, eps=1e-05, momentum=0.1, affine=True, track_running_stats=True)
    )
    (8): Block(
      (conv1): Conv2d(481, 481, kernel_size=(3, 3), stride=(1, 1), padding=(1, 1), groups=481, bias=False)
      (bn1): BatchNorm2d(481, eps=1e-05, momentum=0.1, affine=True, track_running_stats=True)
      (conv2): Conv2d(481, 481, kernel_size=(1, 1), stride=(1, 1), bias=False)
      (bn2): BatchNorm2d(481, eps=1e-05, momentum=0.1, affine=True, track_running_stats=True)
    )
    (9): Block(
      (conv1): Conv2d(481, 481, kernel_size=(3, 3), stride=(1, 1), padding=(1, 1), groups=481, bias=False)
      (bn1): BatchNorm2d(481, eps=1e-05, momentum=0.1, affine=True, track_running_stats=True)
      (conv2): Conv2d(481, 481, kernel_size=(1, 1), stride=(1, 1), bias=False)
      (bn2): BatchNorm2d(481, eps=1e-05, momentum=0.1, affine=True, track_running_stats=True)
    )
    (10): Block(
      (conv1): Conv2d(481, 481, kernel_size=(3, 3), stride=(1, 1), padding=(1, 1), groups=481, bias=False)
      (bn1): BatchNorm2d(481, eps=1e-05, momentum=0.1, affine=True, track_running_stats=True)
      (conv2): Conv2d(481, 481, kernel_size=(1, 1), stride=(1, 1), bias=False)
      (bn2): BatchNorm2d(481, eps=1e-05, momentum=0.1, affine=True, track_running_stats=True)
    )
    (11): Block(
      (conv1): Conv2d(481, 481, kernel_size=(3, 3), stride=(2, 2), padding=(1, 1), groups=481, bias=False)
      (bn1): BatchNorm2d(481, eps=1e-05, momentum=0.1, affine=True, track_running_stats=True)
      (conv2): Conv2d(481, 962, kernel_size=(1, 1), stride=(1, 1), bias=False)
      (bn2): BatchNorm2d(962, eps=1e-05, momentum=0.1, affine=True, track_running_stats=True)
    )
    (12): Block(
      (conv1): Conv2d(962, 962, kernel_size=(3, 3), stride=(1, 1), padding=(1, 1), groups=962, bias=False)
      (bn1): BatchNorm2d(962, eps=1e-05, momentum=0.1, affine=True, track_running_stats=True)
      (conv2): Conv2d(962, 962, kernel_size=(1, 1), stride=(1, 1), bias=False)
      (bn2): BatchNorm2d(962, eps=1e-05, momentum=0.1, affine=True, track_running_stats=True)
    )
  )
  (linear): Linear(in_features=962, out_features=10, bias=True)
)
Iteration 4 out of 5; Before fine-tuning
Test loss: 2.0000 Test accuracy: 72.96 %

Iteration 4 out of 5; After fine-tuning
Test loss: 2.0749 Test accuracy: 74.13 %

MobileNetv1(
  (conv1): Conv2d(3, 29, kernel_size=(3, 3), stride=(1, 1), padding=(1, 1), bias=False)
  (bn1): BatchNorm2d(29, eps=1e-05, momentum=0.1, affine=True, track_running_stats=True)
  (layers): Sequential(
    (0): Block(
      (conv1): Conv2d(29, 29, kernel_size=(3, 3), stride=(1, 1), padding=(1, 1), groups=29, bias=False)
      (bn1): BatchNorm2d(29, eps=1e-05, momentum=0.1, affine=True, track_running_stats=True)
      (conv2): Conv2d(29, 58, kernel_size=(1, 1), stride=(1, 1), bias=False)
      (bn2): BatchNorm2d(58, eps=1e-05, momentum=0.1, affine=True, track_running_stats=True)
    )
    (1): Block(
      (conv1): Conv2d(58, 58, kernel_size=(3, 3), stride=(2, 2), padding=(1, 1), groups=58, bias=False)
      (bn1): BatchNorm2d(58, eps=1e-05, momentum=0.1, affine=True, track_running_stats=True)
      (conv2): Conv2d(58, 117, kernel_size=(1, 1), stride=(1, 1), bias=False)
      (bn2): BatchNorm2d(117, eps=1e-05, momentum=0.1, affine=True, track_running_stats=True)
    )
    (2): Block(
      (conv1): Conv2d(117, 117, kernel_size=(3, 3), stride=(1, 1), padding=(1, 1), groups=117, bias=False)
      (bn1): BatchNorm2d(117, eps=1e-05, momentum=0.1, affine=True, track_running_stats=True)
      (conv2): Conv2d(117, 117, kernel_size=(1, 1), stride=(1, 1), bias=False)
      (bn2): BatchNorm2d(117, eps=1e-05, momentum=0.1, affine=True, track_running_stats=True)
    )
    (3): Block(
      (conv1): Conv2d(117, 117, kernel_size=(3, 3), stride=(2, 2), padding=(1, 1), groups=117, bias=False)
      (bn1): BatchNorm2d(117, eps=1e-05, momentum=0.1, affine=True, track_running_stats=True)
      (conv2): Conv2d(117, 235, kernel_size=(1, 1), stride=(1, 1), bias=False)
      (bn2): BatchNorm2d(235, eps=1e-05, momentum=0.1, affine=True, track_running_stats=True)
    )
    (4): Block(
      (conv1): Conv2d(235, 235, kernel_size=(3, 3), stride=(1, 1), padding=(1, 1), groups=235, bias=False)
      (bn1): BatchNorm2d(235, eps=1e-05, momentum=0.1, affine=True, track_running_stats=True)
      (conv2): Conv2d(235, 235, kernel_size=(1, 1), stride=(1, 1), bias=False)
      (bn2): BatchNorm2d(235, eps=1e-05, momentum=0.1, affine=True, track_running_stats=True)
    )
    (5): Block(
      (conv1): Conv2d(235, 235, kernel_size=(3, 3), stride=(2, 2), padding=(1, 1), groups=235, bias=False)
      (bn1): BatchNorm2d(235, eps=1e-05, momentum=0.1, affine=True, track_running_stats=True)
      (conv2): Conv2d(235, 471, kernel_size=(1, 1), stride=(1, 1), bias=False)
      (bn2): BatchNorm2d(471, eps=1e-05, momentum=0.1, affine=True, track_running_stats=True)
    )
    (6): Block(
      (conv1): Conv2d(471, 471, kernel_size=(3, 3), stride=(1, 1), padding=(1, 1), groups=471, bias=False)
      (bn1): BatchNorm2d(471, eps=1e-05, momentum=0.1, affine=True, track_running_stats=True)
      (conv2): Conv2d(471, 471, kernel_size=(1, 1), stride=(1, 1), bias=False)
      (bn2): BatchNorm2d(471, eps=1e-05, momentum=0.1, affine=True, track_running_stats=True)
    )
    (7): Block(
      (conv1): Conv2d(471, 471, kernel_size=(3, 3), stride=(1, 1), padding=(1, 1), groups=471, bias=False)
      (bn1): BatchNorm2d(471, eps=1e-05, momentum=0.1, affine=True, track_running_stats=True)
      (conv2): Conv2d(471, 471, kernel_size=(1, 1), stride=(1, 1), bias=False)
      (bn2): BatchNorm2d(471, eps=1e-05, momentum=0.1, affine=True, track_running_stats=True)
    )
    (8): Block(
      (conv1): Conv2d(471, 471, kernel_size=(3, 3), stride=(1, 1), padding=(1, 1), groups=471, bias=False)
      (bn1): BatchNorm2d(471, eps=1e-05, momentum=0.1, affine=True, track_running_stats=True)
      (conv2): Conv2d(471, 471, kernel_size=(1, 1), stride=(1, 1), bias=False)
      (bn2): BatchNorm2d(471, eps=1e-05, momentum=0.1, affine=True, track_running_stats=True)
    )
    (9): Block(
      (conv1): Conv2d(471, 471, kernel_size=(3, 3), stride=(1, 1), padding=(1, 1), groups=471, bias=False)
      (bn1): BatchNorm2d(471, eps=1e-05, momentum=0.1, affine=True, track_running_stats=True)
      (conv2): Conv2d(471, 471, kernel_size=(1, 1), stride=(1, 1), bias=False)
      (bn2): BatchNorm2d(471, eps=1e-05, momentum=0.1, affine=True, track_running_stats=True)
    )
    (10): Block(
      (conv1): Conv2d(471, 471, kernel_size=(3, 3), stride=(1, 1), padding=(1, 1), groups=471, bias=False)
      (bn1): BatchNorm2d(471, eps=1e-05, momentum=0.1, affine=True, track_running_stats=True)
      (conv2): Conv2d(471, 471, kernel_size=(1, 1), stride=(1, 1), bias=False)
      (bn2): BatchNorm2d(471, eps=1e-05, momentum=0.1, affine=True, track_running_stats=True)
    )
    (11): Block(
      (conv1): Conv2d(471, 471, kernel_size=(3, 3), stride=(2, 2), padding=(1, 1), groups=471, bias=False)
      (bn1): BatchNorm2d(471, eps=1e-05, momentum=0.1, affine=True, track_running_stats=True)
      (conv2): Conv2d(471, 942, kernel_size=(1, 1), stride=(1, 1), bias=False)
      (bn2): BatchNorm2d(942, eps=1e-05, momentum=0.1, affine=True, track_running_stats=True)
    )
    (12): Block(
      (conv1): Conv2d(942, 942, kernel_size=(3, 3), stride=(1, 1), padding=(1, 1), groups=942, bias=False)
      (bn1): BatchNorm2d(942, eps=1e-05, momentum=0.1, affine=True, track_running_stats=True)
      (conv2): Conv2d(942, 942, kernel_size=(1, 1), stride=(1, 1), bias=False)
      (bn2): BatchNorm2d(942, eps=1e-05, momentum=0.1, affine=True, track_running_stats=True)
    )
  )
  (linear): Linear(in_features=942, out_features=10, bias=True)
)
Iteration 5 out of 5; Before fine-tuning
Test loss: 1.9902 Test accuracy: 73.44 %

Iteration 5 out of 5; After fine-tuning
Test loss: 2.1431 Test accuracy: 73.42 %

MobileNetv1(
  (conv1): Conv2d(3, 28, kernel_size=(3, 3), stride=(1, 1), padding=(1, 1), bias=False)
  (bn1): BatchNorm2d(28, eps=1e-05, momentum=0.1, affine=True, track_running_stats=True)
  (layers): Sequential(
    (0): Block(
      (conv1): Conv2d(28, 28, kernel_size=(3, 3), stride=(1, 1), padding=(1, 1), groups=28, bias=False)
      (bn1): BatchNorm2d(28, eps=1e-05, momentum=0.1, affine=True, track_running_stats=True)
      (conv2): Conv2d(28, 57, kernel_size=(1, 1), stride=(1, 1), bias=False)
      (bn2): BatchNorm2d(57, eps=1e-05, momentum=0.1, affine=True, track_running_stats=True)
    )
    (1): Block(
      (conv1): Conv2d(57, 57, kernel_size=(3, 3), stride=(2, 2), padding=(1, 1), groups=57, bias=False)
      (bn1): BatchNorm2d(57, eps=1e-05, momentum=0.1, affine=True, track_running_stats=True)
      (conv2): Conv2d(57, 115, kernel_size=(1, 1), stride=(1, 1), bias=False)
      (bn2): BatchNorm2d(115, eps=1e-05, momentum=0.1, affine=True, track_running_stats=True)
    )
    (2): Block(
      (conv1): Conv2d(115, 115, kernel_size=(3, 3), stride=(1, 1), padding=(1, 1), groups=115, bias=False)
      (bn1): BatchNorm2d(115, eps=1e-05, momentum=0.1, affine=True, track_running_stats=True)
      (conv2): Conv2d(115, 115, kernel_size=(1, 1), stride=(1, 1), bias=False)
      (bn2): BatchNorm2d(115, eps=1e-05, momentum=0.1, affine=True, track_running_stats=True)
    )
    (3): Block(
      (conv1): Conv2d(115, 115, kernel_size=(3, 3), stride=(2, 2), padding=(1, 1), groups=115, bias=False)
      (bn1): BatchNorm2d(115, eps=1e-05, momentum=0.1, affine=True, track_running_stats=True)
      (conv2): Conv2d(115, 230, kernel_size=(1, 1), stride=(1, 1), bias=False)
      (bn2): BatchNorm2d(230, eps=1e-05, momentum=0.1, affine=True, track_running_stats=True)
    )
    (4): Block(
      (conv1): Conv2d(230, 230, kernel_size=(3, 3), stride=(1, 1), padding=(1, 1), groups=230, bias=False)
      (bn1): BatchNorm2d(230, eps=1e-05, momentum=0.1, affine=True, track_running_stats=True)
      (conv2): Conv2d(230, 230, kernel_size=(1, 1), stride=(1, 1), bias=False)
      (bn2): BatchNorm2d(230, eps=1e-05, momentum=0.1, affine=True, track_running_stats=True)
    )
    (5): Block(
      (conv1): Conv2d(230, 230, kernel_size=(3, 3), stride=(2, 2), padding=(1, 1), groups=230, bias=False)
      (bn1): BatchNorm2d(230, eps=1e-05, momentum=0.1, affine=True, track_running_stats=True)
      (conv2): Conv2d(230, 460, kernel_size=(1, 1), stride=(1, 1), bias=False)
      (bn2): BatchNorm2d(460, eps=1e-05, momentum=0.1, affine=True, track_running_stats=True)
    )
    (6): Block(
      (conv1): Conv2d(460, 460, kernel_size=(3, 3), stride=(1, 1), padding=(1, 1), groups=460, bias=False)
      (bn1): BatchNorm2d(460, eps=1e-05, momentum=0.1, affine=True, track_running_stats=True)
      (conv2): Conv2d(460, 460, kernel_size=(1, 1), stride=(1, 1), bias=False)
      (bn2): BatchNorm2d(460, eps=1e-05, momentum=0.1, affine=True, track_running_stats=True)
    )
    (7): Block(
      (conv1): Conv2d(460, 460, kernel_size=(3, 3), stride=(1, 1), padding=(1, 1), groups=460, bias=False)
      (bn1): BatchNorm2d(460, eps=1e-05, momentum=0.1, affine=True, track_running_stats=True)
      (conv2): Conv2d(460, 460, kernel_size=(1, 1), stride=(1, 1), bias=False)
      (bn2): BatchNorm2d(460, eps=1e-05, momentum=0.1, affine=True, track_running_stats=True)
    )
    (8): Block(
      (conv1): Conv2d(460, 460, kernel_size=(3, 3), stride=(1, 1), padding=(1, 1), groups=460, bias=False)
      (bn1): BatchNorm2d(460, eps=1e-05, momentum=0.1, affine=True, track_running_stats=True)
      (conv2): Conv2d(460, 460, kernel_size=(1, 1), stride=(1, 1), bias=False)
      (bn2): BatchNorm2d(460, eps=1e-05, momentum=0.1, affine=True, track_running_stats=True)
    )
    (9): Block(
      (conv1): Conv2d(460, 460, kernel_size=(3, 3), stride=(1, 1), padding=(1, 1), groups=460, bias=False)
      (bn1): BatchNorm2d(460, eps=1e-05, momentum=0.1, affine=True, track_running_stats=True)
      (conv2): Conv2d(460, 460, kernel_size=(1, 1), stride=(1, 1), bias=False)
      (bn2): BatchNorm2d(460, eps=1e-05, momentum=0.1, affine=True, track_running_stats=True)
    )
    (10): Block(
      (conv1): Conv2d(460, 460, kernel_size=(3, 3), stride=(1, 1), padding=(1, 1), groups=460, bias=False)
      (bn1): BatchNorm2d(460, eps=1e-05, momentum=0.1, affine=True, track_running_stats=True)
      (conv2): Conv2d(460, 460, kernel_size=(1, 1), stride=(1, 1), bias=False)
      (bn2): BatchNorm2d(460, eps=1e-05, momentum=0.1, affine=True, track_running_stats=True)
    )
    (11): Block(
      (conv1): Conv2d(460, 460, kernel_size=(3, 3), stride=(2, 2), padding=(1, 1), groups=460, bias=False)
      (bn1): BatchNorm2d(460, eps=1e-05, momentum=0.1, affine=True, track_running_stats=True)
      (conv2): Conv2d(460, 921, kernel_size=(1, 1), stride=(1, 1), bias=False)
      (bn2): BatchNorm2d(921, eps=1e-05, momentum=0.1, affine=True, track_running_stats=True)
    )
    (12): Block(
      (conv1): Conv2d(921, 921, kernel_size=(3, 3), stride=(1, 1), padding=(1, 1), groups=921, bias=False)
      (bn1): BatchNorm2d(921, eps=1e-05, momentum=0.1, affine=True, track_running_stats=True)
      (conv2): Conv2d(921, 921, kernel_size=(1, 1), stride=(1, 1), bias=False)
      (bn2): BatchNorm2d(921, eps=1e-05, momentum=0.1, affine=True, track_running_stats=True)
    )
  )
  (linear): Linear(in_features=921, out_features=10, bias=True)
)
Before pruning:
Test loss: 1.3740 Test accuracy: 78.11 %

MobileNetv1(
  (conv1): Conv2d(3, 32, kernel_size=(3, 3), stride=(1, 1), padding=(1, 1), bias=False)
  (bn1): BatchNorm2d(32, eps=1e-05, momentum=0.1, affine=True, track_running_stats=True)
  (layers): Sequential(
    (0): Block(
      (conv1): Conv2d(32, 32, kernel_size=(3, 3), stride=(1, 1), padding=(1, 1), groups=32, bias=False)
      (bn1): BatchNorm2d(32, eps=1e-05, momentum=0.1, affine=True, track_running_stats=True)
      (conv2): Conv2d(32, 64, kernel_size=(1, 1), stride=(1, 1), bias=False)
      (bn2): BatchNorm2d(64, eps=1e-05, momentum=0.1, affine=True, track_running_stats=True)
    )
    (1): Block(
      (conv1): Conv2d(64, 64, kernel_size=(3, 3), stride=(2, 2), padding=(1, 1), groups=64, bias=False)
      (bn1): BatchNorm2d(64, eps=1e-05, momentum=0.1, affine=True, track_running_stats=True)
      (conv2): Conv2d(64, 128, kernel_size=(1, 1), stride=(1, 1), bias=False)
      (bn2): BatchNorm2d(128, eps=1e-05, momentum=0.1, affine=True, track_running_stats=True)
    )
    (2): Block(
      (conv1): Conv2d(128, 128, kernel_size=(3, 3), stride=(1, 1), padding=(1, 1), groups=128, bias=False)
      (bn1): BatchNorm2d(128, eps=1e-05, momentum=0.1, affine=True, track_running_stats=True)
      (conv2): Conv2d(128, 128, kernel_size=(1, 1), stride=(1, 1), bias=False)
      (bn2): BatchNorm2d(128, eps=1e-05, momentum=0.1, affine=True, track_running_stats=True)
    )
    (3): Block(
      (conv1): Conv2d(128, 128, kernel_size=(3, 3), stride=(2, 2), padding=(1, 1), groups=128, bias=False)
      (bn1): BatchNorm2d(128, eps=1e-05, momentum=0.1, affine=True, track_running_stats=True)
      (conv2): Conv2d(128, 256, kernel_size=(1, 1), stride=(1, 1), bias=False)
      (bn2): BatchNorm2d(256, eps=1e-05, momentum=0.1, affine=True, track_running_stats=True)
    )
    (4): Block(
      (conv1): Conv2d(256, 256, kernel_size=(3, 3), stride=(1, 1), padding=(1, 1), groups=256, bias=False)
      (bn1): BatchNorm2d(256, eps=1e-05, momentum=0.1, affine=True, track_running_stats=True)
      (conv2): Conv2d(256, 256, kernel_size=(1, 1), stride=(1, 1), bias=False)
      (bn2): BatchNorm2d(256, eps=1e-05, momentum=0.1, affine=True, track_running_stats=True)
    )
    (5): Block(
      (conv1): Conv2d(256, 256, kernel_size=(3, 3), stride=(2, 2), padding=(1, 1), groups=256, bias=False)
      (bn1): BatchNorm2d(256, eps=1e-05, momentum=0.1, affine=True, track_running_stats=True)
      (conv2): Conv2d(256, 512, kernel_size=(1, 1), stride=(1, 1), bias=False)
      (bn2): BatchNorm2d(512, eps=1e-05, momentum=0.1, affine=True, track_running_stats=True)
    )
    (6): Block(
      (conv1): Conv2d(512, 512, kernel_size=(3, 3), stride=(1, 1), padding=(1, 1), groups=512, bias=False)
      (bn1): BatchNorm2d(512, eps=1e-05, momentum=0.1, affine=True, track_running_stats=True)
      (conv2): Conv2d(512, 512, kernel_size=(1, 1), stride=(1, 1), bias=False)
      (bn2): BatchNorm2d(512, eps=1e-05, momentum=0.1, affine=True, track_running_stats=True)
    )
    (7): Block(
      (conv1): Conv2d(512, 512, kernel_size=(3, 3), stride=(1, 1), padding=(1, 1), groups=512, bias=False)
      (bn1): BatchNorm2d(512, eps=1e-05, momentum=0.1, affine=True, track_running_stats=True)
      (conv2): Conv2d(512, 512, kernel_size=(1, 1), stride=(1, 1), bias=False)
      (bn2): BatchNorm2d(512, eps=1e-05, momentum=0.1, affine=True, track_running_stats=True)
    )
    (8): Block(
      (conv1): Conv2d(512, 512, kernel_size=(3, 3), stride=(1, 1), padding=(1, 1), groups=512, bias=False)
      (bn1): BatchNorm2d(512, eps=1e-05, momentum=0.1, affine=True, track_running_stats=True)
      (conv2): Conv2d(512, 512, kernel_size=(1, 1), stride=(1, 1), bias=False)
      (bn2): BatchNorm2d(512, eps=1e-05, momentum=0.1, affine=True, track_running_stats=True)
    )
    (9): Block(
      (conv1): Conv2d(512, 512, kernel_size=(3, 3), stride=(1, 1), padding=(1, 1), groups=512, bias=False)
      (bn1): BatchNorm2d(512, eps=1e-05, momentum=0.1, affine=True, track_running_stats=True)
      (conv2): Conv2d(512, 512, kernel_size=(1, 1), stride=(1, 1), bias=False)
      (bn2): BatchNorm2d(512, eps=1e-05, momentum=0.1, affine=True, track_running_stats=True)
    )
    (10): Block(
      (conv1): Conv2d(512, 512, kernel_size=(3, 3), stride=(1, 1), padding=(1, 1), groups=512, bias=False)
      (bn1): BatchNorm2d(512, eps=1e-05, momentum=0.1, affine=True, track_running_stats=True)
      (conv2): Conv2d(512, 512, kernel_size=(1, 1), stride=(1, 1), bias=False)
      (bn2): BatchNorm2d(512, eps=1e-05, momentum=0.1, affine=True, track_running_stats=True)
    )
    (11): Block(
      (conv1): Conv2d(512, 512, kernel_size=(3, 3), stride=(2, 2), padding=(1, 1), groups=512, bias=False)
      (bn1): BatchNorm2d(512, eps=1e-05, momentum=0.1, affine=True, track_running_stats=True)
      (conv2): Conv2d(512, 1024, kernel_size=(1, 1), stride=(1, 1), bias=False)
      (bn2): BatchNorm2d(1024, eps=1e-05, momentum=0.1, affine=True, track_running_stats=True)
    )
    (12): Block(
      (conv1): Conv2d(1024, 1024, kernel_size=(3, 3), stride=(1, 1), padding=(1, 1), groups=1024, bias=False)
      (bn1): BatchNorm2d(1024, eps=1e-05, momentum=0.1, affine=True, track_running_stats=True)
      (conv2): Conv2d(1024, 1024, kernel_size=(1, 1), stride=(1, 1), bias=False)
      (bn2): BatchNorm2d(1024, eps=1e-05, momentum=0.1, affine=True, track_running_stats=True)
    )
  )
  (linear): Linear(in_features=1024, out_features=10, bias=True)
)
Pruning Ratio: 0.2
Iteration 1 out of 5; Before fine-tuning
Test loss: 1.3600 Test accuracy: 77.21 %

Iteration 1 out of 5; After fine-tuning
Test loss: 1.9806 Test accuracy: 74.65 %

MobileNetv1(
  (conv1): Conv2d(3, 30, kernel_size=(3, 3), stride=(1, 1), padding=(1, 1), bias=False)
  (bn1): BatchNorm2d(30, eps=1e-05, momentum=0.1, affine=True, track_running_stats=True)
  (layers): Sequential(
    (0): Block(
      (conv1): Conv2d(30, 30, kernel_size=(3, 3), stride=(1, 1), padding=(1, 1), groups=30, bias=False)
      (bn1): BatchNorm2d(30, eps=1e-05, momentum=0.1, affine=True, track_running_stats=True)
      (conv2): Conv2d(30, 61, kernel_size=(1, 1), stride=(1, 1), bias=False)
      (bn2): BatchNorm2d(61, eps=1e-05, momentum=0.1, affine=True, track_running_stats=True)
    )
    (1): Block(
      (conv1): Conv2d(61, 61, kernel_size=(3, 3), stride=(2, 2), padding=(1, 1), groups=61, bias=False)
      (bn1): BatchNorm2d(61, eps=1e-05, momentum=0.1, affine=True, track_running_stats=True)
      (conv2): Conv2d(61, 122, kernel_size=(1, 1), stride=(1, 1), bias=False)
      (bn2): BatchNorm2d(122, eps=1e-05, momentum=0.1, affine=True, track_running_stats=True)
    )
    (2): Block(
      (conv1): Conv2d(122, 122, kernel_size=(3, 3), stride=(1, 1), padding=(1, 1), groups=122, bias=False)
      (bn1): BatchNorm2d(122, eps=1e-05, momentum=0.1, affine=True, track_running_stats=True)
      (conv2): Conv2d(122, 122, kernel_size=(1, 1), stride=(1, 1), bias=False)
      (bn2): BatchNorm2d(122, eps=1e-05, momentum=0.1, affine=True, track_running_stats=True)
    )
    (3): Block(
      (conv1): Conv2d(122, 122, kernel_size=(3, 3), stride=(2, 2), padding=(1, 1), groups=122, bias=False)
      (bn1): BatchNorm2d(122, eps=1e-05, momentum=0.1, affine=True, track_running_stats=True)
      (conv2): Conv2d(122, 245, kernel_size=(1, 1), stride=(1, 1), bias=False)
      (bn2): BatchNorm2d(245, eps=1e-05, momentum=0.1, affine=True, track_running_stats=True)
    )
    (4): Block(
      (conv1): Conv2d(245, 245, kernel_size=(3, 3), stride=(1, 1), padding=(1, 1), groups=245, bias=False)
      (bn1): BatchNorm2d(245, eps=1e-05, momentum=0.1, affine=True, track_running_stats=True)
      (conv2): Conv2d(245, 245, kernel_size=(1, 1), stride=(1, 1), bias=False)
      (bn2): BatchNorm2d(245, eps=1e-05, momentum=0.1, affine=True, track_running_stats=True)
    )
    (5): Block(
      (conv1): Conv2d(245, 245, kernel_size=(3, 3), stride=(2, 2), padding=(1, 1), groups=245, bias=False)
      (bn1): BatchNorm2d(245, eps=1e-05, momentum=0.1, affine=True, track_running_stats=True)
      (conv2): Conv2d(245, 491, kernel_size=(1, 1), stride=(1, 1), bias=False)
      (bn2): BatchNorm2d(491, eps=1e-05, momentum=0.1, affine=True, track_running_stats=True)
    )
    (6): Block(
      (conv1): Conv2d(491, 491, kernel_size=(3, 3), stride=(1, 1), padding=(1, 1), groups=491, bias=False)
      (bn1): BatchNorm2d(491, eps=1e-05, momentum=0.1, affine=True, track_running_stats=True)
      (conv2): Conv2d(491, 491, kernel_size=(1, 1), stride=(1, 1), bias=False)
      (bn2): BatchNorm2d(491, eps=1e-05, momentum=0.1, affine=True, track_running_stats=True)
    )
    (7): Block(
      (conv1): Conv2d(491, 491, kernel_size=(3, 3), stride=(1, 1), padding=(1, 1), groups=491, bias=False)
      (bn1): BatchNorm2d(491, eps=1e-05, momentum=0.1, affine=True, track_running_stats=True)
      (conv2): Conv2d(491, 491, kernel_size=(1, 1), stride=(1, 1), bias=False)
      (bn2): BatchNorm2d(491, eps=1e-05, momentum=0.1, affine=True, track_running_stats=True)
    )
    (8): Block(
      (conv1): Conv2d(491, 491, kernel_size=(3, 3), stride=(1, 1), padding=(1, 1), groups=491, bias=False)
      (bn1): BatchNorm2d(491, eps=1e-05, momentum=0.1, affine=True, track_running_stats=True)
      (conv2): Conv2d(491, 491, kernel_size=(1, 1), stride=(1, 1), bias=False)
      (bn2): BatchNorm2d(491, eps=1e-05, momentum=0.1, affine=True, track_running_stats=True)
    )
    (9): Block(
      (conv1): Conv2d(491, 491, kernel_size=(3, 3), stride=(1, 1), padding=(1, 1), groups=491, bias=False)
      (bn1): BatchNorm2d(491, eps=1e-05, momentum=0.1, affine=True, track_running_stats=True)
      (conv2): Conv2d(491, 491, kernel_size=(1, 1), stride=(1, 1), bias=False)
      (bn2): BatchNorm2d(491, eps=1e-05, momentum=0.1, affine=True, track_running_stats=True)
    )
    (10): Block(
      (conv1): Conv2d(491, 491, kernel_size=(3, 3), stride=(1, 1), padding=(1, 1), groups=491, bias=False)
      (bn1): BatchNorm2d(491, eps=1e-05, momentum=0.1, affine=True, track_running_stats=True)
      (conv2): Conv2d(491, 491, kernel_size=(1, 1), stride=(1, 1), bias=False)
      (bn2): BatchNorm2d(491, eps=1e-05, momentum=0.1, affine=True, track_running_stats=True)
    )
    (11): Block(
      (conv1): Conv2d(491, 491, kernel_size=(3, 3), stride=(2, 2), padding=(1, 1), groups=491, bias=False)
      (bn1): BatchNorm2d(491, eps=1e-05, momentum=0.1, affine=True, track_running_stats=True)
      (conv2): Conv2d(491, 983, kernel_size=(1, 1), stride=(1, 1), bias=False)
      (bn2): BatchNorm2d(983, eps=1e-05, momentum=0.1, affine=True, track_running_stats=True)
    )
    (12): Block(
      (conv1): Conv2d(983, 983, kernel_size=(3, 3), stride=(1, 1), padding=(1, 1), groups=983, bias=False)
      (bn1): BatchNorm2d(983, eps=1e-05, momentum=0.1, affine=True, track_running_stats=True)
      (conv2): Conv2d(983, 983, kernel_size=(1, 1), stride=(1, 1), bias=False)
      (bn2): BatchNorm2d(983, eps=1e-05, momentum=0.1, affine=True, track_running_stats=True)
    )
  )
  (linear): Linear(in_features=983, out_features=10, bias=True)
)
Iteration 2 out of 5; Before fine-tuning
Test loss: 2.1329 Test accuracy: 71.46 %

Iteration 2 out of 5; After fine-tuning
Test loss: 2.1275 Test accuracy: 73.96 %

MobileNetv1(
  (conv1): Conv2d(3, 29, kernel_size=(3, 3), stride=(1, 1), padding=(1, 1), bias=False)
  (bn1): BatchNorm2d(29, eps=1e-05, momentum=0.1, affine=True, track_running_stats=True)
  (layers): Sequential(
    (0): Block(
      (conv1): Conv2d(29, 29, kernel_size=(3, 3), stride=(1, 1), padding=(1, 1), groups=29, bias=False)
      (bn1): BatchNorm2d(29, eps=1e-05, momentum=0.1, affine=True, track_running_stats=True)
      (conv2): Conv2d(29, 58, kernel_size=(1, 1), stride=(1, 1), bias=False)
      (bn2): BatchNorm2d(58, eps=1e-05, momentum=0.1, affine=True, track_running_stats=True)
    )
    (1): Block(
      (conv1): Conv2d(58, 58, kernel_size=(3, 3), stride=(2, 2), padding=(1, 1), groups=58, bias=False)
      (bn1): BatchNorm2d(58, eps=1e-05, momentum=0.1, affine=True, track_running_stats=True)
      (conv2): Conv2d(58, 117, kernel_size=(1, 1), stride=(1, 1), bias=False)
      (bn2): BatchNorm2d(117, eps=1e-05, momentum=0.1, affine=True, track_running_stats=True)
    )
    (2): Block(
      (conv1): Conv2d(117, 117, kernel_size=(3, 3), stride=(1, 1), padding=(1, 1), groups=117, bias=False)
      (bn1): BatchNorm2d(117, eps=1e-05, momentum=0.1, affine=True, track_running_stats=True)
      (conv2): Conv2d(117, 117, kernel_size=(1, 1), stride=(1, 1), bias=False)
      (bn2): BatchNorm2d(117, eps=1e-05, momentum=0.1, affine=True, track_running_stats=True)
    )
    (3): Block(
      (conv1): Conv2d(117, 117, kernel_size=(3, 3), stride=(2, 2), padding=(1, 1), groups=117, bias=False)
      (bn1): BatchNorm2d(117, eps=1e-05, momentum=0.1, affine=True, track_running_stats=True)
      (conv2): Conv2d(117, 235, kernel_size=(1, 1), stride=(1, 1), bias=False)
      (bn2): BatchNorm2d(235, eps=1e-05, momentum=0.1, affine=True, track_running_stats=True)
    )
    (4): Block(
      (conv1): Conv2d(235, 235, kernel_size=(3, 3), stride=(1, 1), padding=(1, 1), groups=235, bias=False)
      (bn1): BatchNorm2d(235, eps=1e-05, momentum=0.1, affine=True, track_running_stats=True)
      (conv2): Conv2d(235, 235, kernel_size=(1, 1), stride=(1, 1), bias=False)
      (bn2): BatchNorm2d(235, eps=1e-05, momentum=0.1, affine=True, track_running_stats=True)
    )
    (5): Block(
      (conv1): Conv2d(235, 235, kernel_size=(3, 3), stride=(2, 2), padding=(1, 1), groups=235, bias=False)
      (bn1): BatchNorm2d(235, eps=1e-05, momentum=0.1, affine=True, track_running_stats=True)
      (conv2): Conv2d(235, 471, kernel_size=(1, 1), stride=(1, 1), bias=False)
      (bn2): BatchNorm2d(471, eps=1e-05, momentum=0.1, affine=True, track_running_stats=True)
    )
    (6): Block(
      (conv1): Conv2d(471, 471, kernel_size=(3, 3), stride=(1, 1), padding=(1, 1), groups=471, bias=False)
      (bn1): BatchNorm2d(471, eps=1e-05, momentum=0.1, affine=True, track_running_stats=True)
      (conv2): Conv2d(471, 471, kernel_size=(1, 1), stride=(1, 1), bias=False)
      (bn2): BatchNorm2d(471, eps=1e-05, momentum=0.1, affine=True, track_running_stats=True)
    )
    (7): Block(
      (conv1): Conv2d(471, 471, kernel_size=(3, 3), stride=(1, 1), padding=(1, 1), groups=471, bias=False)
      (bn1): BatchNorm2d(471, eps=1e-05, momentum=0.1, affine=True, track_running_stats=True)
      (conv2): Conv2d(471, 471, kernel_size=(1, 1), stride=(1, 1), bias=False)
      (bn2): BatchNorm2d(471, eps=1e-05, momentum=0.1, affine=True, track_running_stats=True)
    )
    (8): Block(
      (conv1): Conv2d(471, 471, kernel_size=(3, 3), stride=(1, 1), padding=(1, 1), groups=471, bias=False)
      (bn1): BatchNorm2d(471, eps=1e-05, momentum=0.1, affine=True, track_running_stats=True)
      (conv2): Conv2d(471, 471, kernel_size=(1, 1), stride=(1, 1), bias=False)
      (bn2): BatchNorm2d(471, eps=1e-05, momentum=0.1, affine=True, track_running_stats=True)
    )
    (9): Block(
      (conv1): Conv2d(471, 471, kernel_size=(3, 3), stride=(1, 1), padding=(1, 1), groups=471, bias=False)
      (bn1): BatchNorm2d(471, eps=1e-05, momentum=0.1, affine=True, track_running_stats=True)
      (conv2): Conv2d(471, 471, kernel_size=(1, 1), stride=(1, 1), bias=False)
      (bn2): BatchNorm2d(471, eps=1e-05, momentum=0.1, affine=True, track_running_stats=True)
    )
    (10): Block(
      (conv1): Conv2d(471, 471, kernel_size=(3, 3), stride=(1, 1), padding=(1, 1), groups=471, bias=False)
      (bn1): BatchNorm2d(471, eps=1e-05, momentum=0.1, affine=True, track_running_stats=True)
      (conv2): Conv2d(471, 471, kernel_size=(1, 1), stride=(1, 1), bias=False)
      (bn2): BatchNorm2d(471, eps=1e-05, momentum=0.1, affine=True, track_running_stats=True)
    )
    (11): Block(
      (conv1): Conv2d(471, 471, kernel_size=(3, 3), stride=(2, 2), padding=(1, 1), groups=471, bias=False)
      (bn1): BatchNorm2d(471, eps=1e-05, momentum=0.1, affine=True, track_running_stats=True)
      (conv2): Conv2d(471, 942, kernel_size=(1, 1), stride=(1, 1), bias=False)
      (bn2): BatchNorm2d(942, eps=1e-05, momentum=0.1, affine=True, track_running_stats=True)
    )
    (12): Block(
      (conv1): Conv2d(942, 942, kernel_size=(3, 3), stride=(1, 1), padding=(1, 1), groups=942, bias=False)
      (bn1): BatchNorm2d(942, eps=1e-05, momentum=0.1, affine=True, track_running_stats=True)
      (conv2): Conv2d(942, 942, kernel_size=(1, 1), stride=(1, 1), bias=False)
      (bn2): BatchNorm2d(942, eps=1e-05, momentum=0.1, affine=True, track_running_stats=True)
    )
  )
  (linear): Linear(in_features=942, out_features=10, bias=True)
)
Iteration 3 out of 5; Before fine-tuning
Test loss: 1.9371 Test accuracy: 72.95 %

Iteration 3 out of 5; After fine-tuning
Test loss: 2.1828 Test accuracy: 72.67 %

MobileNetv1(
  (conv1): Conv2d(3, 28, kernel_size=(3, 3), stride=(1, 1), padding=(1, 1), bias=False)
  (bn1): BatchNorm2d(28, eps=1e-05, momentum=0.1, affine=True, track_running_stats=True)
  (layers): Sequential(
    (0): Block(
      (conv1): Conv2d(28, 28, kernel_size=(3, 3), stride=(1, 1), padding=(1, 1), groups=28, bias=False)
      (bn1): BatchNorm2d(28, eps=1e-05, momentum=0.1, affine=True, track_running_stats=True)
      (conv2): Conv2d(28, 56, kernel_size=(1, 1), stride=(1, 1), bias=False)
      (bn2): BatchNorm2d(56, eps=1e-05, momentum=0.1, affine=True, track_running_stats=True)
    )
    (1): Block(
      (conv1): Conv2d(56, 56, kernel_size=(3, 3), stride=(2, 2), padding=(1, 1), groups=56, bias=False)
      (bn1): BatchNorm2d(56, eps=1e-05, momentum=0.1, affine=True, track_running_stats=True)
      (conv2): Conv2d(56, 112, kernel_size=(1, 1), stride=(1, 1), bias=False)
      (bn2): BatchNorm2d(112, eps=1e-05, momentum=0.1, affine=True, track_running_stats=True)
    )
    (2): Block(
      (conv1): Conv2d(112, 112, kernel_size=(3, 3), stride=(1, 1), padding=(1, 1), groups=112, bias=False)
      (bn1): BatchNorm2d(112, eps=1e-05, momentum=0.1, affine=True, track_running_stats=True)
      (conv2): Conv2d(112, 112, kernel_size=(1, 1), stride=(1, 1), bias=False)
      (bn2): BatchNorm2d(112, eps=1e-05, momentum=0.1, affine=True, track_running_stats=True)
    )
    (3): Block(
      (conv1): Conv2d(112, 112, kernel_size=(3, 3), stride=(2, 2), padding=(1, 1), groups=112, bias=False)
      (bn1): BatchNorm2d(112, eps=1e-05, momentum=0.1, affine=True, track_running_stats=True)
      (conv2): Conv2d(112, 225, kernel_size=(1, 1), stride=(1, 1), bias=False)
      (bn2): BatchNorm2d(225, eps=1e-05, momentum=0.1, affine=True, track_running_stats=True)
    )
    (4): Block(
      (conv1): Conv2d(225, 225, kernel_size=(3, 3), stride=(1, 1), padding=(1, 1), groups=225, bias=False)
      (bn1): BatchNorm2d(225, eps=1e-05, momentum=0.1, affine=True, track_running_stats=True)
      (conv2): Conv2d(225, 225, kernel_size=(1, 1), stride=(1, 1), bias=False)
      (bn2): BatchNorm2d(225, eps=1e-05, momentum=0.1, affine=True, track_running_stats=True)
    )
    (5): Block(
      (conv1): Conv2d(225, 225, kernel_size=(3, 3), stride=(2, 2), padding=(1, 1), groups=225, bias=False)
      (bn1): BatchNorm2d(225, eps=1e-05, momentum=0.1, affine=True, track_running_stats=True)
      (conv2): Conv2d(225, 450, kernel_size=(1, 1), stride=(1, 1), bias=False)
      (bn2): BatchNorm2d(450, eps=1e-05, momentum=0.1, affine=True, track_running_stats=True)
    )
    (6): Block(
      (conv1): Conv2d(450, 450, kernel_size=(3, 3), stride=(1, 1), padding=(1, 1), groups=450, bias=False)
      (bn1): BatchNorm2d(450, eps=1e-05, momentum=0.1, affine=True, track_running_stats=True)
      (conv2): Conv2d(450, 450, kernel_size=(1, 1), stride=(1, 1), bias=False)
      (bn2): BatchNorm2d(450, eps=1e-05, momentum=0.1, affine=True, track_running_stats=True)
    )
    (7): Block(
      (conv1): Conv2d(450, 450, kernel_size=(3, 3), stride=(1, 1), padding=(1, 1), groups=450, bias=False)
      (bn1): BatchNorm2d(450, eps=1e-05, momentum=0.1, affine=True, track_running_stats=True)
      (conv2): Conv2d(450, 450, kernel_size=(1, 1), stride=(1, 1), bias=False)
      (bn2): BatchNorm2d(450, eps=1e-05, momentum=0.1, affine=True, track_running_stats=True)
    )
    (8): Block(
      (conv1): Conv2d(450, 450, kernel_size=(3, 3), stride=(1, 1), padding=(1, 1), groups=450, bias=False)
      (bn1): BatchNorm2d(450, eps=1e-05, momentum=0.1, affine=True, track_running_stats=True)
      (conv2): Conv2d(450, 450, kernel_size=(1, 1), stride=(1, 1), bias=False)
      (bn2): BatchNorm2d(450, eps=1e-05, momentum=0.1, affine=True, track_running_stats=True)
    )
    (9): Block(
      (conv1): Conv2d(450, 450, kernel_size=(3, 3), stride=(1, 1), padding=(1, 1), groups=450, bias=False)
      (bn1): BatchNorm2d(450, eps=1e-05, momentum=0.1, affine=True, track_running_stats=True)
      (conv2): Conv2d(450, 450, kernel_size=(1, 1), stride=(1, 1), bias=False)
      (bn2): BatchNorm2d(450, eps=1e-05, momentum=0.1, affine=True, track_running_stats=True)
    )
    (10): Block(
      (conv1): Conv2d(450, 450, kernel_size=(3, 3), stride=(1, 1), padding=(1, 1), groups=450, bias=False)
      (bn1): BatchNorm2d(450, eps=1e-05, momentum=0.1, affine=True, track_running_stats=True)
      (conv2): Conv2d(450, 450, kernel_size=(1, 1), stride=(1, 1), bias=False)
      (bn2): BatchNorm2d(450, eps=1e-05, momentum=0.1, affine=True, track_running_stats=True)
    )
    (11): Block(
      (conv1): Conv2d(450, 450, kernel_size=(3, 3), stride=(2, 2), padding=(1, 1), groups=450, bias=False)
      (bn1): BatchNorm2d(450, eps=1e-05, momentum=0.1, affine=True, track_running_stats=True)
      (conv2): Conv2d(450, 901, kernel_size=(1, 1), stride=(1, 1), bias=False)
      (bn2): BatchNorm2d(901, eps=1e-05, momentum=0.1, affine=True, track_running_stats=True)
    )
    (12): Block(
      (conv1): Conv2d(901, 901, kernel_size=(3, 3), stride=(1, 1), padding=(1, 1), groups=901, bias=False)
      (bn1): BatchNorm2d(901, eps=1e-05, momentum=0.1, affine=True, track_running_stats=True)
      (conv2): Conv2d(901, 901, kernel_size=(1, 1), stride=(1, 1), bias=False)
      (bn2): BatchNorm2d(901, eps=1e-05, momentum=0.1, affine=True, track_running_stats=True)
    )
  )
  (linear): Linear(in_features=901, out_features=10, bias=True)
)
Iteration 4 out of 5; Before fine-tuning
Test loss: 2.1642 Test accuracy: 70.48 %

Iteration 4 out of 5; After fine-tuning
Test loss: 2.1920 Test accuracy: 72.22 %

MobileNetv1(
  (conv1): Conv2d(3, 26, kernel_size=(3, 3), stride=(1, 1), padding=(1, 1), bias=False)
  (bn1): BatchNorm2d(26, eps=1e-05, momentum=0.1, affine=True, track_running_stats=True)
  (layers): Sequential(
    (0): Block(
      (conv1): Conv2d(26, 26, kernel_size=(3, 3), stride=(1, 1), padding=(1, 1), groups=26, bias=False)
      (bn1): BatchNorm2d(26, eps=1e-05, momentum=0.1, affine=True, track_running_stats=True)
      (conv2): Conv2d(26, 53, kernel_size=(1, 1), stride=(1, 1), bias=False)
      (bn2): BatchNorm2d(53, eps=1e-05, momentum=0.1, affine=True, track_running_stats=True)
    )
    (1): Block(
      (conv1): Conv2d(53, 53, kernel_size=(3, 3), stride=(2, 2), padding=(1, 1), groups=53, bias=False)
      (bn1): BatchNorm2d(53, eps=1e-05, momentum=0.1, affine=True, track_running_stats=True)
      (conv2): Conv2d(53, 107, kernel_size=(1, 1), stride=(1, 1), bias=False)
      (bn2): BatchNorm2d(107, eps=1e-05, momentum=0.1, affine=True, track_running_stats=True)
    )
    (2): Block(
      (conv1): Conv2d(107, 107, kernel_size=(3, 3), stride=(1, 1), padding=(1, 1), groups=107, bias=False)
      (bn1): BatchNorm2d(107, eps=1e-05, momentum=0.1, affine=True, track_running_stats=True)
      (conv2): Conv2d(107, 107, kernel_size=(1, 1), stride=(1, 1), bias=False)
      (bn2): BatchNorm2d(107, eps=1e-05, momentum=0.1, affine=True, track_running_stats=True)
    )
    (3): Block(
      (conv1): Conv2d(107, 107, kernel_size=(3, 3), stride=(2, 2), padding=(1, 1), groups=107, bias=False)
      (bn1): BatchNorm2d(107, eps=1e-05, momentum=0.1, affine=True, track_running_stats=True)
      (conv2): Conv2d(107, 215, kernel_size=(1, 1), stride=(1, 1), bias=False)
      (bn2): BatchNorm2d(215, eps=1e-05, momentum=0.1, affine=True, track_running_stats=True)
    )
    (4): Block(
      (conv1): Conv2d(215, 215, kernel_size=(3, 3), stride=(1, 1), padding=(1, 1), groups=215, bias=False)
      (bn1): BatchNorm2d(215, eps=1e-05, momentum=0.1, affine=True, track_running_stats=True)
      (conv2): Conv2d(215, 215, kernel_size=(1, 1), stride=(1, 1), bias=False)
      (bn2): BatchNorm2d(215, eps=1e-05, momentum=0.1, affine=True, track_running_stats=True)
    )
    (5): Block(
      (conv1): Conv2d(215, 215, kernel_size=(3, 3), stride=(2, 2), padding=(1, 1), groups=215, bias=False)
      (bn1): BatchNorm2d(215, eps=1e-05, momentum=0.1, affine=True, track_running_stats=True)
      (conv2): Conv2d(215, 430, kernel_size=(1, 1), stride=(1, 1), bias=False)
      (bn2): BatchNorm2d(430, eps=1e-05, momentum=0.1, affine=True, track_running_stats=True)
    )
    (6): Block(
      (conv1): Conv2d(430, 430, kernel_size=(3, 3), stride=(1, 1), padding=(1, 1), groups=430, bias=False)
      (bn1): BatchNorm2d(430, eps=1e-05, momentum=0.1, affine=True, track_running_stats=True)
      (conv2): Conv2d(430, 430, kernel_size=(1, 1), stride=(1, 1), bias=False)
      (bn2): BatchNorm2d(430, eps=1e-05, momentum=0.1, affine=True, track_running_stats=True)
    )
    (7): Block(
      (conv1): Conv2d(430, 430, kernel_size=(3, 3), stride=(1, 1), padding=(1, 1), groups=430, bias=False)
      (bn1): BatchNorm2d(430, eps=1e-05, momentum=0.1, affine=True, track_running_stats=True)
      (conv2): Conv2d(430, 430, kernel_size=(1, 1), stride=(1, 1), bias=False)
      (bn2): BatchNorm2d(430, eps=1e-05, momentum=0.1, affine=True, track_running_stats=True)
    )
    (8): Block(
      (conv1): Conv2d(430, 430, kernel_size=(3, 3), stride=(1, 1), padding=(1, 1), groups=430, bias=False)
      (bn1): BatchNorm2d(430, eps=1e-05, momentum=0.1, affine=True, track_running_stats=True)
      (conv2): Conv2d(430, 430, kernel_size=(1, 1), stride=(1, 1), bias=False)
      (bn2): BatchNorm2d(430, eps=1e-05, momentum=0.1, affine=True, track_running_stats=True)
    )
    (9): Block(
      (conv1): Conv2d(430, 430, kernel_size=(3, 3), stride=(1, 1), padding=(1, 1), groups=430, bias=False)
      (bn1): BatchNorm2d(430, eps=1e-05, momentum=0.1, affine=True, track_running_stats=True)
      (conv2): Conv2d(430, 430, kernel_size=(1, 1), stride=(1, 1), bias=False)
      (bn2): BatchNorm2d(430, eps=1e-05, momentum=0.1, affine=True, track_running_stats=True)
    )
    (10): Block(
      (conv1): Conv2d(430, 430, kernel_size=(3, 3), stride=(1, 1), padding=(1, 1), groups=430, bias=False)
      (bn1): BatchNorm2d(430, eps=1e-05, momentum=0.1, affine=True, track_running_stats=True)
      (conv2): Conv2d(430, 430, kernel_size=(1, 1), stride=(1, 1), bias=False)
      (bn2): BatchNorm2d(430, eps=1e-05, momentum=0.1, affine=True, track_running_stats=True)
    )
    (11): Block(
      (conv1): Conv2d(430, 430, kernel_size=(3, 3), stride=(2, 2), padding=(1, 1), groups=430, bias=False)
      (bn1): BatchNorm2d(430, eps=1e-05, momentum=0.1, affine=True, track_running_stats=True)
      (conv2): Conv2d(430, 860, kernel_size=(1, 1), stride=(1, 1), bias=False)
      (bn2): BatchNorm2d(860, eps=1e-05, momentum=0.1, affine=True, track_running_stats=True)
    )
    (12): Block(
      (conv1): Conv2d(860, 860, kernel_size=(3, 3), stride=(1, 1), padding=(1, 1), groups=860, bias=False)
      (bn1): BatchNorm2d(860, eps=1e-05, momentum=0.1, affine=True, track_running_stats=True)
      (conv2): Conv2d(860, 860, kernel_size=(1, 1), stride=(1, 1), bias=False)
      (bn2): BatchNorm2d(860, eps=1e-05, momentum=0.1, affine=True, track_running_stats=True)
    )
  )
  (linear): Linear(in_features=860, out_features=10, bias=True)
)
Iteration 5 out of 5; Before fine-tuning
Test loss: 2.0395 Test accuracy: 69.40 %

Iteration 5 out of 5; After fine-tuning
Test loss: 2.2616 Test accuracy: 70.72 %

MobileNetv1(
  (conv1): Conv2d(3, 25, kernel_size=(3, 3), stride=(1, 1), padding=(1, 1), bias=False)
  (bn1): BatchNorm2d(25, eps=1e-05, momentum=0.1, affine=True, track_running_stats=True)
  (layers): Sequential(
    (0): Block(
      (conv1): Conv2d(25, 25, kernel_size=(3, 3), stride=(1, 1), padding=(1, 1), groups=25, bias=False)
      (bn1): BatchNorm2d(25, eps=1e-05, momentum=0.1, affine=True, track_running_stats=True)
      (conv2): Conv2d(25, 51, kernel_size=(1, 1), stride=(1, 1), bias=False)
      (bn2): BatchNorm2d(51, eps=1e-05, momentum=0.1, affine=True, track_running_stats=True)
    )
    (1): Block(
      (conv1): Conv2d(51, 51, kernel_size=(3, 3), stride=(2, 2), padding=(1, 1), groups=51, bias=False)
      (bn1): BatchNorm2d(51, eps=1e-05, momentum=0.1, affine=True, track_running_stats=True)
      (conv2): Conv2d(51, 102, kernel_size=(1, 1), stride=(1, 1), bias=False)
      (bn2): BatchNorm2d(102, eps=1e-05, momentum=0.1, affine=True, track_running_stats=True)
    )
    (2): Block(
      (conv1): Conv2d(102, 102, kernel_size=(3, 3), stride=(1, 1), padding=(1, 1), groups=102, bias=False)
      (bn1): BatchNorm2d(102, eps=1e-05, momentum=0.1, affine=True, track_running_stats=True)
      (conv2): Conv2d(102, 102, kernel_size=(1, 1), stride=(1, 1), bias=False)
      (bn2): BatchNorm2d(102, eps=1e-05, momentum=0.1, affine=True, track_running_stats=True)
    )
    (3): Block(
      (conv1): Conv2d(102, 102, kernel_size=(3, 3), stride=(2, 2), padding=(1, 1), groups=102, bias=False)
      (bn1): BatchNorm2d(102, eps=1e-05, momentum=0.1, affine=True, track_running_stats=True)
      (conv2): Conv2d(102, 204, kernel_size=(1, 1), stride=(1, 1), bias=False)
      (bn2): BatchNorm2d(204, eps=1e-05, momentum=0.1, affine=True, track_running_stats=True)
    )
    (4): Block(
      (conv1): Conv2d(204, 204, kernel_size=(3, 3), stride=(1, 1), padding=(1, 1), groups=204, bias=False)
      (bn1): BatchNorm2d(204, eps=1e-05, momentum=0.1, affine=True, track_running_stats=True)
      (conv2): Conv2d(204, 204, kernel_size=(1, 1), stride=(1, 1), bias=False)
      (bn2): BatchNorm2d(204, eps=1e-05, momentum=0.1, affine=True, track_running_stats=True)
    )
    (5): Block(
      (conv1): Conv2d(204, 204, kernel_size=(3, 3), stride=(2, 2), padding=(1, 1), groups=204, bias=False)
      (bn1): BatchNorm2d(204, eps=1e-05, momentum=0.1, affine=True, track_running_stats=True)
      (conv2): Conv2d(204, 409, kernel_size=(1, 1), stride=(1, 1), bias=False)
      (bn2): BatchNorm2d(409, eps=1e-05, momentum=0.1, affine=True, track_running_stats=True)
    )
    (6): Block(
      (conv1): Conv2d(409, 409, kernel_size=(3, 3), stride=(1, 1), padding=(1, 1), groups=409, bias=False)
      (bn1): BatchNorm2d(409, eps=1e-05, momentum=0.1, affine=True, track_running_stats=True)
      (conv2): Conv2d(409, 409, kernel_size=(1, 1), stride=(1, 1), bias=False)
      (bn2): BatchNorm2d(409, eps=1e-05, momentum=0.1, affine=True, track_running_stats=True)
    )
    (7): Block(
      (conv1): Conv2d(409, 409, kernel_size=(3, 3), stride=(1, 1), padding=(1, 1), groups=409, bias=False)
      (bn1): BatchNorm2d(409, eps=1e-05, momentum=0.1, affine=True, track_running_stats=True)
      (conv2): Conv2d(409, 409, kernel_size=(1, 1), stride=(1, 1), bias=False)
      (bn2): BatchNorm2d(409, eps=1e-05, momentum=0.1, affine=True, track_running_stats=True)
    )
    (8): Block(
      (conv1): Conv2d(409, 409, kernel_size=(3, 3), stride=(1, 1), padding=(1, 1), groups=409, bias=False)
      (bn1): BatchNorm2d(409, eps=1e-05, momentum=0.1, affine=True, track_running_stats=True)
      (conv2): Conv2d(409, 409, kernel_size=(1, 1), stride=(1, 1), bias=False)
      (bn2): BatchNorm2d(409, eps=1e-05, momentum=0.1, affine=True, track_running_stats=True)
    )
    (9): Block(
      (conv1): Conv2d(409, 409, kernel_size=(3, 3), stride=(1, 1), padding=(1, 1), groups=409, bias=False)
      (bn1): BatchNorm2d(409, eps=1e-05, momentum=0.1, affine=True, track_running_stats=True)
      (conv2): Conv2d(409, 409, kernel_size=(1, 1), stride=(1, 1), bias=False)
      (bn2): BatchNorm2d(409, eps=1e-05, momentum=0.1, affine=True, track_running_stats=True)
    )
    (10): Block(
      (conv1): Conv2d(409, 409, kernel_size=(3, 3), stride=(1, 1), padding=(1, 1), groups=409, bias=False)
      (bn1): BatchNorm2d(409, eps=1e-05, momentum=0.1, affine=True, track_running_stats=True)
      (conv2): Conv2d(409, 409, kernel_size=(1, 1), stride=(1, 1), bias=False)
      (bn2): BatchNorm2d(409, eps=1e-05, momentum=0.1, affine=True, track_running_stats=True)
    )
    (11): Block(
      (conv1): Conv2d(409, 409, kernel_size=(3, 3), stride=(2, 2), padding=(1, 1), groups=409, bias=False)
      (bn1): BatchNorm2d(409, eps=1e-05, momentum=0.1, affine=True, track_running_stats=True)
      (conv2): Conv2d(409, 819, kernel_size=(1, 1), stride=(1, 1), bias=False)
      (bn2): BatchNorm2d(819, eps=1e-05, momentum=0.1, affine=True, track_running_stats=True)
    )
    (12): Block(
      (conv1): Conv2d(819, 819, kernel_size=(3, 3), stride=(1, 1), padding=(1, 1), groups=819, bias=False)
      (bn1): BatchNorm2d(819, eps=1e-05, momentum=0.1, affine=True, track_running_stats=True)
      (conv2): Conv2d(819, 819, kernel_size=(1, 1), stride=(1, 1), bias=False)
      (bn2): BatchNorm2d(819, eps=1e-05, momentum=0.1, affine=True, track_running_stats=True)
    )
  )
  (linear): Linear(in_features=819, out_features=10, bias=True)
)
Before pruning:
Test loss: 1.3740 Test accuracy: 78.11 %

MobileNetv1(
  (conv1): Conv2d(3, 32, kernel_size=(3, 3), stride=(1, 1), padding=(1, 1), bias=False)
  (bn1): BatchNorm2d(32, eps=1e-05, momentum=0.1, affine=True, track_running_stats=True)
  (layers): Sequential(
    (0): Block(
      (conv1): Conv2d(32, 32, kernel_size=(3, 3), stride=(1, 1), padding=(1, 1), groups=32, bias=False)
      (bn1): BatchNorm2d(32, eps=1e-05, momentum=0.1, affine=True, track_running_stats=True)
      (conv2): Conv2d(32, 64, kernel_size=(1, 1), stride=(1, 1), bias=False)
      (bn2): BatchNorm2d(64, eps=1e-05, momentum=0.1, affine=True, track_running_stats=True)
    )
    (1): Block(
      (conv1): Conv2d(64, 64, kernel_size=(3, 3), stride=(2, 2), padding=(1, 1), groups=64, bias=False)
      (bn1): BatchNorm2d(64, eps=1e-05, momentum=0.1, affine=True, track_running_stats=True)
      (conv2): Conv2d(64, 128, kernel_size=(1, 1), stride=(1, 1), bias=False)
      (bn2): BatchNorm2d(128, eps=1e-05, momentum=0.1, affine=True, track_running_stats=True)
    )
    (2): Block(
      (conv1): Conv2d(128, 128, kernel_size=(3, 3), stride=(1, 1), padding=(1, 1), groups=128, bias=False)
      (bn1): BatchNorm2d(128, eps=1e-05, momentum=0.1, affine=True, track_running_stats=True)
      (conv2): Conv2d(128, 128, kernel_size=(1, 1), stride=(1, 1), bias=False)
      (bn2): BatchNorm2d(128, eps=1e-05, momentum=0.1, affine=True, track_running_stats=True)
    )
    (3): Block(
      (conv1): Conv2d(128, 128, kernel_size=(3, 3), stride=(2, 2), padding=(1, 1), groups=128, bias=False)
      (bn1): BatchNorm2d(128, eps=1e-05, momentum=0.1, affine=True, track_running_stats=True)
      (conv2): Conv2d(128, 256, kernel_size=(1, 1), stride=(1, 1), bias=False)
      (bn2): BatchNorm2d(256, eps=1e-05, momentum=0.1, affine=True, track_running_stats=True)
    )
    (4): Block(
      (conv1): Conv2d(256, 256, kernel_size=(3, 3), stride=(1, 1), padding=(1, 1), groups=256, bias=False)
      (bn1): BatchNorm2d(256, eps=1e-05, momentum=0.1, affine=True, track_running_stats=True)
      (conv2): Conv2d(256, 256, kernel_size=(1, 1), stride=(1, 1), bias=False)
      (bn2): BatchNorm2d(256, eps=1e-05, momentum=0.1, affine=True, track_running_stats=True)
    )
    (5): Block(
      (conv1): Conv2d(256, 256, kernel_size=(3, 3), stride=(2, 2), padding=(1, 1), groups=256, bias=False)
      (bn1): BatchNorm2d(256, eps=1e-05, momentum=0.1, affine=True, track_running_stats=True)
      (conv2): Conv2d(256, 512, kernel_size=(1, 1), stride=(1, 1), bias=False)
      (bn2): BatchNorm2d(512, eps=1e-05, momentum=0.1, affine=True, track_running_stats=True)
    )
    (6): Block(
      (conv1): Conv2d(512, 512, kernel_size=(3, 3), stride=(1, 1), padding=(1, 1), groups=512, bias=False)
      (bn1): BatchNorm2d(512, eps=1e-05, momentum=0.1, affine=True, track_running_stats=True)
      (conv2): Conv2d(512, 512, kernel_size=(1, 1), stride=(1, 1), bias=False)
      (bn2): BatchNorm2d(512, eps=1e-05, momentum=0.1, affine=True, track_running_stats=True)
    )
    (7): Block(
      (conv1): Conv2d(512, 512, kernel_size=(3, 3), stride=(1, 1), padding=(1, 1), groups=512, bias=False)
      (bn1): BatchNorm2d(512, eps=1e-05, momentum=0.1, affine=True, track_running_stats=True)
      (conv2): Conv2d(512, 512, kernel_size=(1, 1), stride=(1, 1), bias=False)
      (bn2): BatchNorm2d(512, eps=1e-05, momentum=0.1, affine=True, track_running_stats=True)
    )
    (8): Block(
      (conv1): Conv2d(512, 512, kernel_size=(3, 3), stride=(1, 1), padding=(1, 1), groups=512, bias=False)
      (bn1): BatchNorm2d(512, eps=1e-05, momentum=0.1, affine=True, track_running_stats=True)
      (conv2): Conv2d(512, 512, kernel_size=(1, 1), stride=(1, 1), bias=False)
      (bn2): BatchNorm2d(512, eps=1e-05, momentum=0.1, affine=True, track_running_stats=True)
    )
    (9): Block(
      (conv1): Conv2d(512, 512, kernel_size=(3, 3), stride=(1, 1), padding=(1, 1), groups=512, bias=False)
      (bn1): BatchNorm2d(512, eps=1e-05, momentum=0.1, affine=True, track_running_stats=True)
      (conv2): Conv2d(512, 512, kernel_size=(1, 1), stride=(1, 1), bias=False)
      (bn2): BatchNorm2d(512, eps=1e-05, momentum=0.1, affine=True, track_running_stats=True)
    )
    (10): Block(
      (conv1): Conv2d(512, 512, kernel_size=(3, 3), stride=(1, 1), padding=(1, 1), groups=512, bias=False)
      (bn1): BatchNorm2d(512, eps=1e-05, momentum=0.1, affine=True, track_running_stats=True)
      (conv2): Conv2d(512, 512, kernel_size=(1, 1), stride=(1, 1), bias=False)
      (bn2): BatchNorm2d(512, eps=1e-05, momentum=0.1, affine=True, track_running_stats=True)
    )
    (11): Block(
      (conv1): Conv2d(512, 512, kernel_size=(3, 3), stride=(2, 2), padding=(1, 1), groups=512, bias=False)
      (bn1): BatchNorm2d(512, eps=1e-05, momentum=0.1, affine=True, track_running_stats=True)
      (conv2): Conv2d(512, 1024, kernel_size=(1, 1), stride=(1, 1), bias=False)
      (bn2): BatchNorm2d(1024, eps=1e-05, momentum=0.1, affine=True, track_running_stats=True)
    )
    (12): Block(
      (conv1): Conv2d(1024, 1024, kernel_size=(3, 3), stride=(1, 1), padding=(1, 1), groups=1024, bias=False)
      (bn1): BatchNorm2d(1024, eps=1e-05, momentum=0.1, affine=True, track_running_stats=True)
      (conv2): Conv2d(1024, 1024, kernel_size=(1, 1), stride=(1, 1), bias=False)
      (bn2): BatchNorm2d(1024, eps=1e-05, momentum=0.1, affine=True, track_running_stats=True)
    )
  )
  (linear): Linear(in_features=1024, out_features=10, bias=True)
)
Pruning Ratio: 0.3
Iteration 1 out of 5; Before fine-tuning
Test loss: 1.4008 Test accuracy: 76.23 %

Iteration 1 out of 5; After fine-tuning
Test loss: 2.0305 Test accuracy: 74.37 %

MobileNetv1(
  (conv1): Conv2d(3, 30, kernel_size=(3, 3), stride=(1, 1), padding=(1, 1), bias=False)
  (bn1): BatchNorm2d(30, eps=1e-05, momentum=0.1, affine=True, track_running_stats=True)
  (layers): Sequential(
    (0): Block(
      (conv1): Conv2d(30, 30, kernel_size=(3, 3), stride=(1, 1), padding=(1, 1), groups=30, bias=False)
      (bn1): BatchNorm2d(30, eps=1e-05, momentum=0.1, affine=True, track_running_stats=True)
      (conv2): Conv2d(30, 60, kernel_size=(1, 1), stride=(1, 1), bias=False)
      (bn2): BatchNorm2d(60, eps=1e-05, momentum=0.1, affine=True, track_running_stats=True)
    )
    (1): Block(
      (conv1): Conv2d(60, 60, kernel_size=(3, 3), stride=(2, 2), padding=(1, 1), groups=60, bias=False)
      (bn1): BatchNorm2d(60, eps=1e-05, momentum=0.1, affine=True, track_running_stats=True)
      (conv2): Conv2d(60, 120, kernel_size=(1, 1), stride=(1, 1), bias=False)
      (bn2): BatchNorm2d(120, eps=1e-05, momentum=0.1, affine=True, track_running_stats=True)
    )
    (2): Block(
      (conv1): Conv2d(120, 120, kernel_size=(3, 3), stride=(1, 1), padding=(1, 1), groups=120, bias=False)
      (bn1): BatchNorm2d(120, eps=1e-05, momentum=0.1, affine=True, track_running_stats=True)
      (conv2): Conv2d(120, 120, kernel_size=(1, 1), stride=(1, 1), bias=False)
      (bn2): BatchNorm2d(120, eps=1e-05, momentum=0.1, affine=True, track_running_stats=True)
    )
    (3): Block(
      (conv1): Conv2d(120, 120, kernel_size=(3, 3), stride=(2, 2), padding=(1, 1), groups=120, bias=False)
      (bn1): BatchNorm2d(120, eps=1e-05, momentum=0.1, affine=True, track_running_stats=True)
      (conv2): Conv2d(120, 240, kernel_size=(1, 1), stride=(1, 1), bias=False)
      (bn2): BatchNorm2d(240, eps=1e-05, momentum=0.1, affine=True, track_running_stats=True)
    )
    (4): Block(
      (conv1): Conv2d(240, 240, kernel_size=(3, 3), stride=(1, 1), padding=(1, 1), groups=240, bias=False)
      (bn1): BatchNorm2d(240, eps=1e-05, momentum=0.1, affine=True, track_running_stats=True)
      (conv2): Conv2d(240, 240, kernel_size=(1, 1), stride=(1, 1), bias=False)
      (bn2): BatchNorm2d(240, eps=1e-05, momentum=0.1, affine=True, track_running_stats=True)
    )
    (5): Block(
      (conv1): Conv2d(240, 240, kernel_size=(3, 3), stride=(2, 2), padding=(1, 1), groups=240, bias=False)
      (bn1): BatchNorm2d(240, eps=1e-05, momentum=0.1, affine=True, track_running_stats=True)
      (conv2): Conv2d(240, 481, kernel_size=(1, 1), stride=(1, 1), bias=False)
      (bn2): BatchNorm2d(481, eps=1e-05, momentum=0.1, affine=True, track_running_stats=True)
    )
    (6): Block(
      (conv1): Conv2d(481, 481, kernel_size=(3, 3), stride=(1, 1), padding=(1, 1), groups=481, bias=False)
      (bn1): BatchNorm2d(481, eps=1e-05, momentum=0.1, affine=True, track_running_stats=True)
      (conv2): Conv2d(481, 481, kernel_size=(1, 1), stride=(1, 1), bias=False)
      (bn2): BatchNorm2d(481, eps=1e-05, momentum=0.1, affine=True, track_running_stats=True)
    )
    (7): Block(
      (conv1): Conv2d(481, 481, kernel_size=(3, 3), stride=(1, 1), padding=(1, 1), groups=481, bias=False)
      (bn1): BatchNorm2d(481, eps=1e-05, momentum=0.1, affine=True, track_running_stats=True)
      (conv2): Conv2d(481, 481, kernel_size=(1, 1), stride=(1, 1), bias=False)
      (bn2): BatchNorm2d(481, eps=1e-05, momentum=0.1, affine=True, track_running_stats=True)
    )
    (8): Block(
      (conv1): Conv2d(481, 481, kernel_size=(3, 3), stride=(1, 1), padding=(1, 1), groups=481, bias=False)
      (bn1): BatchNorm2d(481, eps=1e-05, momentum=0.1, affine=True, track_running_stats=True)
      (conv2): Conv2d(481, 481, kernel_size=(1, 1), stride=(1, 1), bias=False)
      (bn2): BatchNorm2d(481, eps=1e-05, momentum=0.1, affine=True, track_running_stats=True)
    )
    (9): Block(
      (conv1): Conv2d(481, 481, kernel_size=(3, 3), stride=(1, 1), padding=(1, 1), groups=481, bias=False)
      (bn1): BatchNorm2d(481, eps=1e-05, momentum=0.1, affine=True, track_running_stats=True)
      (conv2): Conv2d(481, 481, kernel_size=(1, 1), stride=(1, 1), bias=False)
      (bn2): BatchNorm2d(481, eps=1e-05, momentum=0.1, affine=True, track_running_stats=True)
    )
    (10): Block(
      (conv1): Conv2d(481, 481, kernel_size=(3, 3), stride=(1, 1), padding=(1, 1), groups=481, bias=False)
      (bn1): BatchNorm2d(481, eps=1e-05, momentum=0.1, affine=True, track_running_stats=True)
      (conv2): Conv2d(481, 481, kernel_size=(1, 1), stride=(1, 1), bias=False)
      (bn2): BatchNorm2d(481, eps=1e-05, momentum=0.1, affine=True, track_running_stats=True)
    )
    (11): Block(
      (conv1): Conv2d(481, 481, kernel_size=(3, 3), stride=(2, 2), padding=(1, 1), groups=481, bias=False)
      (bn1): BatchNorm2d(481, eps=1e-05, momentum=0.1, affine=True, track_running_stats=True)
      (conv2): Conv2d(481, 962, kernel_size=(1, 1), stride=(1, 1), bias=False)
      (bn2): BatchNorm2d(962, eps=1e-05, momentum=0.1, affine=True, track_running_stats=True)
    )
    (12): Block(
      (conv1): Conv2d(962, 962, kernel_size=(3, 3), stride=(1, 1), padding=(1, 1), groups=962, bias=False)
      (bn1): BatchNorm2d(962, eps=1e-05, momentum=0.1, affine=True, track_running_stats=True)
      (conv2): Conv2d(962, 962, kernel_size=(1, 1), stride=(1, 1), bias=False)
      (bn2): BatchNorm2d(962, eps=1e-05, momentum=0.1, affine=True, track_running_stats=True)
    )
  )
  (linear): Linear(in_features=962, out_features=10, bias=True)
)
Iteration 2 out of 5; Before fine-tuning
Test loss: 2.1035 Test accuracy: 70.06 %

Iteration 2 out of 5; After fine-tuning
Test loss: 2.1291 Test accuracy: 72.95 %

MobileNetv1(
  (conv1): Conv2d(3, 28, kernel_size=(3, 3), stride=(1, 1), padding=(1, 1), bias=False)
  (bn1): BatchNorm2d(28, eps=1e-05, momentum=0.1, affine=True, track_running_stats=True)
  (layers): Sequential(
    (0): Block(
      (conv1): Conv2d(28, 28, kernel_size=(3, 3), stride=(1, 1), padding=(1, 1), groups=28, bias=False)
      (bn1): BatchNorm2d(28, eps=1e-05, momentum=0.1, affine=True, track_running_stats=True)
      (conv2): Conv2d(28, 56, kernel_size=(1, 1), stride=(1, 1), bias=False)
      (bn2): BatchNorm2d(56, eps=1e-05, momentum=0.1, affine=True, track_running_stats=True)
    )
    (1): Block(
      (conv1): Conv2d(56, 56, kernel_size=(3, 3), stride=(2, 2), padding=(1, 1), groups=56, bias=False)
      (bn1): BatchNorm2d(56, eps=1e-05, momentum=0.1, affine=True, track_running_stats=True)
      (conv2): Conv2d(56, 112, kernel_size=(1, 1), stride=(1, 1), bias=False)
      (bn2): BatchNorm2d(112, eps=1e-05, momentum=0.1, affine=True, track_running_stats=True)
    )
    (2): Block(
      (conv1): Conv2d(112, 112, kernel_size=(3, 3), stride=(1, 1), padding=(1, 1), groups=112, bias=False)
      (bn1): BatchNorm2d(112, eps=1e-05, momentum=0.1, affine=True, track_running_stats=True)
      (conv2): Conv2d(112, 112, kernel_size=(1, 1), stride=(1, 1), bias=False)
      (bn2): BatchNorm2d(112, eps=1e-05, momentum=0.1, affine=True, track_running_stats=True)
    )
    (3): Block(
      (conv1): Conv2d(112, 112, kernel_size=(3, 3), stride=(2, 2), padding=(1, 1), groups=112, bias=False)
      (bn1): BatchNorm2d(112, eps=1e-05, momentum=0.1, affine=True, track_running_stats=True)
      (conv2): Conv2d(112, 225, kernel_size=(1, 1), stride=(1, 1), bias=False)
      (bn2): BatchNorm2d(225, eps=1e-05, momentum=0.1, affine=True, track_running_stats=True)
    )
    (4): Block(
      (conv1): Conv2d(225, 225, kernel_size=(3, 3), stride=(1, 1), padding=(1, 1), groups=225, bias=False)
      (bn1): BatchNorm2d(225, eps=1e-05, momentum=0.1, affine=True, track_running_stats=True)
      (conv2): Conv2d(225, 225, kernel_size=(1, 1), stride=(1, 1), bias=False)
      (bn2): BatchNorm2d(225, eps=1e-05, momentum=0.1, affine=True, track_running_stats=True)
    )
    (5): Block(
      (conv1): Conv2d(225, 225, kernel_size=(3, 3), stride=(2, 2), padding=(1, 1), groups=225, bias=False)
      (bn1): BatchNorm2d(225, eps=1e-05, momentum=0.1, affine=True, track_running_stats=True)
      (conv2): Conv2d(225, 450, kernel_size=(1, 1), stride=(1, 1), bias=False)
      (bn2): BatchNorm2d(450, eps=1e-05, momentum=0.1, affine=True, track_running_stats=True)
    )
    (6): Block(
      (conv1): Conv2d(450, 450, kernel_size=(3, 3), stride=(1, 1), padding=(1, 1), groups=450, bias=False)
      (bn1): BatchNorm2d(450, eps=1e-05, momentum=0.1, affine=True, track_running_stats=True)
      (conv2): Conv2d(450, 450, kernel_size=(1, 1), stride=(1, 1), bias=False)
      (bn2): BatchNorm2d(450, eps=1e-05, momentum=0.1, affine=True, track_running_stats=True)
    )
    (7): Block(
      (conv1): Conv2d(450, 450, kernel_size=(3, 3), stride=(1, 1), padding=(1, 1), groups=450, bias=False)
      (bn1): BatchNorm2d(450, eps=1e-05, momentum=0.1, affine=True, track_running_stats=True)
      (conv2): Conv2d(450, 450, kernel_size=(1, 1), stride=(1, 1), bias=False)
      (bn2): BatchNorm2d(450, eps=1e-05, momentum=0.1, affine=True, track_running_stats=True)
    )
    (8): Block(
      (conv1): Conv2d(450, 450, kernel_size=(3, 3), stride=(1, 1), padding=(1, 1), groups=450, bias=False)
      (bn1): BatchNorm2d(450, eps=1e-05, momentum=0.1, affine=True, track_running_stats=True)
      (conv2): Conv2d(450, 450, kernel_size=(1, 1), stride=(1, 1), bias=False)
      (bn2): BatchNorm2d(450, eps=1e-05, momentum=0.1, affine=True, track_running_stats=True)
    )
    (9): Block(
      (conv1): Conv2d(450, 450, kernel_size=(3, 3), stride=(1, 1), padding=(1, 1), groups=450, bias=False)
      (bn1): BatchNorm2d(450, eps=1e-05, momentum=0.1, affine=True, track_running_stats=True)
      (conv2): Conv2d(450, 450, kernel_size=(1, 1), stride=(1, 1), bias=False)
      (bn2): BatchNorm2d(450, eps=1e-05, momentum=0.1, affine=True, track_running_stats=True)
    )
    (10): Block(
      (conv1): Conv2d(450, 450, kernel_size=(3, 3), stride=(1, 1), padding=(1, 1), groups=450, bias=False)
      (bn1): BatchNorm2d(450, eps=1e-05, momentum=0.1, affine=True, track_running_stats=True)
      (conv2): Conv2d(450, 450, kernel_size=(1, 1), stride=(1, 1), bias=False)
      (bn2): BatchNorm2d(450, eps=1e-05, momentum=0.1, affine=True, track_running_stats=True)
    )
    (11): Block(
      (conv1): Conv2d(450, 450, kernel_size=(3, 3), stride=(2, 2), padding=(1, 1), groups=450, bias=False)
      (bn1): BatchNorm2d(450, eps=1e-05, momentum=0.1, affine=True, track_running_stats=True)
      (conv2): Conv2d(450, 901, kernel_size=(1, 1), stride=(1, 1), bias=False)
      (bn2): BatchNorm2d(901, eps=1e-05, momentum=0.1, affine=True, track_running_stats=True)
    )
    (12): Block(
      (conv1): Conv2d(901, 901, kernel_size=(3, 3), stride=(1, 1), padding=(1, 1), groups=901, bias=False)
      (bn1): BatchNorm2d(901, eps=1e-05, momentum=0.1, affine=True, track_running_stats=True)
      (conv2): Conv2d(901, 901, kernel_size=(1, 1), stride=(1, 1), bias=False)
      (bn2): BatchNorm2d(901, eps=1e-05, momentum=0.1, affine=True, track_running_stats=True)
    )
  )
  (linear): Linear(in_features=901, out_features=10, bias=True)
)
Iteration 3 out of 5; Before fine-tuning
Test loss: 2.4245 Test accuracy: 64.82 %

Iteration 3 out of 5; After fine-tuning
Test loss: 2.2925 Test accuracy: 70.87 %

MobileNetv1(
  (conv1): Conv2d(3, 26, kernel_size=(3, 3), stride=(1, 1), padding=(1, 1), bias=False)
  (bn1): BatchNorm2d(26, eps=1e-05, momentum=0.1, affine=True, track_running_stats=True)
  (layers): Sequential(
    (0): Block(
      (conv1): Conv2d(26, 26, kernel_size=(3, 3), stride=(1, 1), padding=(1, 1), groups=26, bias=False)
      (bn1): BatchNorm2d(26, eps=1e-05, momentum=0.1, affine=True, track_running_stats=True)
      (conv2): Conv2d(26, 52, kernel_size=(1, 1), stride=(1, 1), bias=False)
      (bn2): BatchNorm2d(52, eps=1e-05, momentum=0.1, affine=True, track_running_stats=True)
    )
    (1): Block(
      (conv1): Conv2d(52, 52, kernel_size=(3, 3), stride=(2, 2), padding=(1, 1), groups=52, bias=False)
      (bn1): BatchNorm2d(52, eps=1e-05, momentum=0.1, affine=True, track_running_stats=True)
      (conv2): Conv2d(52, 104, kernel_size=(1, 1), stride=(1, 1), bias=False)
      (bn2): BatchNorm2d(104, eps=1e-05, momentum=0.1, affine=True, track_running_stats=True)
    )
    (2): Block(
      (conv1): Conv2d(104, 104, kernel_size=(3, 3), stride=(1, 1), padding=(1, 1), groups=104, bias=False)
      (bn1): BatchNorm2d(104, eps=1e-05, momentum=0.1, affine=True, track_running_stats=True)
      (conv2): Conv2d(104, 104, kernel_size=(1, 1), stride=(1, 1), bias=False)
      (bn2): BatchNorm2d(104, eps=1e-05, momentum=0.1, affine=True, track_running_stats=True)
    )
    (3): Block(
      (conv1): Conv2d(104, 104, kernel_size=(3, 3), stride=(2, 2), padding=(1, 1), groups=104, bias=False)
      (bn1): BatchNorm2d(104, eps=1e-05, momentum=0.1, affine=True, track_running_stats=True)
      (conv2): Conv2d(104, 209, kernel_size=(1, 1), stride=(1, 1), bias=False)
      (bn2): BatchNorm2d(209, eps=1e-05, momentum=0.1, affine=True, track_running_stats=True)
    )
    (4): Block(
      (conv1): Conv2d(209, 209, kernel_size=(3, 3), stride=(1, 1), padding=(1, 1), groups=209, bias=False)
      (bn1): BatchNorm2d(209, eps=1e-05, momentum=0.1, affine=True, track_running_stats=True)
      (conv2): Conv2d(209, 209, kernel_size=(1, 1), stride=(1, 1), bias=False)
      (bn2): BatchNorm2d(209, eps=1e-05, momentum=0.1, affine=True, track_running_stats=True)
    )
    (5): Block(
      (conv1): Conv2d(209, 209, kernel_size=(3, 3), stride=(2, 2), padding=(1, 1), groups=209, bias=False)
      (bn1): BatchNorm2d(209, eps=1e-05, momentum=0.1, affine=True, track_running_stats=True)
      (conv2): Conv2d(209, 419, kernel_size=(1, 1), stride=(1, 1), bias=False)
      (bn2): BatchNorm2d(419, eps=1e-05, momentum=0.1, affine=True, track_running_stats=True)
    )
    (6): Block(
      (conv1): Conv2d(419, 419, kernel_size=(3, 3), stride=(1, 1), padding=(1, 1), groups=419, bias=False)
      (bn1): BatchNorm2d(419, eps=1e-05, momentum=0.1, affine=True, track_running_stats=True)
      (conv2): Conv2d(419, 419, kernel_size=(1, 1), stride=(1, 1), bias=False)
      (bn2): BatchNorm2d(419, eps=1e-05, momentum=0.1, affine=True, track_running_stats=True)
    )
    (7): Block(
      (conv1): Conv2d(419, 419, kernel_size=(3, 3), stride=(1, 1), padding=(1, 1), groups=419, bias=False)
      (bn1): BatchNorm2d(419, eps=1e-05, momentum=0.1, affine=True, track_running_stats=True)
      (conv2): Conv2d(419, 419, kernel_size=(1, 1), stride=(1, 1), bias=False)
      (bn2): BatchNorm2d(419, eps=1e-05, momentum=0.1, affine=True, track_running_stats=True)
    )
    (8): Block(
      (conv1): Conv2d(419, 419, kernel_size=(3, 3), stride=(1, 1), padding=(1, 1), groups=419, bias=False)
      (bn1): BatchNorm2d(419, eps=1e-05, momentum=0.1, affine=True, track_running_stats=True)
      (conv2): Conv2d(419, 419, kernel_size=(1, 1), stride=(1, 1), bias=False)
      (bn2): BatchNorm2d(419, eps=1e-05, momentum=0.1, affine=True, track_running_stats=True)
    )
    (9): Block(
      (conv1): Conv2d(419, 419, kernel_size=(3, 3), stride=(1, 1), padding=(1, 1), groups=419, bias=False)
      (bn1): BatchNorm2d(419, eps=1e-05, momentum=0.1, affine=True, track_running_stats=True)
      (conv2): Conv2d(419, 419, kernel_size=(1, 1), stride=(1, 1), bias=False)
      (bn2): BatchNorm2d(419, eps=1e-05, momentum=0.1, affine=True, track_running_stats=True)
    )
    (10): Block(
      (conv1): Conv2d(419, 419, kernel_size=(3, 3), stride=(1, 1), padding=(1, 1), groups=419, bias=False)
      (bn1): BatchNorm2d(419, eps=1e-05, momentum=0.1, affine=True, track_running_stats=True)
      (conv2): Conv2d(419, 419, kernel_size=(1, 1), stride=(1, 1), bias=False)
      (bn2): BatchNorm2d(419, eps=1e-05, momentum=0.1, affine=True, track_running_stats=True)
    )
    (11): Block(
      (conv1): Conv2d(419, 419, kernel_size=(3, 3), stride=(2, 2), padding=(1, 1), groups=419, bias=False)
      (bn1): BatchNorm2d(419, eps=1e-05, momentum=0.1, affine=True, track_running_stats=True)
      (conv2): Conv2d(419, 839, kernel_size=(1, 1), stride=(1, 1), bias=False)
      (bn2): BatchNorm2d(839, eps=1e-05, momentum=0.1, affine=True, track_running_stats=True)
    )
    (12): Block(
      (conv1): Conv2d(839, 839, kernel_size=(3, 3), stride=(1, 1), padding=(1, 1), groups=839, bias=False)
      (bn1): BatchNorm2d(839, eps=1e-05, momentum=0.1, affine=True, track_running_stats=True)
      (conv2): Conv2d(839, 839, kernel_size=(1, 1), stride=(1, 1), bias=False)
      (bn2): BatchNorm2d(839, eps=1e-05, momentum=0.1, affine=True, track_running_stats=True)
    )
  )
  (linear): Linear(in_features=839, out_features=10, bias=True)
)
Iteration 4 out of 5; Before fine-tuning
Test loss: 2.2065 Test accuracy: 64.50 %

Iteration 4 out of 5; After fine-tuning
Test loss: 2.3244 Test accuracy: 68.50 %

MobileNetv1(
  (conv1): Conv2d(3, 24, kernel_size=(3, 3), stride=(1, 1), padding=(1, 1), bias=False)
  (bn1): BatchNorm2d(24, eps=1e-05, momentum=0.1, affine=True, track_running_stats=True)
  (layers): Sequential(
    (0): Block(
      (conv1): Conv2d(24, 24, kernel_size=(3, 3), stride=(1, 1), padding=(1, 1), groups=24, bias=False)
      (bn1): BatchNorm2d(24, eps=1e-05, momentum=0.1, affine=True, track_running_stats=True)
      (conv2): Conv2d(24, 48, kernel_size=(1, 1), stride=(1, 1), bias=False)
      (bn2): BatchNorm2d(48, eps=1e-05, momentum=0.1, affine=True, track_running_stats=True)
    )
    (1): Block(
      (conv1): Conv2d(48, 48, kernel_size=(3, 3), stride=(2, 2), padding=(1, 1), groups=48, bias=False)
      (bn1): BatchNorm2d(48, eps=1e-05, momentum=0.1, affine=True, track_running_stats=True)
      (conv2): Conv2d(48, 97, kernel_size=(1, 1), stride=(1, 1), bias=False)
      (bn2): BatchNorm2d(97, eps=1e-05, momentum=0.1, affine=True, track_running_stats=True)
    )
    (2): Block(
      (conv1): Conv2d(97, 97, kernel_size=(3, 3), stride=(1, 1), padding=(1, 1), groups=97, bias=False)
      (bn1): BatchNorm2d(97, eps=1e-05, momentum=0.1, affine=True, track_running_stats=True)
      (conv2): Conv2d(97, 97, kernel_size=(1, 1), stride=(1, 1), bias=False)
      (bn2): BatchNorm2d(97, eps=1e-05, momentum=0.1, affine=True, track_running_stats=True)
    )
    (3): Block(
      (conv1): Conv2d(97, 97, kernel_size=(3, 3), stride=(2, 2), padding=(1, 1), groups=97, bias=False)
      (bn1): BatchNorm2d(97, eps=1e-05, momentum=0.1, affine=True, track_running_stats=True)
      (conv2): Conv2d(97, 194, kernel_size=(1, 1), stride=(1, 1), bias=False)
      (bn2): BatchNorm2d(194, eps=1e-05, momentum=0.1, affine=True, track_running_stats=True)
    )
    (4): Block(
      (conv1): Conv2d(194, 194, kernel_size=(3, 3), stride=(1, 1), padding=(1, 1), groups=194, bias=False)
      (bn1): BatchNorm2d(194, eps=1e-05, momentum=0.1, affine=True, track_running_stats=True)
      (conv2): Conv2d(194, 194, kernel_size=(1, 1), stride=(1, 1), bias=False)
      (bn2): BatchNorm2d(194, eps=1e-05, momentum=0.1, affine=True, track_running_stats=True)
    )
    (5): Block(
      (conv1): Conv2d(194, 194, kernel_size=(3, 3), stride=(2, 2), padding=(1, 1), groups=194, bias=False)
      (bn1): BatchNorm2d(194, eps=1e-05, momentum=0.1, affine=True, track_running_stats=True)
      (conv2): Conv2d(194, 389, kernel_size=(1, 1), stride=(1, 1), bias=False)
      (bn2): BatchNorm2d(389, eps=1e-05, momentum=0.1, affine=True, track_running_stats=True)
    )
    (6): Block(
      (conv1): Conv2d(389, 389, kernel_size=(3, 3), stride=(1, 1), padding=(1, 1), groups=389, bias=False)
      (bn1): BatchNorm2d(389, eps=1e-05, momentum=0.1, affine=True, track_running_stats=True)
      (conv2): Conv2d(389, 389, kernel_size=(1, 1), stride=(1, 1), bias=False)
      (bn2): BatchNorm2d(389, eps=1e-05, momentum=0.1, affine=True, track_running_stats=True)
    )
    (7): Block(
      (conv1): Conv2d(389, 389, kernel_size=(3, 3), stride=(1, 1), padding=(1, 1), groups=389, bias=False)
      (bn1): BatchNorm2d(389, eps=1e-05, momentum=0.1, affine=True, track_running_stats=True)
      (conv2): Conv2d(389, 389, kernel_size=(1, 1), stride=(1, 1), bias=False)
      (bn2): BatchNorm2d(389, eps=1e-05, momentum=0.1, affine=True, track_running_stats=True)
    )
    (8): Block(
      (conv1): Conv2d(389, 389, kernel_size=(3, 3), stride=(1, 1), padding=(1, 1), groups=389, bias=False)
      (bn1): BatchNorm2d(389, eps=1e-05, momentum=0.1, affine=True, track_running_stats=True)
      (conv2): Conv2d(389, 389, kernel_size=(1, 1), stride=(1, 1), bias=False)
      (bn2): BatchNorm2d(389, eps=1e-05, momentum=0.1, affine=True, track_running_stats=True)
    )
    (9): Block(
      (conv1): Conv2d(389, 389, kernel_size=(3, 3), stride=(1, 1), padding=(1, 1), groups=389, bias=False)
      (bn1): BatchNorm2d(389, eps=1e-05, momentum=0.1, affine=True, track_running_stats=True)
      (conv2): Conv2d(389, 389, kernel_size=(1, 1), stride=(1, 1), bias=False)
      (bn2): BatchNorm2d(389, eps=1e-05, momentum=0.1, affine=True, track_running_stats=True)
    )
    (10): Block(
      (conv1): Conv2d(389, 389, kernel_size=(3, 3), stride=(1, 1), padding=(1, 1), groups=389, bias=False)
      (bn1): BatchNorm2d(389, eps=1e-05, momentum=0.1, affine=True, track_running_stats=True)
      (conv2): Conv2d(389, 389, kernel_size=(1, 1), stride=(1, 1), bias=False)
      (bn2): BatchNorm2d(389, eps=1e-05, momentum=0.1, affine=True, track_running_stats=True)
    )
    (11): Block(
      (conv1): Conv2d(389, 389, kernel_size=(3, 3), stride=(2, 2), padding=(1, 1), groups=389, bias=False)
      (bn1): BatchNorm2d(389, eps=1e-05, momentum=0.1, affine=True, track_running_stats=True)
      (conv2): Conv2d(389, 778, kernel_size=(1, 1), stride=(1, 1), bias=False)
      (bn2): BatchNorm2d(778, eps=1e-05, momentum=0.1, affine=True, track_running_stats=True)
    )
    (12): Block(
      (conv1): Conv2d(778, 778, kernel_size=(3, 3), stride=(1, 1), padding=(1, 1), groups=778, bias=False)
      (bn1): BatchNorm2d(778, eps=1e-05, momentum=0.1, affine=True, track_running_stats=True)
      (conv2): Conv2d(778, 778, kernel_size=(1, 1), stride=(1, 1), bias=False)
      (bn2): BatchNorm2d(778, eps=1e-05, momentum=0.1, affine=True, track_running_stats=True)
    )
  )
  (linear): Linear(in_features=778, out_features=10, bias=True)
)
Iteration 5 out of 5; Before fine-tuning
Test loss: 2.4557 Test accuracy: 55.10 %

Iteration 5 out of 5; After fine-tuning
Test loss: 2.2600 Test accuracy: 64.37 %

MobileNetv1(
  (conv1): Conv2d(3, 22, kernel_size=(3, 3), stride=(1, 1), padding=(1, 1), bias=False)
  (bn1): BatchNorm2d(22, eps=1e-05, momentum=0.1, affine=True, track_running_stats=True)
  (layers): Sequential(
    (0): Block(
      (conv1): Conv2d(22, 22, kernel_size=(3, 3), stride=(1, 1), padding=(1, 1), groups=22, bias=False)
      (bn1): BatchNorm2d(22, eps=1e-05, momentum=0.1, affine=True, track_running_stats=True)
      (conv2): Conv2d(22, 44, kernel_size=(1, 1), stride=(1, 1), bias=False)
      (bn2): BatchNorm2d(44, eps=1e-05, momentum=0.1, affine=True, track_running_stats=True)
    )
    (1): Block(
      (conv1): Conv2d(44, 44, kernel_size=(3, 3), stride=(2, 2), padding=(1, 1), groups=44, bias=False)
      (bn1): BatchNorm2d(44, eps=1e-05, momentum=0.1, affine=True, track_running_stats=True)
      (conv2): Conv2d(44, 89, kernel_size=(1, 1), stride=(1, 1), bias=False)
      (bn2): BatchNorm2d(89, eps=1e-05, momentum=0.1, affine=True, track_running_stats=True)
    )
    (2): Block(
      (conv1): Conv2d(89, 89, kernel_size=(3, 3), stride=(1, 1), padding=(1, 1), groups=89, bias=False)
      (bn1): BatchNorm2d(89, eps=1e-05, momentum=0.1, affine=True, track_running_stats=True)
      (conv2): Conv2d(89, 89, kernel_size=(1, 1), stride=(1, 1), bias=False)
      (bn2): BatchNorm2d(89, eps=1e-05, momentum=0.1, affine=True, track_running_stats=True)
    )
    (3): Block(
      (conv1): Conv2d(89, 89, kernel_size=(3, 3), stride=(2, 2), padding=(1, 1), groups=89, bias=False)
      (bn1): BatchNorm2d(89, eps=1e-05, momentum=0.1, affine=True, track_running_stats=True)
      (conv2): Conv2d(89, 179, kernel_size=(1, 1), stride=(1, 1), bias=False)
      (bn2): BatchNorm2d(179, eps=1e-05, momentum=0.1, affine=True, track_running_stats=True)
    )
    (4): Block(
      (conv1): Conv2d(179, 179, kernel_size=(3, 3), stride=(1, 1), padding=(1, 1), groups=179, bias=False)
      (bn1): BatchNorm2d(179, eps=1e-05, momentum=0.1, affine=True, track_running_stats=True)
      (conv2): Conv2d(179, 179, kernel_size=(1, 1), stride=(1, 1), bias=False)
      (bn2): BatchNorm2d(179, eps=1e-05, momentum=0.1, affine=True, track_running_stats=True)
    )
    (5): Block(
      (conv1): Conv2d(179, 179, kernel_size=(3, 3), stride=(2, 2), padding=(1, 1), groups=179, bias=False)
      (bn1): BatchNorm2d(179, eps=1e-05, momentum=0.1, affine=True, track_running_stats=True)
      (conv2): Conv2d(179, 358, kernel_size=(1, 1), stride=(1, 1), bias=False)
      (bn2): BatchNorm2d(358, eps=1e-05, momentum=0.1, affine=True, track_running_stats=True)
    )
    (6): Block(
      (conv1): Conv2d(358, 358, kernel_size=(3, 3), stride=(1, 1), padding=(1, 1), groups=358, bias=False)
      (bn1): BatchNorm2d(358, eps=1e-05, momentum=0.1, affine=True, track_running_stats=True)
      (conv2): Conv2d(358, 358, kernel_size=(1, 1), stride=(1, 1), bias=False)
      (bn2): BatchNorm2d(358, eps=1e-05, momentum=0.1, affine=True, track_running_stats=True)
    )
    (7): Block(
      (conv1): Conv2d(358, 358, kernel_size=(3, 3), stride=(1, 1), padding=(1, 1), groups=358, bias=False)
      (bn1): BatchNorm2d(358, eps=1e-05, momentum=0.1, affine=True, track_running_stats=True)
      (conv2): Conv2d(358, 358, kernel_size=(1, 1), stride=(1, 1), bias=False)
      (bn2): BatchNorm2d(358, eps=1e-05, momentum=0.1, affine=True, track_running_stats=True)
    )
    (8): Block(
      (conv1): Conv2d(358, 358, kernel_size=(3, 3), stride=(1, 1), padding=(1, 1), groups=358, bias=False)
      (bn1): BatchNorm2d(358, eps=1e-05, momentum=0.1, affine=True, track_running_stats=True)
      (conv2): Conv2d(358, 358, kernel_size=(1, 1), stride=(1, 1), bias=False)
      (bn2): BatchNorm2d(358, eps=1e-05, momentum=0.1, affine=True, track_running_stats=True)
    )
    (9): Block(
      (conv1): Conv2d(358, 358, kernel_size=(3, 3), stride=(1, 1), padding=(1, 1), groups=358, bias=False)
      (bn1): BatchNorm2d(358, eps=1e-05, momentum=0.1, affine=True, track_running_stats=True)
      (conv2): Conv2d(358, 358, kernel_size=(1, 1), stride=(1, 1), bias=False)
      (bn2): BatchNorm2d(358, eps=1e-05, momentum=0.1, affine=True, track_running_stats=True)
    )
    (10): Block(
      (conv1): Conv2d(358, 358, kernel_size=(3, 3), stride=(1, 1), padding=(1, 1), groups=358, bias=False)
      (bn1): BatchNorm2d(358, eps=1e-05, momentum=0.1, affine=True, track_running_stats=True)
      (conv2): Conv2d(358, 358, kernel_size=(1, 1), stride=(1, 1), bias=False)
      (bn2): BatchNorm2d(358, eps=1e-05, momentum=0.1, affine=True, track_running_stats=True)
    )
    (11): Block(
      (conv1): Conv2d(358, 358, kernel_size=(3, 3), stride=(2, 2), padding=(1, 1), groups=358, bias=False)
      (bn1): BatchNorm2d(358, eps=1e-05, momentum=0.1, affine=True, track_running_stats=True)
      (conv2): Conv2d(358, 716, kernel_size=(1, 1), stride=(1, 1), bias=False)
      (bn2): BatchNorm2d(716, eps=1e-05, momentum=0.1, affine=True, track_running_stats=True)
    )
    (12): Block(
      (conv1): Conv2d(716, 716, kernel_size=(3, 3), stride=(1, 1), padding=(1, 1), groups=716, bias=False)
      (bn1): BatchNorm2d(716, eps=1e-05, momentum=0.1, affine=True, track_running_stats=True)
      (conv2): Conv2d(716, 716, kernel_size=(1, 1), stride=(1, 1), bias=False)
      (bn2): BatchNorm2d(716, eps=1e-05, momentum=0.1, affine=True, track_running_stats=True)
    )
  )
  (linear): Linear(in_features=716, out_features=10, bias=True)
)
Before pruning:
Test loss: 1.3740 Test accuracy: 78.11 %

MobileNetv1(
  (conv1): Conv2d(3, 32, kernel_size=(3, 3), stride=(1, 1), padding=(1, 1), bias=False)
  (bn1): BatchNorm2d(32, eps=1e-05, momentum=0.1, affine=True, track_running_stats=True)
  (layers): Sequential(
    (0): Block(
      (conv1): Conv2d(32, 32, kernel_size=(3, 3), stride=(1, 1), padding=(1, 1), groups=32, bias=False)
      (bn1): BatchNorm2d(32, eps=1e-05, momentum=0.1, affine=True, track_running_stats=True)
      (conv2): Conv2d(32, 64, kernel_size=(1, 1), stride=(1, 1), bias=False)
      (bn2): BatchNorm2d(64, eps=1e-05, momentum=0.1, affine=True, track_running_stats=True)
    )
    (1): Block(
      (conv1): Conv2d(64, 64, kernel_size=(3, 3), stride=(2, 2), padding=(1, 1), groups=64, bias=False)
      (bn1): BatchNorm2d(64, eps=1e-05, momentum=0.1, affine=True, track_running_stats=True)
      (conv2): Conv2d(64, 128, kernel_size=(1, 1), stride=(1, 1), bias=False)
      (bn2): BatchNorm2d(128, eps=1e-05, momentum=0.1, affine=True, track_running_stats=True)
    )
    (2): Block(
      (conv1): Conv2d(128, 128, kernel_size=(3, 3), stride=(1, 1), padding=(1, 1), groups=128, bias=False)
      (bn1): BatchNorm2d(128, eps=1e-05, momentum=0.1, affine=True, track_running_stats=True)
      (conv2): Conv2d(128, 128, kernel_size=(1, 1), stride=(1, 1), bias=False)
      (bn2): BatchNorm2d(128, eps=1e-05, momentum=0.1, affine=True, track_running_stats=True)
    )
    (3): Block(
      (conv1): Conv2d(128, 128, kernel_size=(3, 3), stride=(2, 2), padding=(1, 1), groups=128, bias=False)
      (bn1): BatchNorm2d(128, eps=1e-05, momentum=0.1, affine=True, track_running_stats=True)
      (conv2): Conv2d(128, 256, kernel_size=(1, 1), stride=(1, 1), bias=False)
      (bn2): BatchNorm2d(256, eps=1e-05, momentum=0.1, affine=True, track_running_stats=True)
    )
    (4): Block(
      (conv1): Conv2d(256, 256, kernel_size=(3, 3), stride=(1, 1), padding=(1, 1), groups=256, bias=False)
      (bn1): BatchNorm2d(256, eps=1e-05, momentum=0.1, affine=True, track_running_stats=True)
      (conv2): Conv2d(256, 256, kernel_size=(1, 1), stride=(1, 1), bias=False)
      (bn2): BatchNorm2d(256, eps=1e-05, momentum=0.1, affine=True, track_running_stats=True)
    )
    (5): Block(
      (conv1): Conv2d(256, 256, kernel_size=(3, 3), stride=(2, 2), padding=(1, 1), groups=256, bias=False)
      (bn1): BatchNorm2d(256, eps=1e-05, momentum=0.1, affine=True, track_running_stats=True)
      (conv2): Conv2d(256, 512, kernel_size=(1, 1), stride=(1, 1), bias=False)
      (bn2): BatchNorm2d(512, eps=1e-05, momentum=0.1, affine=True, track_running_stats=True)
    )
    (6): Block(
      (conv1): Conv2d(512, 512, kernel_size=(3, 3), stride=(1, 1), padding=(1, 1), groups=512, bias=False)
      (bn1): BatchNorm2d(512, eps=1e-05, momentum=0.1, affine=True, track_running_stats=True)
      (conv2): Conv2d(512, 512, kernel_size=(1, 1), stride=(1, 1), bias=False)
      (bn2): BatchNorm2d(512, eps=1e-05, momentum=0.1, affine=True, track_running_stats=True)
    )
    (7): Block(
      (conv1): Conv2d(512, 512, kernel_size=(3, 3), stride=(1, 1), padding=(1, 1), groups=512, bias=False)
      (bn1): BatchNorm2d(512, eps=1e-05, momentum=0.1, affine=True, track_running_stats=True)
      (conv2): Conv2d(512, 512, kernel_size=(1, 1), stride=(1, 1), bias=False)
      (bn2): BatchNorm2d(512, eps=1e-05, momentum=0.1, affine=True, track_running_stats=True)
    )
    (8): Block(
      (conv1): Conv2d(512, 512, kernel_size=(3, 3), stride=(1, 1), padding=(1, 1), groups=512, bias=False)
      (bn1): BatchNorm2d(512, eps=1e-05, momentum=0.1, affine=True, track_running_stats=True)
      (conv2): Conv2d(512, 512, kernel_size=(1, 1), stride=(1, 1), bias=False)
      (bn2): BatchNorm2d(512, eps=1e-05, momentum=0.1, affine=True, track_running_stats=True)
    )
    (9): Block(
      (conv1): Conv2d(512, 512, kernel_size=(3, 3), stride=(1, 1), padding=(1, 1), groups=512, bias=False)
      (bn1): BatchNorm2d(512, eps=1e-05, momentum=0.1, affine=True, track_running_stats=True)
      (conv2): Conv2d(512, 512, kernel_size=(1, 1), stride=(1, 1), bias=False)
      (bn2): BatchNorm2d(512, eps=1e-05, momentum=0.1, affine=True, track_running_stats=True)
    )
    (10): Block(
      (conv1): Conv2d(512, 512, kernel_size=(3, 3), stride=(1, 1), padding=(1, 1), groups=512, bias=False)
      (bn1): BatchNorm2d(512, eps=1e-05, momentum=0.1, affine=True, track_running_stats=True)
      (conv2): Conv2d(512, 512, kernel_size=(1, 1), stride=(1, 1), bias=False)
      (bn2): BatchNorm2d(512, eps=1e-05, momentum=0.1, affine=True, track_running_stats=True)
    )
    (11): Block(
      (conv1): Conv2d(512, 512, kernel_size=(3, 3), stride=(2, 2), padding=(1, 1), groups=512, bias=False)
      (bn1): BatchNorm2d(512, eps=1e-05, momentum=0.1, affine=True, track_running_stats=True)
      (conv2): Conv2d(512, 1024, kernel_size=(1, 1), stride=(1, 1), bias=False)
      (bn2): BatchNorm2d(1024, eps=1e-05, momentum=0.1, affine=True, track_running_stats=True)
    )
    (12): Block(
      (conv1): Conv2d(1024, 1024, kernel_size=(3, 3), stride=(1, 1), padding=(1, 1), groups=1024, bias=False)
      (bn1): BatchNorm2d(1024, eps=1e-05, momentum=0.1, affine=True, track_running_stats=True)
      (conv2): Conv2d(1024, 1024, kernel_size=(1, 1), stride=(1, 1), bias=False)
      (bn2): BatchNorm2d(1024, eps=1e-05, momentum=0.1, affine=True, track_running_stats=True)
    )
  )
  (linear): Linear(in_features=1024, out_features=10, bias=True)
)
Pruning Ratio: 0.4
Iteration 1 out of 5; Before fine-tuning
Test loss: 1.5353 Test accuracy: 73.05 %

Iteration 1 out of 5; After fine-tuning
Test loss: 2.0525 Test accuracy: 74.13 %

MobileNetv1(
  (conv1): Conv2d(3, 29, kernel_size=(3, 3), stride=(1, 1), padding=(1, 1), bias=False)
  (bn1): BatchNorm2d(29, eps=1e-05, momentum=0.1, affine=True, track_running_stats=True)
  (layers): Sequential(
    (0): Block(
      (conv1): Conv2d(29, 29, kernel_size=(3, 3), stride=(1, 1), padding=(1, 1), groups=29, bias=False)
      (bn1): BatchNorm2d(29, eps=1e-05, momentum=0.1, affine=True, track_running_stats=True)
      (conv2): Conv2d(29, 58, kernel_size=(1, 1), stride=(1, 1), bias=False)
      (bn2): BatchNorm2d(58, eps=1e-05, momentum=0.1, affine=True, track_running_stats=True)
    )
    (1): Block(
      (conv1): Conv2d(58, 58, kernel_size=(3, 3), stride=(2, 2), padding=(1, 1), groups=58, bias=False)
      (bn1): BatchNorm2d(58, eps=1e-05, momentum=0.1, affine=True, track_running_stats=True)
      (conv2): Conv2d(58, 117, kernel_size=(1, 1), stride=(1, 1), bias=False)
      (bn2): BatchNorm2d(117, eps=1e-05, momentum=0.1, affine=True, track_running_stats=True)
    )
    (2): Block(
      (conv1): Conv2d(117, 117, kernel_size=(3, 3), stride=(1, 1), padding=(1, 1), groups=117, bias=False)
      (bn1): BatchNorm2d(117, eps=1e-05, momentum=0.1, affine=True, track_running_stats=True)
      (conv2): Conv2d(117, 117, kernel_size=(1, 1), stride=(1, 1), bias=False)
      (bn2): BatchNorm2d(117, eps=1e-05, momentum=0.1, affine=True, track_running_stats=True)
    )
    (3): Block(
      (conv1): Conv2d(117, 117, kernel_size=(3, 3), stride=(2, 2), padding=(1, 1), groups=117, bias=False)
      (bn1): BatchNorm2d(117, eps=1e-05, momentum=0.1, affine=True, track_running_stats=True)
      (conv2): Conv2d(117, 235, kernel_size=(1, 1), stride=(1, 1), bias=False)
      (bn2): BatchNorm2d(235, eps=1e-05, momentum=0.1, affine=True, track_running_stats=True)
    )
    (4): Block(
      (conv1): Conv2d(235, 235, kernel_size=(3, 3), stride=(1, 1), padding=(1, 1), groups=235, bias=False)
      (bn1): BatchNorm2d(235, eps=1e-05, momentum=0.1, affine=True, track_running_stats=True)
      (conv2): Conv2d(235, 235, kernel_size=(1, 1), stride=(1, 1), bias=False)
      (bn2): BatchNorm2d(235, eps=1e-05, momentum=0.1, affine=True, track_running_stats=True)
    )
    (5): Block(
      (conv1): Conv2d(235, 235, kernel_size=(3, 3), stride=(2, 2), padding=(1, 1), groups=235, bias=False)
      (bn1): BatchNorm2d(235, eps=1e-05, momentum=0.1, affine=True, track_running_stats=True)
      (conv2): Conv2d(235, 471, kernel_size=(1, 1), stride=(1, 1), bias=False)
      (bn2): BatchNorm2d(471, eps=1e-05, momentum=0.1, affine=True, track_running_stats=True)
    )
    (6): Block(
      (conv1): Conv2d(471, 471, kernel_size=(3, 3), stride=(1, 1), padding=(1, 1), groups=471, bias=False)
      (bn1): BatchNorm2d(471, eps=1e-05, momentum=0.1, affine=True, track_running_stats=True)
      (conv2): Conv2d(471, 471, kernel_size=(1, 1), stride=(1, 1), bias=False)
      (bn2): BatchNorm2d(471, eps=1e-05, momentum=0.1, affine=True, track_running_stats=True)
    )
    (7): Block(
      (conv1): Conv2d(471, 471, kernel_size=(3, 3), stride=(1, 1), padding=(1, 1), groups=471, bias=False)
      (bn1): BatchNorm2d(471, eps=1e-05, momentum=0.1, affine=True, track_running_stats=True)
      (conv2): Conv2d(471, 471, kernel_size=(1, 1), stride=(1, 1), bias=False)
      (bn2): BatchNorm2d(471, eps=1e-05, momentum=0.1, affine=True, track_running_stats=True)
    )
    (8): Block(
      (conv1): Conv2d(471, 471, kernel_size=(3, 3), stride=(1, 1), padding=(1, 1), groups=471, bias=False)
      (bn1): BatchNorm2d(471, eps=1e-05, momentum=0.1, affine=True, track_running_stats=True)
      (conv2): Conv2d(471, 471, kernel_size=(1, 1), stride=(1, 1), bias=False)
      (bn2): BatchNorm2d(471, eps=1e-05, momentum=0.1, affine=True, track_running_stats=True)
    )
    (9): Block(
      (conv1): Conv2d(471, 471, kernel_size=(3, 3), stride=(1, 1), padding=(1, 1), groups=471, bias=False)
      (bn1): BatchNorm2d(471, eps=1e-05, momentum=0.1, affine=True, track_running_stats=True)
      (conv2): Conv2d(471, 471, kernel_size=(1, 1), stride=(1, 1), bias=False)
      (bn2): BatchNorm2d(471, eps=1e-05, momentum=0.1, affine=True, track_running_stats=True)
    )
    (10): Block(
      (conv1): Conv2d(471, 471, kernel_size=(3, 3), stride=(1, 1), padding=(1, 1), groups=471, bias=False)
      (bn1): BatchNorm2d(471, eps=1e-05, momentum=0.1, affine=True, track_running_stats=True)
      (conv2): Conv2d(471, 471, kernel_size=(1, 1), stride=(1, 1), bias=False)
      (bn2): BatchNorm2d(471, eps=1e-05, momentum=0.1, affine=True, track_running_stats=True)
    )
    (11): Block(
      (conv1): Conv2d(471, 471, kernel_size=(3, 3), stride=(2, 2), padding=(1, 1), groups=471, bias=False)
      (bn1): BatchNorm2d(471, eps=1e-05, momentum=0.1, affine=True, track_running_stats=True)
      (conv2): Conv2d(471, 942, kernel_size=(1, 1), stride=(1, 1), bias=False)
      (bn2): BatchNorm2d(942, eps=1e-05, momentum=0.1, affine=True, track_running_stats=True)
    )
    (12): Block(
…
Test loss: 2.3491 Test accuracy: 67.53 %

MobileNetv1(
  (conv1): Conv2d(3, 24, kernel_size=(3, 3), stride=(1, 1), padding=(1, 1), bias=False)
  (bn1): BatchNorm2d(24, eps=1e-05, momentum=0.1, affine=True, track_running_stats=True)
  (layers): Sequential(
    (0): Block(
      (conv1): Conv2d(24, 24, kernel_size=(3, 3), stride=(1, 1), padding=(1, 1), groups=24, bias=False)
      (bn1): BatchNorm2d(24, eps=1e-05, momentum=0.1, affine=True, track_running_stats=True)
      (conv2): Conv2d(24, 48, kernel_size=(1, 1), stride=(1, 1), bias=False)
      (bn2): BatchNorm2d(48, eps=1e-05, momentum=0.1, affine=True, track_running_stats=True)
    )
    (1): Block(
      (conv1): Conv2d(48, 48, kernel_size=(3, 3), stride=(2, 2), padding=(1, 1), groups=48, bias=False)
      (bn1): BatchNorm2d(48, eps=1e-05, momentum=0.1, affine=True, track_running_stats=True)
      (conv2): Conv2d(48, 97, kernel_size=(1, 1), stride=(1, 1), bias=False)
      (bn2): BatchNorm2d(97, eps=1e-05, momentum=0.1, affine=True, track_running_stats=True)
    )
    (2): Block(
      (conv1): Conv2d(97, 97, kernel_size=(3, 3), stride=(1, 1), padding=(1, 1), groups=97, bias=False)
      (bn1): BatchNorm2d(97, eps=1e-05, momentum=0.1, affine=True, track_running_stats=True)
      (conv2): Conv2d(97, 97, kernel_size=(1, 1), stride=(1, 1), bias=False)
      (bn2): BatchNorm2d(97, eps=1e-05, momentum=0.1, affine=True, track_running_stats=True)
    )
    (3): Block(
      (conv1): Conv2d(97, 97, kernel_size=(3, 3), stride=(2, 2), padding=(1, 1), groups=97, bias=False)
      (bn1): BatchNorm2d(97, eps=1e-05, momentum=0.1, affine=True, track_running_stats=True)
      (conv2): Conv2d(97, 194, kernel_size=(1, 1), stride=(1, 1), bias=False)
      (bn2): BatchNorm2d(194, eps=1e-05, momentum=0.1, affine=True, track_running_stats=True)
    )
    (4): Block(
      (conv1): Conv2d(194, 194, kernel_size=(3, 3), stride=(1, 1), padding=(1, 1), groups=194, bias=False)
      (bn1): BatchNorm2d(194, eps=1e-05, momentum=0.1, affine=True, track_running_stats=True)
      (conv2): Conv2d(194, 194, kernel_size=(1, 1), stride=(1, 1), bias=False)
      (bn2): BatchNorm2d(194, eps=1e-05, momentum=0.1, affine=True, track_running_stats=True)
    )
    (5): Block(
      (conv1): Conv2d(194, 194, kernel_size=(3, 3), stride=(2, 2), padding=(1, 1), groups=194, bias=False)
      (bn1): BatchNorm2d(194, eps=1e-05, momentum=0.1, affine=True, track_running_stats=True)
      (conv2): Conv2d(194, 389, kernel_size=(1, 1), stride=(1, 1), bias=False)
      (bn2): BatchNorm2d(389, eps=1e-05, momentum=0.1, affine=True, track_running_stats=True)
    )
    (6): Block(
      (conv1): Conv2d(389, 389, kernel_size=(3, 3), stride=(1, 1), padding=(1, 1), groups=389, bias=False)
      (bn1): BatchNorm2d(389, eps=1e-05, momentum=0.1, affine=True, track_running_stats=True)
      (conv2): Conv2d(389, 389, kernel_size=(1, 1), stride=(1, 1), bias=False)
      (bn2): BatchNorm2d(389, eps=1e-05, momentum=0.1, affine=True, track_running_stats=True)
    )
    (7): Block(
      (conv1): Conv2d(389, 389, kernel_size=(3, 3), stride=(1, 1), padding=(1, 1), groups=389, bias=False)
      (bn1): BatchNorm2d(389, eps=1e-05, momentum=0.1, affine=True, track_running_stats=True)
      (conv2): Conv2d(389, 389, kernel_size=(1, 1), stride=(1, 1), bias=False)
      (bn2): BatchNorm2d(389, eps=1e-05, momentum=0.1, affine=True, track_running_stats=True)
    )
    (8): Block(
      (conv1): Conv2d(389, 389, kernel_size=(3, 3), stride=(1, 1), padding=(1, 1), groups=389, bias=False)
      (bn1): BatchNorm2d(389, eps=1e-05, momentum=0.1, affine=True, track_running_stats=True)
      (conv2): Conv2d(389, 389, kernel_size=(1, 1), stride=(1, 1), bias=False)
      (bn2): BatchNorm2d(389, eps=1e-05, momentum=0.1, affine=True, track_running_stats=True)
    )
    (9): Block(
      (conv1): Conv2d(389, 389, kernel_size=(3, 3), stride=(1, 1), padding=(1, 1), groups=389, bias=False)
      (bn1): BatchNorm2d(389, eps=1e-05, momentum=0.1, affine=True, track_running_stats=True)
      (conv2): Conv2d(389, 389, kernel_size=(1, 1), stride=(1, 1), bias=False)
      (bn2): BatchNorm2d(389, eps=1e-05, momentum=0.1, affine=True, track_running_stats=True)
    )
    (10): Block(
      (conv1): Conv2d(389, 389, kernel_size=(3, 3), stride=(1, 1), padding=(1, 1), groups=389, bias=False)
      (bn1): BatchNorm2d(389, eps=1e-05, momentum=0.1, affine=True, track_running_stats=True)
      (conv2): Conv2d(389, 389, kernel_size=(1, 1), stride=(1, 1), bias=False)
      (bn2): BatchNorm2d(389, eps=1e-05, momentum=0.1, affine=True, track_running_stats=True)
    )
    (11): Block(
      (conv1): Conv2d(389, 389, kernel_size=(3, 3), stride=(2, 2), padding=(1, 1), groups=389, bias=False)
      (bn1): BatchNorm2d(389, eps=1e-05, momentum=0.1, affine=True, track_running_stats=True)
      (conv2): Conv2d(389, 778, kernel_size=(1, 1), stride=(1, 1), bias=False)
      (bn2): BatchNorm2d(778, eps=1e-05, momentum=0.1, affine=True, track_running_stats=True)
    )
    (12): Block(
      (conv1): Conv2d(778, 778, kernel_size=(3, 3), stride=(1, 1), padding=(1, 1), groups=778, bias=False)
      (bn1): BatchNorm2d(778, eps=1e-05, momentum=0.1, affine=True, track_running_stats=True)
      (conv2): Conv2d(778, 778, kernel_size=(1, 1), stride=(1, 1), bias=False)
      (bn2): BatchNorm2d(778, eps=1e-05, momentum=0.1, affine=True, track_running_stats=True)
    )
  )
  (linear): Linear(in_features=778, out_features=10, bias=True)
)
Iteration 4 out of 5; Before fine-tuning
Test loss: 2.5405 Test accuracy: 49.25 %

Iteration 4 out of 5; After fine-tuning
Test loss: 2.4005 Test accuracy: 61.61 %

MobileNetv1(
  (conv1): Conv2d(3, 21, kernel_size=(3, 3), stride=(1, 1), padding=(1, 1), bias=False)
  (bn1): BatchNorm2d(21, eps=1e-05, momentum=0.1, affine=True, track_running_stats=True)
  (layers): Sequential(
    (0): Block(
      (conv1): Conv2d(21, 21, kernel_size=(3, 3), stride=(1, 1), padding=(1, 1), groups=21, bias=False)
      (bn1): BatchNorm2d(21, eps=1e-05, momentum=0.1, affine=True, track_running_stats=True)
      (conv2): Conv2d(21, 43, kernel_size=(1, 1), stride=(1, 1), bias=False)
      (bn2): BatchNorm2d(43, eps=1e-05, momentum=0.1, affine=True, track_running_stats=True)
    )
    (1): Block(
      (conv1): Conv2d(43, 43, kernel_size=(3, 3), stride=(2, 2), padding=(1, 1), groups=43, bias=False)
      (bn1): BatchNorm2d(43, eps=1e-05, momentum=0.1, affine=True, track_running_stats=True)
      (conv2): Conv2d(43, 87, kernel_size=(1, 1), stride=(1, 1), bias=False)
      (bn2): BatchNorm2d(87, eps=1e-05, momentum=0.1, affine=True, track_running_stats=True)
    )
    (2): Block(
      (conv1): Conv2d(87, 87, kernel_size=(3, 3), stride=(1, 1), padding=(1, 1), groups=87, bias=False)
      (bn1): BatchNorm2d(87, eps=1e-05, momentum=0.1, affine=True, track_running_stats=True)
      (conv2): Conv2d(87, 87, kernel_size=(1, 1), stride=(1, 1), bias=False)
      (bn2): BatchNorm2d(87, eps=1e-05, momentum=0.1, affine=True, track_running_stats=True)
    )
    (3): Block(
      (conv1): Conv2d(87, 87, kernel_size=(3, 3), stride=(2, 2), padding=(1, 1), groups=87, bias=False)
      (bn1): BatchNorm2d(87, eps=1e-05, momentum=0.1, affine=True, track_running_stats=True)
      (conv2): Conv2d(87, 174, kernel_size=(1, 1), stride=(1, 1), bias=False)
      (bn2): BatchNorm2d(174, eps=1e-05, momentum=0.1, affine=True, track_running_stats=True)
    )
    (4): Block(
      (conv1): Conv2d(174, 174, kernel_size=(3, 3), stride=(1, 1), padding=(1, 1), groups=174, bias=False)
      (bn1): BatchNorm2d(174, eps=1e-05, momentum=0.1, affine=True, track_running_stats=True)
      (conv2): Conv2d(174, 174, kernel_size=(1, 1), stride=(1, 1), bias=False)
      (bn2): BatchNorm2d(174, eps=1e-05, momentum=0.1, affine=True, track_running_stats=True)
    )
    (5): Block(
      (conv1): Conv2d(174, 174, kernel_size=(3, 3), stride=(2, 2), padding=(1, 1), groups=174, bias=False)
      (bn1): BatchNorm2d(174, eps=1e-05, momentum=0.1, affine=True, track_running_stats=True)
      (conv2): Conv2d(174, 348, kernel_size=(1, 1), stride=(1, 1), bias=False)
      (bn2): BatchNorm2d(348, eps=1e-05, momentum=0.1, affine=True, track_running_stats=True)
    )
    (6): Block(
      (conv1): Conv2d(348, 348, kernel_size=(3, 3), stride=(1, 1), padding=(1, 1), groups=348, bias=False)
      (bn1): BatchNorm2d(348, eps=1e-05, momentum=0.1, affine=True, track_running_stats=True)
      (conv2): Conv2d(348, 348, kernel_size=(1, 1), stride=(1, 1), bias=False)
      (bn2): BatchNorm2d(348, eps=1e-05, momentum=0.1, affine=True, track_running_stats=True)
    )
    (7): Block(
      (conv1): Conv2d(348, 348, kernel_size=(3, 3), stride=(1, 1), padding=(1, 1), groups=348, bias=False)
      (bn1): BatchNorm2d(348, eps=1e-05, momentum=0.1, affine=True, track_running_stats=True)
      (conv2): Conv2d(348, 348, kernel_size=(1, 1), stride=(1, 1), bias=False)
      (bn2): BatchNorm2d(348, eps=1e-05, momentum=0.1, affine=True, track_running_stats=True)
    )
    (8): Block(
      (conv1): Conv2d(348, 348, kernel_size=(3, 3), stride=(1, 1), padding=(1, 1), groups=348, bias=False)
      (bn1): BatchNorm2d(348, eps=1e-05, momentum=0.1, affine=True, track_running_stats=True)
      (conv2): Conv2d(348, 348, kernel_size=(1, 1), stride=(1, 1), bias=False)
      (bn2): BatchNorm2d(348, eps=1e-05, momentum=0.1, affine=True, track_running_stats=True)
    )
    (9): Block(
      (conv1): Conv2d(348, 348, kernel_size=(3, 3), stride=(1, 1), padding=(1, 1), groups=348, bias=False)
      (bn1): BatchNorm2d(348, eps=1e-05, momentum=0.1, affine=True, track_running_stats=True)
      (conv2): Conv2d(348, 348, kernel_size=(1, 1), stride=(1, 1), bias=False)
      (bn2): BatchNorm2d(348, eps=1e-05, momentum=0.1, affine=True, track_running_stats=True)
    )
    (10): Block(
      (conv1): Conv2d(348, 348, kernel_size=(3, 3), stride=(1, 1), padding=(1, 1), groups=348, bias=False)
      (bn1): BatchNorm2d(348, eps=1e-05, momentum=0.1, affine=True, track_running_stats=True)
      (conv2): Conv2d(348, 348, kernel_size=(1, 1), stride=(1, 1), bias=False)
      (bn2): BatchNorm2d(348, eps=1e-05, momentum=0.1, affine=True, track_running_stats=True)
    )
    (11): Block(
      (conv1): Conv2d(348, 348, kernel_size=(3, 3), stride=(2, 2), padding=(1, 1), groups=348, bias=False)
      (bn1): BatchNorm2d(348, eps=1e-05, momentum=0.1, affine=True, track_running_stats=True)
      (conv2): Conv2d(348, 696, kernel_size=(1, 1), stride=(1, 1), bias=False)
      (bn2): BatchNorm2d(696, eps=1e-05, momentum=0.1, affine=True, track_running_stats=True)
    )
    (12): Block(
      (conv1): Conv2d(696, 696, kernel_size=(3, 3), stride=(1, 1), padding=(1, 1), groups=696, bias=False)
      (bn1): BatchNorm2d(696, eps=1e-05, momentum=0.1, affine=True, track_running_stats=True)
      (conv2): Conv2d(696, 696, kernel_size=(1, 1), stride=(1, 1), bias=False)
      (bn2): BatchNorm2d(696, eps=1e-05, momentum=0.1, affine=True, track_running_stats=True)
    )
  )
  (linear): Linear(in_features=696, out_features=10, bias=True)
)
Iteration 5 out of 5; Before fine-tuning
Test loss: 2.5039 Test accuracy: 40.57 %

Iteration 5 out of 5; After fine-tuning
Test loss: 2.4162 Test accuracy: 53.22 %

MobileNetv1(
  (conv1): Conv2d(3, 19, kernel_size=(3, 3), stride=(1, 1), padding=(1, 1), bias=False)
  (bn1): BatchNorm2d(19, eps=1e-05, momentum=0.1, affine=True, track_running_stats=True)
  (layers): Sequential(
    (0): Block(
      (conv1): Conv2d(19, 19, kernel_size=(3, 3), stride=(1, 1), padding=(1, 1), groups=19, bias=False)
      (bn1): BatchNorm2d(19, eps=1e-05, momentum=0.1, affine=True, track_running_stats=True)
      (conv2): Conv2d(19, 38, kernel_size=(1, 1), stride=(1, 1), bias=False)
      (bn2): BatchNorm2d(38, eps=1e-05, momentum=0.1, affine=True, track_running_stats=True)
    )
    (1): Block(
      (conv1): Conv2d(38, 38, kernel_size=(3, 3), stride=(2, 2), padding=(1, 1), groups=38, bias=False)
      (bn1): BatchNorm2d(38, eps=1e-05, momentum=0.1, affine=True, track_running_stats=True)
      (conv2): Conv2d(38, 76, kernel_size=(1, 1), stride=(1, 1), bias=False)
      (bn2): BatchNorm2d(76, eps=1e-05, momentum=0.1, affine=True, track_running_stats=True)
    )
    (2): Block(
      (conv1): Conv2d(76, 76, kernel_size=(3, 3), stride=(1, 1), padding=(1, 1), groups=76, bias=False)
      (bn1): BatchNorm2d(76, eps=1e-05, momentum=0.1, affine=True, track_running_stats=True)
      (conv2): Conv2d(76, 76, kernel_size=(1, 1), stride=(1, 1), bias=False)
      (bn2): BatchNorm2d(76, eps=1e-05, momentum=0.1, affine=True, track_running_stats=True)
    )
    (3): Block(
      (conv1): Conv2d(76, 76, kernel_size=(3, 3), stride=(2, 2), padding=(1, 1), groups=76, bias=False)
      (bn1): BatchNorm2d(76, eps=1e-05, momentum=0.1, affine=True, track_running_stats=True)
      (conv2): Conv2d(76, 153, kernel_size=(1, 1), stride=(1, 1), bias=False)
      (bn2): BatchNorm2d(153, eps=1e-05, momentum=0.1, affine=True, track_running_stats=True)
    )
    (4): Block(
      (conv1): Conv2d(153, 153, kernel_size=(3, 3), stride=(1, 1), padding=(1, 1), groups=153, bias=False)
      (bn1): BatchNorm2d(153, eps=1e-05, momentum=0.1, affine=True, track_running_stats=True)
      (conv2): Conv2d(153, 153, kernel_size=(1, 1), stride=(1, 1), bias=False)
      (bn2): BatchNorm2d(153, eps=1e-05, momentum=0.1, affine=True, track_running_stats=True)
    )
    (5): Block(
      (conv1): Conv2d(153, 153, kernel_size=(3, 3), stride=(2, 2), padding=(1, 1), groups=153, bias=False)
      (bn1): BatchNorm2d(153, eps=1e-05, momentum=0.1, affine=True, track_running_stats=True)
      (conv2): Conv2d(153, 307, kernel_size=(1, 1), stride=(1, 1), bias=False)
      (bn2): BatchNorm2d(307, eps=1e-05, momentum=0.1, affine=True, track_running_stats=True)
    )
    (6): Block(
      (conv1): Conv2d(307, 307, kernel_size=(3, 3), stride=(1, 1), padding=(1, 1), groups=307, bias=False)
      (bn1): BatchNorm2d(307, eps=1e-05, momentum=0.1, affine=True, track_running_stats=True)
      (conv2): Conv2d(307, 307, kernel_size=(1, 1), stride=(1, 1), bias=False)
      (bn2): BatchNorm2d(307, eps=1e-05, momentum=0.1, affine=True, track_running_stats=True)
    )
    (7): Block(
      (conv1): Conv2d(307, 307, kernel_size=(3, 3), stride=(1, 1), padding=(1, 1), groups=307, bias=False)
      (bn1): BatchNorm2d(307, eps=1e-05, momentum=0.1, affine=True, track_running_stats=True)
      (conv2): Conv2d(307, 307, kernel_size=(1, 1), stride=(1, 1), bias=False)
      (bn2): BatchNorm2d(307, eps=1e-05, momentum=0.1, affine=True, track_running_stats=True)
    )
    (8): Block(
      (conv1): Conv2d(307, 307, kernel_size=(3, 3), stride=(1, 1), padding=(1, 1), groups=307, bias=False)
      (bn1): BatchNorm2d(307, eps=1e-05, momentum=0.1, affine=True, track_running_stats=True)
      (conv2): Conv2d(307, 307, kernel_size=(1, 1), stride=(1, 1), bias=False)
      (bn2): BatchNorm2d(307, eps=1e-05, momentum=0.1, affine=True, track_running_stats=True)
    )
    (9): Block(
      (conv1): Conv2d(307, 307, kernel_size=(3, 3), stride=(1, 1), padding=(1, 1), groups=307, bias=False)
      (bn1): BatchNorm2d(307, eps=1e-05, momentum=0.1, affine=True, track_running_stats=True)
      (conv2): Conv2d(307, 307, kernel_size=(1, 1), stride=(1, 1), bias=False)
      (bn2): BatchNorm2d(307, eps=1e-05, momentum=0.1, affine=True, track_running_stats=True)
    )
    (10): Block(
      (conv1): Conv2d(307, 307, kernel_size=(3, 3), stride=(1, 1), padding=(1, 1), groups=307, bias=False)
      (bn1): BatchNorm2d(307, eps=1e-05, momentum=0.1, affine=True, track_running_stats=True)
      (conv2): Conv2d(307, 307, kernel_size=(1, 1), stride=(1, 1), bias=False)
      (bn2): BatchNorm2d(307, eps=1e-05, momentum=0.1, affine=True, track_running_stats=True)
    )
    (11): Block(
      (conv1): Conv2d(307, 307, kernel_size=(3, 3), stride=(2, 2), padding=(1, 1), groups=307, bias=False)
      (bn1): BatchNorm2d(307, eps=1e-05, momentum=0.1, affine=True, track_running_stats=True)
      (conv2): Conv2d(307, 614, kernel_size=(1, 1), stride=(1, 1), bias=False)
      (bn2): BatchNorm2d(614, eps=1e-05, momentum=0.1, affine=True, track_running_stats=True)
    )
    (12): Block(
      (conv1): Conv2d(614, 614, kernel_size=(3, 3), stride=(1, 1), padding=(1, 1), groups=614, bias=False)
      (bn1): BatchNorm2d(614, eps=1e-05, momentum=0.1, affine=True, track_running_stats=True)
      (conv2): Conv2d(614, 614, kernel_size=(1, 1), stride=(1, 1), bias=False)
      (bn2): BatchNorm2d(614, eps=1e-05, momentum=0.1, affine=True, track_running_stats=True)
    )
  )
  (linear): Linear(in_features=614, out_features=10, bias=True)
)
Before pruning:
Test loss: 1.3740 Test accuracy: 78.11 %

MobileNetv1(
  (conv1): Conv2d(3, 32, kernel_size=(3, 3), stride=(1, 1), padding=(1, 1), bias=False)
  (bn1): BatchNorm2d(32, eps=1e-05, momentum=0.1, affine=True, track_running_stats=True)
  (layers): Sequential(
    (0): Block(
      (conv1): Conv2d(32, 32, kernel_size=(3, 3), stride=(1, 1), padding=(1, 1), groups=32, bias=False)
      (bn1): BatchNorm2d(32, eps=1e-05, momentum=0.1, affine=True, track_running_stats=True)
      (conv2): Conv2d(32, 64, kernel_size=(1, 1), stride=(1, 1), bias=False)
      (bn2): BatchNorm2d(64, eps=1e-05, momentum=0.1, affine=True, track_running_stats=True)
    )
    (1): Block(
      (conv1): Conv2d(64, 64, kernel_size=(3, 3), stride=(2, 2), padding=(1, 1), groups=64, bias=False)
      (bn1): BatchNorm2d(64, eps=1e-05, momentum=0.1, affine=True, track_running_stats=True)
      (conv2): Conv2d(64, 128, kernel_size=(1, 1), stride=(1, 1), bias=False)
      (bn2): BatchNorm2d(128, eps=1e-05, momentum=0.1, affine=True, track_running_stats=True)
    )
    (2): Block(
      (conv1): Conv2d(128, 128, kernel_size=(3, 3), stride=(1, 1), padding=(1, 1), groups=128, bias=False)
      (bn1): BatchNorm2d(128, eps=1e-05, momentum=0.1, affine=True, track_running_stats=True)
      (conv2): Conv2d(128, 128, kernel_size=(1, 1), stride=(1, 1), bias=False)
      (bn2): BatchNorm2d(128, eps=1e-05, momentum=0.1, affine=True, track_running_stats=True)
    )
    (3): Block(
      (conv1): Conv2d(128, 128, kernel_size=(3, 3), stride=(2, 2), padding=(1, 1), groups=128, bias=False)
      (bn1): BatchNorm2d(128, eps=1e-05, momentum=0.1, affine=True, track_running_stats=True)
      (conv2): Conv2d(128, 256, kernel_size=(1, 1), stride=(1, 1), bias=False)
      (bn2): BatchNorm2d(256, eps=1e-05, momentum=0.1, affine=True, track_running_stats=True)
    )
    (4): Block(
      (conv1): Conv2d(256, 256, kernel_size=(3, 3), stride=(1, 1), padding=(1, 1), groups=256, bias=False)
      (bn1): BatchNorm2d(256, eps=1e-05, momentum=0.1, affine=True, track_running_stats=True)
      (conv2): Conv2d(256, 256, kernel_size=(1, 1), stride=(1, 1), bias=False)
      (bn2): BatchNorm2d(256, eps=1e-05, momentum=0.1, affine=True, track_running_stats=True)
    )
    (5): Block(
      (conv1): Conv2d(256, 256, kernel_size=(3, 3), stride=(2, 2), padding=(1, 1), groups=256, bias=False)
      (bn1): BatchNorm2d(256, eps=1e-05, momentum=0.1, affine=True, track_running_stats=True)
      (conv2): Conv2d(256, 512, kernel_size=(1, 1), stride=(1, 1), bias=False)
      (bn2): BatchNorm2d(512, eps=1e-05, momentum=0.1, affine=True, track_running_stats=True)
    )
    (6): Block(
      (conv1): Conv2d(512, 512, kernel_size=(3, 3), stride=(1, 1), padding=(1, 1), groups=512, bias=False)
      (bn1): BatchNorm2d(512, eps=1e-05, momentum=0.1, affine=True, track_running_stats=True)
      (conv2): Conv2d(512, 512, kernel_size=(1, 1), stride=(1, 1), bias=False)
      (bn2): BatchNorm2d(512, eps=1e-05, momentum=0.1, affine=True, track_running_stats=True)
    )
    (7): Block(
      (conv1): Conv2d(512, 512, kernel_size=(3, 3), stride=(1, 1), padding=(1, 1), groups=512, bias=False)
      (bn1): BatchNorm2d(512, eps=1e-05, momentum=0.1, affine=True, track_running_stats=True)
      (conv2): Conv2d(512, 512, kernel_size=(1, 1), stride=(1, 1), bias=False)
      (bn2): BatchNorm2d(512, eps=1e-05, momentum=0.1, affine=True, track_running_stats=True)
    )
    (8): Block(
      (conv1): Conv2d(512, 512, kernel_size=(3, 3), stride=(1, 1), padding=(1, 1), groups=512, bias=False)
      (bn1): BatchNorm2d(512, eps=1e-05, momentum=0.1, affine=True, track_running_stats=True)
      (conv2): Conv2d(512, 512, kernel_size=(1, 1), stride=(1, 1), bias=False)
      (bn2): BatchNorm2d(512, eps=1e-05, momentum=0.1, affine=True, track_running_stats=True)
    )
    (9): Block(
      (conv1): Conv2d(512, 512, kernel_size=(3, 3), stride=(1, 1), padding=(1, 1), groups=512, bias=False)
      (bn1): BatchNorm2d(512, eps=1e-05, momentum=0.1, affine=True, track_running_stats=True)
      (conv2): Conv2d(512, 512, kernel_size=(1, 1), stride=(1, 1), bias=False)
      (bn2): BatchNorm2d(512, eps=1e-05, momentum=0.1, affine=True, track_running_stats=True)
    )
    (10): Block(
      (conv1): Conv2d(512, 512, kernel_size=(3, 3), stride=(1, 1), padding=(1, 1), groups=512, bias=False)
      (bn1): BatchNorm2d(512, eps=1e-05, momentum=0.1, affine=True, track_running_stats=True)
      (conv2): Conv2d(512, 512, kernel_size=(1, 1), stride=(1, 1), bias=False)
      (bn2): BatchNorm2d(512, eps=1e-05, momentum=0.1, affine=True, track_running_stats=True)
    )
    (11): Block(
      (conv1): Conv2d(512, 512, kernel_size=(3, 3), stride=(2, 2), padding=(1, 1), groups=512, bias=False)
      (bn1): BatchNorm2d(512, eps=1e-05, momentum=0.1, affine=True, track_running_stats=True)
      (conv2): Conv2d(512, 1024, kernel_size=(1, 1), stride=(1, 1), bias=False)
      (bn2): BatchNorm2d(1024, eps=1e-05, momentum=0.1, affine=True, track_running_stats=True)
    )
    (12): Block(
      (conv1): Conv2d(1024, 1024, kernel_size=(3, 3), stride=(1, 1), padding=(1, 1), groups=1024, bias=False)
      (bn1): BatchNorm2d(1024, eps=1e-05, momentum=0.1, affine=True, track_running_stats=True)
      (conv2): Conv2d(1024, 1024, kernel_size=(1, 1), stride=(1, 1), bias=False)
      (bn2): BatchNorm2d(1024, eps=1e-05, momentum=0.1, affine=True, track_running_stats=True)
    )
  )
  (linear): Linear(in_features=1024, out_features=10, bias=True)
)
Pruning Ratio: 0.5
Iteration 1 out of 5; Before fine-tuning
Test loss: 1.6276 Test accuracy: 70.59 %

Iteration 1 out of 5; After fine-tuning
Test loss: 2.1316 Test accuracy: 73.35 %

MobileNetv1(
  (conv1): Conv2d(3, 28, kernel_size=(3, 3), stride=(1, 1), padding=(1, 1), bias=False)
  (bn1): BatchNorm2d(28, eps=1e-05, momentum=0.1, affine=True, track_running_stats=True)
  (layers): Sequential(
    (0): Block(
      (conv1): Conv2d(28, 28, kernel_size=(3, 3), stride=(1, 1), padding=(1, 1), groups=28, bias=False)
      (bn1): BatchNorm2d(28, eps=1e-05, momentum=0.1, affine=True, track_running_stats=True)
      (conv2): Conv2d(28, 57, kernel_size=(1, 1), stride=(1, 1), bias=False)
      (bn2): BatchNorm2d(57, eps=1e-05, momentum=0.1, affine=True, track_running_stats=True)
    )
    (1): Block(
      (conv1): Conv2d(57, 57, kernel_size=(3, 3), stride=(2, 2), padding=(1, 1), groups=57, bias=False)
      (bn1): BatchNorm2d(57, eps=1e-05, momentum=0.1, affine=True, track_running_stats=True)
      (conv2): Conv2d(57, 115, kernel_size=(1, 1), stride=(1, 1), bias=False)
      (bn2): BatchNorm2d(115, eps=1e-05, momentum=0.1, affine=True, track_running_stats=True)
    )
    (2): Block(
      (conv1): Conv2d(115, 115, kernel_size=(3, 3), stride=(1, 1), padding=(1, 1), groups=115, bias=False)
      (bn1): BatchNorm2d(115, eps=1e-05, momentum=0.1, affine=True, track_running_stats=True)
      (conv2): Conv2d(115, 115, kernel_size=(1, 1), stride=(1, 1), bias=False)
      (bn2): BatchNorm2d(115, eps=1e-05, momentum=0.1, affine=True, track_running_stats=True)
    )
    (3): Block(
      (conv1): Conv2d(115, 115, kernel_size=(3, 3), stride=(2, 2), padding=(1, 1), groups=115, bias=False)
      (bn1): BatchNorm2d(115, eps=1e-05, momentum=0.1, affine=True, track_running_stats=True)
      (conv2): Conv2d(115, 230, kernel_size=(1, 1), stride=(1, 1), bias=False)
      (bn2): BatchNorm2d(230, eps=1e-05, momentum=0.1, affine=True, track_running_stats=True)
    )
    (4): Block(
      (conv1): Conv2d(230, 230, kernel_size=(3, 3), stride=(1, 1), padding=(1, 1), groups=230, bias=False)
      (bn1): BatchNorm2d(230, eps=1e-05, momentum=0.1, affine=True, track_running_stats=True)
      (conv2): Conv2d(230, 230, kernel_size=(1, 1), stride=(1, 1), bias=False)
      (bn2): BatchNorm2d(230, eps=1e-05, momentum=0.1, affine=True, track_running_stats=True)
    )
    (5): Block(
      (conv1): Conv2d(230, 230, kernel_size=(3, 3), stride=(2, 2), padding=(1, 1), groups=230, bias=False)
      (bn1): BatchNorm2d(230, eps=1e-05, momentum=0.1, affine=True, track_running_stats=True)
      (conv2): Conv2d(230, 460, kernel_size=(1, 1), stride=(1, 1), bias=False)
      (bn2): BatchNorm2d(460, eps=1e-05, momentum=0.1, affine=True, track_running_stats=True)
    )
    (6): Block(
      (conv1): Conv2d(460, 460, kernel_size=(3, 3), stride=(1, 1), padding=(1, 1), groups=460, bias=False)
      (bn1): BatchNorm2d(460, eps=1e-05, momentum=0.1, affine=True, track_running_stats=True)
      (conv2): Conv2d(460, 460, kernel_size=(1, 1), stride=(1, 1), bias=False)
      (bn2): BatchNorm2d(460, eps=1e-05, momentum=0.1, affine=True, track_running_stats=True)
    )
    (7): Block(
      (conv1): Conv2d(460, 460, kernel_size=(3, 3), stride=(1, 1), padding=(1, 1), groups=460, bias=False)
      (bn1): BatchNorm2d(460, eps=1e-05, momentum=0.1, affine=True, track_running_stats=True)
      (conv2): Conv2d(460, 460, kernel_size=(1, 1), stride=(1, 1), bias=False)
      (bn2): BatchNorm2d(460, eps=1e-05, momentum=0.1, affine=True, track_running_stats=True)
    )
    (8): Block(
      (conv1): Conv2d(460, 460, kernel_size=(3, 3), stride=(1, 1), padding=(1, 1), groups=460, bias=False)
      (bn1): BatchNorm2d(460, eps=1e-05, momentum=0.1, affine=True, track_running_stats=True)
      (conv2): Conv2d(460, 460, kernel_size=(1, 1), stride=(1, 1), bias=False)
      (bn2): BatchNorm2d(460, eps=1e-05, momentum=0.1, affine=True, track_running_stats=True)
    )
    (9): Block(
      (conv1): Conv2d(460, 460, kernel_size=(3, 3), stride=(1, 1), padding=(1, 1), groups=460, bias=False)
      (bn1): BatchNorm2d(460, eps=1e-05, momentum=0.1, affine=True, track_running_stats=True)
      (conv2): Conv2d(460, 460, kernel_size=(1, 1), stride=(1, 1), bias=False)
      (bn2): BatchNorm2d(460, eps=1e-05, momentum=0.1, affine=True, track_running_stats=True)
    )
    (10): Block(
      (conv1): Conv2d(460, 460, kernel_size=(3, 3), stride=(1, 1), padding=(1, 1), groups=460, bias=False)
      (bn1): BatchNorm2d(460, eps=1e-05, momentum=0.1, affine=True, track_running_stats=True)
      (conv2): Conv2d(460, 460, kernel_size=(1, 1), stride=(1, 1), bias=False)
      (bn2): BatchNorm2d(460, eps=1e-05, momentum=0.1, affine=True, track_running_stats=True)
    )
    (11): Block(
      (conv1): Conv2d(460, 460, kernel_size=(3, 3), stride=(2, 2), padding=(1, 1), groups=460, bias=False)
      (bn1): BatchNorm2d(460, eps=1e-05, momentum=0.1, affine=True, track_running_stats=True)
      (conv2): Conv2d(460, 921, kernel_size=(1, 1), stride=(1, 1), bias=False)
      (bn2): BatchNorm2d(921, eps=1e-05, momentum=0.1, affine=True, track_running_stats=True)
    )
    (12): Block(
      (conv1): Conv2d(921, 921, kernel_size=(3, 3), stride=(1, 1), padding=(1, 1), groups=921, bias=False)
      (bn1): BatchNorm2d(921, eps=1e-05, momentum=0.1, affine=True, track_running_stats=True)
      (conv2): Conv2d(921, 921, kernel_size=(1, 1), stride=(1, 1), bias=False)
      (bn2): BatchNorm2d(921, eps=1e-05, momentum=0.1, affine=True, track_running_stats=True)
    )
  )
  (linear): Linear(in_features=921, out_features=10, bias=True)
)
Iteration 2 out of 5; Before fine-tuning
Test loss: 2.7466 Test accuracy: 58.15 %

Iteration 2 out of 5; After fine-tuning
Test loss: 2.2813 Test accuracy: 70.12 %

MobileNetv1(
  (conv1): Conv2d(3, 25, kernel_size=(3, 3), stride=(1, 1), padding=(1, 1), bias=False)
  (bn1): BatchNorm2d(25, eps=1e-05, momentum=0.1, affine=True, track_running_stats=True)
  (layers): Sequential(
    (0): Block(
      (conv1): Conv2d(25, 25, kernel_size=(3, 3), stride=(1, 1), padding=(1, 1), groups=25, bias=False)
      (bn1): BatchNorm2d(25, eps=1e-05, momentum=0.1, affine=True, track_running_stats=True)
      (conv2): Conv2d(25, 51, kernel_size=(1, 1), stride=(1, 1), bias=False)
      (bn2): BatchNorm2d(51, eps=1e-05, momentum=0.1, affine=True, track_running_stats=True)
    )
    (1): Block(
      (conv1): Conv2d(51, 51, kernel_size=(3, 3), stride=(2, 2), padding=(1, 1), groups=51, bias=False)
      (bn1): BatchNorm2d(51, eps=1e-05, momentum=0.1, affine=True, track_running_stats=True)
      (conv2): Conv2d(51, 102, kernel_size=(1, 1), stride=(1, 1), bias=False)
      (bn2): BatchNorm2d(102, eps=1e-05, momentum=0.1, affine=True, track_running_stats=True)
    )
    (2): Block(
      (conv1): Conv2d(102, 102, kernel_size=(3, 3), stride=(1, 1), padding=(1, 1), groups=102, bias=False)
      (bn1): BatchNorm2d(102, eps=1e-05, momentum=0.1, affine=True, track_running_stats=True)
      (conv2): Conv2d(102, 102, kernel_size=(1, 1), stride=(1, 1), bias=False)
      (bn2): BatchNorm2d(102, eps=1e-05, momentum=0.1, affine=True, track_running_stats=True)
    )
    (3): Block(
      (conv1): Conv2d(102, 102, kernel_size=(3, 3), stride=(2, 2), padding=(1, 1), groups=102, bias=False)
      (bn1): BatchNorm2d(102, eps=1e-05, momentum=0.1, affine=True, track_running_stats=True)
      (conv2): Conv2d(102, 204, kernel_size=(1, 1), stride=(1, 1), bias=False)
      (bn2): BatchNorm2d(204, eps=1e-05, momentum=0.1, affine=True, track_running_stats=True)
    )
    (4): Block(
      (conv1): Conv2d(204, 204, kernel_size=(3, 3), stride=(1, 1), padding=(1, 1), groups=204, bias=False)
      (bn1): BatchNorm2d(204, eps=1e-05, momentum=0.1, affine=True, track_running_stats=True)
      (conv2): Conv2d(204, 204, kernel_size=(1, 1), stride=(1, 1), bias=False)
      (bn2): BatchNorm2d(204, eps=1e-05, momentum=0.1, affine=True, track_running_stats=True)
    )
    (5): Block(
      (conv1): Conv2d(204, 204, kernel_size=(3, 3), stride=(2, 2), padding=(1, 1), groups=204, bias=False)
      (bn1): BatchNorm2d(204, eps=1e-05, momentum=0.1, affine=True, track_running_stats=True)
      (conv2): Conv2d(204, 409, kernel_size=(1, 1), stride=(1, 1), bias=False)
      (bn2): BatchNorm2d(409, eps=1e-05, momentum=0.1, affine=True, track_running_stats=True)
    )
    (6): Block(
      (conv1): Conv2d(409, 409, kernel_size=(3, 3), stride=(1, 1), padding=(1, 1), groups=409, bias=False)
      (bn1): BatchNorm2d(409, eps=1e-05, momentum=0.1, affine=True, track_running_stats=True)
      (conv2): Conv2d(409, 409, kernel_size=(1, 1), stride=(1, 1), bias=False)
      (bn2): BatchNorm2d(409, eps=1e-05, momentum=0.1, affine=True, track_running_stats=True)
    )
    (7): Block(
      (conv1): Conv2d(409, 409, kernel_size=(3, 3), stride=(1, 1), padding=(1, 1), groups=409, bias=False)
      (bn1): BatchNorm2d(409, eps=1e-05, momentum=0.1, affine=True, track_running_stats=True)
      (conv2): Conv2d(409, 409, kernel_size=(1, 1), stride=(1, 1), bias=False)
      (bn2): BatchNorm2d(409, eps=1e-05, momentum=0.1, affine=True, track_running_stats=True)
    )
    (8): Block(
      (conv1): Conv2d(409, 409, kernel_size=(3, 3), stride=(1, 1), padding=(1, 1), groups=409, bias=False)
      (bn1): BatchNorm2d(409, eps=1e-05, momentum=0.1, affine=True, track_running_stats=True)
      (conv2): Conv2d(409, 409, kernel_size=(1, 1), stride=(1, 1), bias=False)
      (bn2): BatchNorm2d(409, eps=1e-05, momentum=0.1, affine=True, track_running_stats=True)
    )
    (9): Block(
      (conv1): Conv2d(409, 409, kernel_size=(3, 3), stride=(1, 1), padding=(1, 1), groups=409, bias=False)
      (bn1): BatchNorm2d(409, eps=1e-05, momentum=0.1, affine=True, track_running_stats=True)
      (conv2): Conv2d(409, 409, kernel_size=(1, 1), stride=(1, 1), bias=False)
      (bn2): BatchNorm2d(409, eps=1e-05, momentum=0.1, affine=True, track_running_stats=True)
    )
    (10): Block(
      (conv1): Conv2d(409, 409, kernel_size=(3, 3), stride=(1, 1), padding=(1, 1), groups=409, bias=False)
      (bn1): BatchNorm2d(409, eps=1e-05, momentum=0.1, affine=True, track_running_stats=True)
      (conv2): Conv2d(409, 409, kernel_size=(1, 1), stride=(1, 1), bias=False)
      (bn2): BatchNorm2d(409, eps=1e-05, momentum=0.1, affine=True, track_running_stats=True)
    )
    (11): Block(
      (conv1): Conv2d(409, 409, kernel_size=(3, 3), stride=(2, 2), padding=(1, 1), groups=409, bias=False)
      (bn1): BatchNorm2d(409, eps=1e-05, momentum=0.1, affine=True, track_running_stats=True)
      (conv2): Conv2d(409, 819, kernel_size=(1, 1), stride=(1, 1), bias=False)
      (bn2): BatchNorm2d(819, eps=1e-05, momentum=0.1, affine=True, track_running_stats=True)
    )
    (12): Block(
      (conv1): Conv2d(819, 819, kernel_size=(3, 3), stride=(1, 1), padding=(1, 1), groups=819, bias=False)
      (bn1): BatchNorm2d(819, eps=1e-05, momentum=0.1, affine=True, track_running_stats=True)
      (conv2): Conv2d(819, 819, kernel_size=(1, 1), stride=(1, 1), bias=False)
      (bn2): BatchNorm2d(819, eps=1e-05, momentum=0.1, affine=True, track_running_stats=True)
    )
  )
  (linear): Linear(in_features=819, out_features=10, bias=True)
)
Iteration 3 out of 5; Before fine-tuning
Test loss: 2.1704 Test accuracy: 54.22 %

Iteration 3 out of 5; After fine-tuning
Test loss: 2.3165 Test accuracy: 62.84 %

MobileNetv1(
  (conv1): Conv2d(3, 22, kernel_size=(3, 3), stride=(1, 1), padding=(1, 1), bias=False)
  (bn1): BatchNorm2d(22, eps=1e-05, momentum=0.1, affine=True, track_running_stats=True)
  (layers): Sequential(
    (0): Block(
      (conv1): Conv2d(22, 22, kernel_size=(3, 3), stride=(1, 1), padding=(1, 1), groups=22, bias=False)
      (bn1): BatchNorm2d(22, eps=1e-05, momentum=0.1, affine=True, track_running_stats=True)
      (conv2): Conv2d(22, 44, kernel_size=(1, 1), stride=(1, 1), bias=False)
      (bn2): BatchNorm2d(44, eps=1e-05, momentum=0.1, affine=True, track_running_stats=True)
    )
    (1): Block(
      (conv1): Conv2d(44, 44, kernel_size=(3, 3), stride=(2, 2), padding=(1, 1), groups=44, bias=False)
      (bn1): BatchNorm2d(44, eps=1e-05, momentum=0.1, affine=True, track_running_stats=True)
      (conv2): Conv2d(44, 89, kernel_size=(1, 1), stride=(1, 1), bias=False)
      (bn2): BatchNorm2d(89, eps=1e-05, momentum=0.1, affine=True, track_running_stats=True)
    )
    (2): Block(
      (conv1): Conv2d(89, 89, kernel_size=(3, 3), stride=(1, 1), padding=(1, 1), groups=89, bias=False)
      (bn1): BatchNorm2d(89, eps=1e-05, momentum=0.1, affine=True, track_running_stats=True)
      (conv2): Conv2d(89, 89, kernel_size=(1, 1), stride=(1, 1), bias=False)
      (bn2): BatchNorm2d(89, eps=1e-05, momentum=0.1, affine=True, track_running_stats=True)
    )
    (3): Block(
      (conv1): Conv2d(89, 89, kernel_size=(3, 3), stride=(2, 2), padding=(1, 1), groups=89, bias=False)
      (bn1): BatchNorm2d(89, eps=1e-05, momentum=0.1, affine=True, track_running_stats=True)
      (conv2): Conv2d(89, 179, kernel_size=(1, 1), stride=(1, 1), bias=False)
      (bn2): BatchNorm2d(179, eps=1e-05, momentum=0.1, affine=True, track_running_stats=True)
    )
    (4): Block(
      (conv1): Conv2d(179, 179, kernel_size=(3, 3), stride=(1, 1), padding=(1, 1), groups=179, bias=False)
      (bn1): BatchNorm2d(179, eps=1e-05, momentum=0.1, affine=True, track_running_stats=True)
      (conv2): Conv2d(179, 179, kernel_size=(1, 1), stride=(1, 1), bias=False)
      (bn2): BatchNorm2d(179, eps=1e-05, momentum=0.1, affine=True, track_running_stats=True)
    )
    (5): Block(
      (conv1): Conv2d(179, 179, kernel_size=(3, 3), stride=(2, 2), padding=(1, 1), groups=179, bias=False)
      (bn1): BatchNorm2d(179, eps=1e-05, momentum=0.1, affine=True, track_running_stats=True)
      (conv2): Conv2d(179, 358, kernel_size=(1, 1), stride=(1, 1), bias=False)
      (bn2): BatchNorm2d(358, eps=1e-05, momentum=0.1, affine=True, track_running_stats=True)
    )
    (6): Block(
      (conv1): Conv2d(358, 358, kernel_size=(3, 3), stride=(1, 1), padding=(1, 1), groups=358, bias=False)
      (bn1): BatchNorm2d(358, eps=1e-05, momentum=0.1, affine=True, track_running_stats=True)
      (conv2): Conv2d(358, 358, kernel_size=(1, 1), stride=(1, 1), bias=False)
      (bn2): BatchNorm2d(358, eps=1e-05, momentum=0.1, affine=True, track_running_stats=True)
    )
    (7): Block(
      (conv1): Conv2d(358, 358, kernel_size=(3, 3), stride=(1, 1), padding=(1, 1), groups=358, bias=False)
      (bn1): BatchNorm2d(358, eps=1e-05, momentum=0.1, affine=True, track_running_stats=True)
      (conv2): Conv2d(358, 358, kernel_size=(1, 1), stride=(1, 1), bias=False)
      (bn2): BatchNorm2d(358, eps=1e-05, momentum=0.1, affine=True, track_running_stats=True)
    )
    (8): Block(
      (conv1): Conv2d(358, 358, kernel_size=(3, 3), stride=(1, 1), padding=(1, 1), groups=358, bias=False)
      (bn1): BatchNorm2d(358, eps=1e-05, momentum=0.1, affine=True, track_running_stats=True)
      (conv2): Conv2d(358, 358, kernel_size=(1, 1), stride=(1, 1), bias=False)
      (bn2): BatchNorm2d(358, eps=1e-05, momentum=0.1, affine=True, track_running_stats=True)
    )
    (9): Block(
      (conv1): Conv2d(358, 358, kernel_size=(3, 3), stride=(1, 1), padding=(1, 1), groups=358, bias=False)
      (bn1): BatchNorm2d(358, eps=1e-05, momentum=0.1, affine=True, track_running_stats=True)
      (conv2): Conv2d(358, 358, kernel_size=(1, 1), stride=(1, 1), bias=False)
      (bn2): BatchNorm2d(358, eps=1e-05, momentum=0.1, affine=True, track_running_stats=True)
    )
    (10): Block(
      (conv1): Conv2d(358, 358, kernel_size=(3, 3), stride=(1, 1), padding=(1, 1), groups=358, bias=False)
      (bn1): BatchNorm2d(358, eps=1e-05, momentum=0.1, affine=True, track_running_stats=True)
      (conv2): Conv2d(358, 358, kernel_size=(1, 1), stride=(1, 1), bias=False)
      (bn2): BatchNorm2d(358, eps=1e-05, momentum=0.1, affine=True, track_running_stats=True)
    )
    (11): Block(
      (conv1): Conv2d(358, 358, kernel_size=(3, 3), stride=(2, 2), padding=(1, 1), groups=358, bias=False)
      (bn1): BatchNorm2d(358, eps=1e-05, momentum=0.1, affine=True, track_running_stats=True)
      (conv2): Conv2d(358, 716, kernel_size=(1, 1), stride=(1, 1), bias=False)
      (bn2): BatchNorm2d(716, eps=1e-05, momentum=0.1, affine=True, track_running_stats=True)
    )
    (12): Block(
      (conv1): Conv2d(716, 716, kernel_size=(3, 3), stride=(1, 1), padding=(1, 1), groups=716, bias=False)
      (bn1): BatchNorm2d(716, eps=1e-05, momentum=0.1, affine=True, track_running_stats=True)
      (conv2): Conv2d(716, 716, kernel_size=(1, 1), stride=(1, 1), bias=False)
      (bn2): BatchNorm2d(716, eps=1e-05, momentum=0.1, affine=True, track_running_stats=True)
    )
  )
  (linear): Linear(in_features=716, out_features=10, bias=True)
)
Iteration 4 out of 5; Before fine-tuning
Test loss: 2.7026 Test accuracy: 33.67 %

Iteration 4 out of 5; After fine-tuning
Test loss: 2.4651 Test accuracy: 51.64 %

MobileNetv1(
  (conv1): Conv2d(3, 19, kernel_size=(3, 3), stride=(1, 1), padding=(1, 1), bias=False)
  (bn1): BatchNorm2d(19, eps=1e-05, momentum=0.1, affine=True, track_running_stats=True)
  (layers): Sequential(
    (0): Block(
      (conv1): Conv2d(19, 19, kernel_size=(3, 3), stride=(1, 1), padding=(1, 1), groups=19, bias=False)
      (bn1): BatchNorm2d(19, eps=1e-05, momentum=0.1, affine=True, track_running_stats=True)
      (conv2): Conv2d(19, 38, kernel_size=(1, 1), stride=(1, 1), bias=False)
      (bn2): BatchNorm2d(38, eps=1e-05, momentum=0.1, affine=True, track_running_stats=True)
    )
    (1): Block(
      (conv1): Conv2d(38, 38, kernel_size=(3, 3), stride=(2, 2), padding=(1, 1), groups=38, bias=False)
      (bn1): BatchNorm2d(38, eps=1e-05, momentum=0.1, affine=True, track_running_stats=True)
      (conv2): Conv2d(38, 76, kernel_size=(1, 1), stride=(1, 1), bias=False)
      (bn2): BatchNorm2d(76, eps=1e-05, momentum=0.1, affine=True, track_running_stats=True)
    )
    (2): Block(
      (conv1): Conv2d(76, 76, kernel_size=(3, 3), stride=(1, 1), padding=(1, 1), groups=76, bias=False)
      (bn1): BatchNorm2d(76, eps=1e-05, momentum=0.1, affine=True, track_running_stats=True)
      (conv2): Conv2d(76, 76, kernel_size=(1, 1), stride=(1, 1), bias=False)
      (bn2): BatchNorm2d(76, eps=1e-05, momentum=0.1, affine=True, track_running_stats=True)
    )
    (3): Block(
      (conv1): Conv2d(76, 76, kernel_size=(3, 3), stride=(2, 2), padding=(1, 1), groups=76, bias=False)
      (bn1): BatchNorm2d(76, eps=1e-05, momentum=0.1, affine=True, track_running_stats=True)
      (conv2): Conv2d(76, 153, kernel_size=(1, 1), stride=(1, 1), bias=False)
      (bn2): BatchNorm2d(153, eps=1e-05, momentum=0.1, affine=True, track_running_stats=True)
    )
    (4): Block(
      (conv1): Conv2d(153, 153, kernel_size=(3, 3), stride=(1, 1), padding=(1, 1), groups=153, bias=False)
      (bn1): BatchNorm2d(153, eps=1e-05, momentum=0.1, affine=True, track_running_stats=True)
      (conv2): Conv2d(153, 153, kernel_size=(1, 1), stride=(1, 1), bias=False)
      (bn2): BatchNorm2d(153, eps=1e-05, momentum=0.1, affine=True, track_running_stats=True)
    )
    (5): Block(
      (conv1): Conv2d(153, 153, kernel_size=(3, 3), stride=(2, 2), padding=(1, 1), groups=153, bias=False)
      (bn1): BatchNorm2d(153, eps=1e-05, momentum=0.1, affine=True, track_running_stats=True)
      (conv2): Conv2d(153, 307, kernel_size=(1, 1), stride=(1, 1), bias=False)
      (bn2): BatchNorm2d(307, eps=1e-05, momentum=0.1, affine=True, track_running_stats=True)
    )
    (6): Block(
      (conv1): Conv2d(307, 307, kernel_size=(3, 3), stride=(1, 1), padding=(1, 1), groups=307, bias=False)
      (bn1): BatchNorm2d(307, eps=1e-05, momentum=0.1, affine=True, track_running_stats=True)
      (conv2): Conv2d(307, 307, kernel_size=(1, 1), stride=(1, 1), bias=False)
      (bn2): BatchNorm2d(307, eps=1e-05, momentum=0.1, affine=True, track_running_stats=True)
    )
    (7): Block(
      (conv1): Conv2d(307, 307, kernel_size=(3, 3), stride=(1, 1), padding=(1, 1), groups=307, bias=False)
      (bn1): BatchNorm2d(307, eps=1e-05, momentum=0.1, affine=True, track_running_stats=True)
      (conv2): Conv2d(307, 307, kernel_size=(1, 1), stride=(1, 1), bias=False)
      (bn2): BatchNorm2d(307, eps=1e-05, momentum=0.1, affine=True, track_running_stats=True)
    )
    (8): Block(
      (conv1): Conv2d(307, 307, kernel_size=(3, 3), stride=(1, 1), padding=(1, 1), groups=307, bias=False)
      (bn1): BatchNorm2d(307, eps=1e-05, momentum=0.1, affine=True, track_running_stats=True)
      (conv2): Conv2d(307, 307, kernel_size=(1, 1), stride=(1, 1), bias=False)
      (bn2): BatchNorm2d(307, eps=1e-05, momentum=0.1, affine=True, track_running_stats=True)
    )
    (9): Block(
      (conv1): Conv2d(307, 307, kernel_size=(3, 3), stride=(1, 1), padding=(1, 1), groups=307, bias=False)
      (bn1): BatchNorm2d(307, eps=1e-05, momentum=0.1, affine=True, track_running_stats=True)
      (conv2): Conv2d(307, 307, kernel_size=(1, 1), stride=(1, 1), bias=False)
      (bn2): BatchNorm2d(307, eps=1e-05, momentum=0.1, affine=True, track_running_stats=True)
    )
    (10): Block(
      (conv1): Conv2d(307, 307, kernel_size=(3, 3), stride=(1, 1), padding=(1, 1), groups=307, bias=False)
      (bn1): BatchNorm2d(307, eps=1e-05, momentum=0.1, affine=True, track_running_stats=True)
      (conv2): Conv2d(307, 307, kernel_size=(1, 1), stride=(1, 1), bias=False)
      (bn2): BatchNorm2d(307, eps=1e-05, momentum=0.1, affine=True, track_running_stats=True)
    )
    (11): Block(
      (conv1): Conv2d(307, 307, kernel_size=(3, 3), stride=(2, 2), padding=(1, 1), groups=307, bias=False)
      (bn1): BatchNorm2d(307, eps=1e-05, momentum=0.1, affine=True, track_running_stats=True)
      (conv2): Conv2d(307, 614, kernel_size=(1, 1), stride=(1, 1), bias=False)
      (bn2): BatchNorm2d(614, eps=1e-05, momentum=0.1, affine=True, track_running_stats=True)
    )
    (12): Block(
      (conv1): Conv2d(614, 614, kernel_size=(3, 3), stride=(1, 1), padding=(1, 1), groups=614, bias=False)
      (bn1): BatchNorm2d(614, eps=1e-05, momentum=0.1, affine=True, track_running_stats=True)
      (conv2): Conv2d(614, 614, kernel_size=(1, 1), stride=(1, 1), bias=False)
      (bn2): BatchNorm2d(614, eps=1e-05, momentum=0.1, affine=True, track_running_stats=True)
    )
  )
  (linear): Linear(in_features=614, out_features=10, bias=True)
)
Iteration 5 out of 5; Before fine-tuning
Test loss: 2.3715 Test accuracy: 25.61 %

Iteration 5 out of 5; After fine-tuning
Test loss: 3.0778 Test accuracy: 35.15 %

MobileNetv1(
  (conv1): Conv2d(3, 16, kernel_size=(3, 3), stride=(1, 1), padding=(1, 1), bias=False)
  (bn1): BatchNorm2d(16, eps=1e-05, momentum=0.1, affine=True, track_running_stats=True)
  (layers): Sequential(
    (0): Block(
      (conv1): Conv2d(16, 16, kernel_size=(3, 3), stride=(1, 1), padding=(1, 1), groups=16, bias=False)
      (bn1): BatchNorm2d(16, eps=1e-05, momentum=0.1, affine=True, track_running_stats=True)
      (conv2): Conv2d(16, 32, kernel_size=(1, 1), stride=(1, 1), bias=False)
      (bn2): BatchNorm2d(32, eps=1e-05, momentum=0.1, affine=True, track_running_stats=True)
    )
    (1): Block(
      (conv1): Conv2d(32, 32, kernel_size=(3, 3), stride=(2, 2), padding=(1, 1), groups=32, bias=False)
      (bn1): BatchNorm2d(32, eps=1e-05, momentum=0.1, affine=True, track_running_stats=True)
      (conv2): Conv2d(32, 64, kernel_size=(1, 1), stride=(1, 1), bias=False)
      (bn2): BatchNorm2d(64, eps=1e-05, momentum=0.1, affine=True, track_running_stats=True)
    )
    (2): Block(
      (conv1): Conv2d(64, 64, kernel_size=(3, 3), stride=(1, 1), padding=(1, 1), groups=64, bias=False)
      (bn1): BatchNorm2d(64, eps=1e-05, momentum=0.1, affine=True, track_running_stats=True)
      (conv2): Conv2d(64, 64, kernel_size=(1, 1), stride=(1, 1), bias=False)
      (bn2): BatchNorm2d(64, eps=1e-05, momentum=0.1, affine=True, track_running_stats=True)
    )
    (3): Block(
      (conv1): Conv2d(64, 64, kernel_size=(3, 3), stride=(2, 2), padding=(1, 1), groups=64, bias=False)
      (bn1): BatchNorm2d(64, eps=1e-05, momentum=0.1, affine=True, track_running_stats=True)
      (conv2): Conv2d(64, 128, kernel_size=(1, 1), stride=(1, 1), bias=False)
      (bn2): BatchNorm2d(128, eps=1e-05, momentum=0.1, affine=True, track_running_stats=True)
    )
    (4): Block(
      (conv1): Conv2d(128, 128, kernel_size=(3, 3), stride=(1, 1), padding=(1, 1), groups=128, bias=False)
      (bn1): BatchNorm2d(128, eps=1e-05, momentum=0.1, affine=True, track_running_stats=True)
      (conv2): Conv2d(128, 128, kernel_size=(1, 1), stride=(1, 1), bias=False)
      (bn2): BatchNorm2d(128, eps=1e-05, momentum=0.1, affine=True, track_running_stats=True)
    )
    (5): Block(
      (conv1): Conv2d(128, 128, kernel_size=(3, 3), stride=(2, 2), padding=(1, 1), groups=128, bias=False)
      (bn1): BatchNorm2d(128, eps=1e-05, momentum=0.1, affine=True, track_running_stats=True)
      (conv2): Conv2d(128, 256, kernel_size=(1, 1), stride=(1, 1), bias=False)
      (bn2): BatchNorm2d(256, eps=1e-05, momentum=0.1, affine=True, track_running_stats=True)
    )
    (6): Block(
      (conv1): Conv2d(256, 256, kernel_size=(3, 3), stride=(1, 1), padding=(1, 1), groups=256, bias=False)
      (bn1): BatchNorm2d(256, eps=1e-05, momentum=0.1, affine=True, track_running_stats=True)
      (conv2): Conv2d(256, 256, kernel_size=(1, 1), stride=(1, 1), bias=False)
      (bn2): BatchNorm2d(256, eps=1e-05, momentum=0.1, affine=True, track_running_stats=True)
    )
    (7): Block(
      (conv1): Conv2d(256, 256, kernel_size=(3, 3), stride=(1, 1), padding=(1, 1), groups=256, bias=False)
      (bn1): BatchNorm2d(256, eps=1e-05, momentum=0.1, affine=True, track_running_stats=True)
      (conv2): Conv2d(256, 256, kernel_size=(1, 1), stride=(1, 1), bias=False)
      (bn2): BatchNorm2d(256, eps=1e-05, momentum=0.1, affine=True, track_running_stats=True)
    )
    (8): Block(
      (conv1): Conv2d(256, 256, kernel_size=(3, 3), stride=(1, 1), padding=(1, 1), groups=256, bias=False)
      (bn1): BatchNorm2d(256, eps=1e-05, momentum=0.1, affine=True, track_running_stats=True)
      (conv2): Conv2d(256, 256, kernel_size=(1, 1), stride=(1, 1), bias=False)
      (bn2): BatchNorm2d(256, eps=1e-05, momentum=0.1, affine=True, track_running_stats=True)
    )
    (9): Block(
      (conv1): Conv2d(256, 256, kernel_size=(3, 3), stride=(1, 1), padding=(1, 1), groups=256, bias=False)
      (bn1): BatchNorm2d(256, eps=1e-05, momentum=0.1, affine=True, track_running_stats=True)
      (conv2): Conv2d(256, 256, kernel_size=(1, 1), stride=(1, 1), bias=False)
      (bn2): BatchNorm2d(256, eps=1e-05, momentum=0.1, affine=True, track_running_stats=True)
    )
    (10): Block(
      (conv1): Conv2d(256, 256, kernel_size=(3, 3), stride=(1, 1), padding=(1, 1), groups=256, bias=False)
      (bn1): BatchNorm2d(256, eps=1e-05, momentum=0.1, affine=True, track_running_stats=True)
      (conv2): Conv2d(256, 256, kernel_size=(1, 1), stride=(1, 1), bias=False)
      (bn2): BatchNorm2d(256, eps=1e-05, momentum=0.1, affine=True, track_running_stats=True)
    )
    (11): Block(
      (conv1): Conv2d(256, 256, kernel_size=(3, 3), stride=(2, 2), padding=(1, 1), groups=256, bias=False)
      (bn1): BatchNorm2d(256, eps=1e-05, momentum=0.1, affine=True, track_running_stats=True)
      (conv2): Conv2d(256, 512, kernel_size=(1, 1), stride=(1, 1), bias=False)
      (bn2): BatchNorm2d(512, eps=1e-05, momentum=0.1, affine=True, track_running_stats=True)
    )
    (12): Block(
      (conv1): Conv2d(512, 512, kernel_size=(3, 3), stride=(1, 1), padding=(1, 1), groups=512, bias=False)
      (bn1): BatchNorm2d(512, eps=1e-05, momentum=0.1, affine=True, track_running_stats=True)
      (conv2): Conv2d(512, 512, kernel_size=(1, 1), stride=(1, 1), bias=False)
      (bn2): BatchNorm2d(512, eps=1e-05, momentum=0.1, affine=True, track_running_stats=True)
    )
  )
  (linear): Linear(in_features=512, out_features=10, bias=True)
)
