Model: "sequential"
_________________________________________________________________
Layer (type)                 Output Shape              Param #   
=================================================================
conv2d (Conv2D)              (None, 32, 32, 32)        864       
_________________________________________________________________
batch_normalization (BatchNo (None, 32, 32, 32)        128       
_________________________________________________________________
activation (Activation)      (None, 32, 32, 32)        0         
_________________________________________________________________
depthwise_conv2d (DepthwiseC (None, 32, 32, 32)        288       
_________________________________________________________________
batch_normalization_1 (Batch (None, 32, 32, 32)        128       
_________________________________________________________________
activation_1 (Activation)    (None, 32, 32, 32)        0         
_________________________________________________________________
conv2d_1 (Conv2D)            (None, 32, 32, 64)        2048      
_________________________________________________________________
batch_normalization_2 (Batch (None, 32, 32, 64)        256       
_________________________________________________________________
activation_2 (Activation)    (None, 32, 32, 64)        0         
_________________________________________________________________
depthwise_conv2d_1 (Depthwis (None, 16, 16, 64)        576       
_________________________________________________________________
batch_normalization_3 (Batch (None, 16, 16, 64)        256       
_________________________________________________________________
activation_3 (Activation)    (None, 16, 16, 64)        0         
_________________________________________________________________
conv2d_2 (Conv2D)            (None, 16, 16, 128)       8192      
_________________________________________________________________
batch_normalization_4 (Batch (None, 16, 16, 128)       512       
_________________________________________________________________
activation_4 (Activation)    (None, 16, 16, 128)       0         
_________________________________________________________________
depthwise_conv2d_2 (Depthwis (None, 16, 16, 128)       1152      
_________________________________________________________________
batch_normalization_5 (Batch (None, 16, 16, 128)       512       
_________________________________________________________________
activation_5 (Activation)    (None, 16, 16, 128)       0         
_________________________________________________________________
conv2d_3 (Conv2D)            (None, 16, 16, 128)       16384     
_________________________________________________________________
batch_normalization_6 (Batch (None, 16, 16, 128)       512       
_________________________________________________________________
activation_6 (Activation)    (None, 16, 16, 128)       0         
_________________________________________________________________
depthwise_conv2d_3 (Depthwis (None, 8, 8, 128)         1152      
_________________________________________________________________
batch_normalization_7 (Batch (None, 8, 8, 128)         512       
_________________________________________________________________
activation_7 (Activation)    (None, 8, 8, 128)         0         
_________________________________________________________________
conv2d_4 (Conv2D)            (None, 8, 8, 256)         32768     
_________________________________________________________________
batch_normalization_8 (Batch (None, 8, 8, 256)         1024      
_________________________________________________________________
activation_8 (Activation)    (None, 8, 8, 256)         0         
_________________________________________________________________
depthwise_conv2d_4 (Depthwis (None, 8, 8, 256)         2304      
_________________________________________________________________
batch_normalization_9 (Batch (None, 8, 8, 256)         1024      
_________________________________________________________________
activation_9 (Activation)    (None, 8, 8, 256)         0         
_________________________________________________________________
conv2d_5 (Conv2D)            (None, 8, 8, 256)         65536     
_________________________________________________________________
batch_normalization_10 (Batc (None, 8, 8, 256)         1024      
_________________________________________________________________
activation_10 (Activation)   (None, 8, 8, 256)         0         
_________________________________________________________________
depthwise_conv2d_5 (Depthwis (None, 4, 4, 256)         2304      
_________________________________________________________________
batch_normalization_11 (Batc (None, 4, 4, 256)         1024      
_________________________________________________________________
activation_11 (Activation)   (None, 4, 4, 256)         0         
_________________________________________________________________
conv2d_6 (Conv2D)            (None, 4, 4, 512)         131072    
_________________________________________________________________
batch_normalization_12 (Batc (None, 4, 4, 512)         2048      
_________________________________________________________________
activation_12 (Activation)   (None, 4, 4, 512)         0         
_________________________________________________________________
depthwise_conv2d_6 (Depthwis (None, 4, 4, 512)         4608      
_________________________________________________________________
batch_normalization_13 (Batc (None, 4, 4, 512)         2048      
_________________________________________________________________
activation_13 (Activation)   (None, 4, 4, 512)         0         
_________________________________________________________________
conv2d_7 (Conv2D)            (None, 4, 4, 512)         262144    
_________________________________________________________________
batch_normalization_14 (Batc (None, 4, 4, 512)         2048      
_________________________________________________________________
activation_14 (Activation)   (None, 4, 4, 512)         0         
_________________________________________________________________
depthwise_conv2d_7 (Depthwis (None, 4, 4, 512)         4608      
_________________________________________________________________
batch_normalization_15 (Batc (None, 4, 4, 512)         2048      
_________________________________________________________________
activation_15 (Activation)   (None, 4, 4, 512)         0         
_________________________________________________________________
conv2d_8 (Conv2D)            (None, 4, 4, 512)         262144    
_________________________________________________________________
batch_normalization_16 (Batc (None, 4, 4, 512)         2048      
_________________________________________________________________
activation_16 (Activation)   (None, 4, 4, 512)         0         
_________________________________________________________________
depthwise_conv2d_8 (Depthwis (None, 4, 4, 512)         4608      
_________________________________________________________________
batch_normalization_17 (Batc (None, 4, 4, 512)         2048      
_________________________________________________________________
activation_17 (Activation)   (None, 4, 4, 512)         0         
_________________________________________________________________
conv2d_9 (Conv2D)            (None, 4, 4, 512)         262144    
_________________________________________________________________
batch_normalization_18 (Batc (None, 4, 4, 512)         2048      
_________________________________________________________________
activation_18 (Activation)   (None, 4, 4, 512)         0         
_________________________________________________________________
depthwise_conv2d_9 (Depthwis (None, 4, 4, 512)         4608      
_________________________________________________________________
batch_normalization_19 (Batc (None, 4, 4, 512)         2048      
_________________________________________________________________
activation_19 (Activation)   (None, 4, 4, 512)         0         
_________________________________________________________________
conv2d_10 (Conv2D)           (None, 4, 4, 512)         262144    
_________________________________________________________________
batch_normalization_20 (Batc (None, 4, 4, 512)         2048      
_________________________________________________________________
activation_20 (Activation)   (None, 4, 4, 512)         0         
_________________________________________________________________
depthwise_conv2d_10 (Depthwi (None, 4, 4, 512)         4608      
_________________________________________________________________
batch_normalization_21 (Batc (None, 4, 4, 512)         2048      
_________________________________________________________________
activation_21 (Activation)   (None, 4, 4, 512)         0         
_________________________________________________________________
conv2d_11 (Conv2D)           (None, 4, 4, 512)         262144    
_________________________________________________________________
batch_normalization_22 (Batc (None, 4, 4, 512)         2048      
_________________________________________________________________
activation_22 (Activation)   (None, 4, 4, 512)         0         
_________________________________________________________________
depthwise_conv2d_11 (Depthwi (None, 2, 2, 512)         4608      
_________________________________________________________________
batch_normalization_23 (Batc (None, 2, 2, 512)         2048      
_________________________________________________________________
activation_23 (Activation)   (None, 2, 2, 512)         0         
_________________________________________________________________
conv2d_12 (Conv2D)           (None, 2, 2, 1024)        524288    
_________________________________________________________________
batch_normalization_24 (Batc (None, 2, 2, 1024)        4096      
_________________________________________________________________
activation_24 (Activation)   (None, 2, 2, 1024)        0         
_________________________________________________________________
depthwise_conv2d_12 (Depthwi (None, 2, 2, 1024)        9216      
_________________________________________________________________
batch_normalization_25 (Batc (None, 2, 2, 1024)        4096      
_________________________________________________________________
activation_25 (Activation)   (None, 2, 2, 1024)        0         
_________________________________________________________________
conv2d_13 (Conv2D)           (None, 2, 2, 1024)        1048576   
_________________________________________________________________
batch_normalization_26 (Batc (None, 2, 2, 1024)        4096      
_________________________________________________________________
activation_26 (Activation)   (None, 2, 2, 1024)        0         
_________________________________________________________________
avg_pool (AveragePooling2D)  (None, 1, 1, 1024)        0         
_________________________________________________________________
flatten (Flatten)            (None, 1024)              0         
_________________________________________________________________
dense (Dense)                (None, 10)                10250     
_________________________________________________________________
activation_27 (Activation)   (None, 10)                0         
=================================================================
Total params: 3,239,114
Trainable params: 3,217,226
Non-trainable params: 21,888
_________________________________________________________________
Epoch 1/100
391/391 - 23s - loss: 1.7858 - accuracy: 0.3401
Epoch 2/100
391/391 - 11s - loss: 1.3124 - accuracy: 0.5251
Epoch 3/100
391/391 - 11s - loss: 1.0917 - accuracy: 0.6112
…
