…
[INFO] Register count_normalization() for <class 'torch.nn.modules.batchnorm.BatchNorm2d'>.
[INFO] Register zero_ops() for <class 'torch.nn.modules.container.Sequential'>.
[INFO] Register count_linear() for <class 'torch.nn.modules.linear.Linear'>.
Total FLO: 
 96002048.0
Total FLOPS: 
 3510564724.800279
==========================================================================================
Layer (type:depth-idx)                   Output Shape              Param #
==========================================================================================
MobileNetv1                              [1, 10]                   --
├─Conv2d: 1-1                            [1, 32, 32, 32]           864
├─BatchNorm2d: 1-2                       [1, 32, 32, 32]           64
├─Sequential: 1-3                        [1, 1024, 2, 2]           --
│    └─Block: 2-1                        [1, 64, 32, 32]           --
│    │    └─Conv2d: 3-1                  [1, 32, 32, 32]           288
│    │    └─BatchNorm2d: 3-2             [1, 32, 32, 32]           64
│    │    └─Conv2d: 3-3                  [1, 64, 32, 32]           2,048
│    │    └─BatchNorm2d: 3-4             [1, 64, 32, 32]           128
│    └─Block: 2-2                        [1, 128, 16, 16]          --
│    │    └─Conv2d: 3-5                  [1, 64, 16, 16]           576
│    │    └─BatchNorm2d: 3-6             [1, 64, 16, 16]           128
│    │    └─Conv2d: 3-7                  [1, 128, 16, 16]          8,192
│    │    └─BatchNorm2d: 3-8             [1, 128, 16, 16]          256
│    └─Block: 2-3                        [1, 128, 16, 16]          --
│    │    └─Conv2d: 3-9                  [1, 128, 16, 16]          1,152
│    │    └─BatchNorm2d: 3-10            [1, 128, 16, 16]          256
│    │    └─Conv2d: 3-11                 [1, 128, 16, 16]          16,384
│    │    └─BatchNorm2d: 3-12            [1, 128, 16, 16]          256
│    └─Block: 2-4                        [1, 256, 8, 8]            --
│    │    └─Conv2d: 3-13                 [1, 128, 8, 8]            1,152
│    │    └─BatchNorm2d: 3-14            [1, 128, 8, 8]            256
│    │    └─Conv2d: 3-15                 [1, 256, 8, 8]            32,768
│    │    └─BatchNorm2d: 3-16            [1, 256, 8, 8]            512
│    └─Block: 2-5                        [1, 256, 8, 8]            --
│    │    └─Conv2d: 3-17                 [1, 256, 8, 8]            2,304
│    │    └─BatchNorm2d: 3-18            [1, 256, 8, 8]            512
│    │    └─Conv2d: 3-19                 [1, 256, 8, 8]            65,536
│    │    └─BatchNorm2d: 3-20            [1, 256, 8, 8]            512
│    └─Block: 2-6                        [1, 512, 4, 4]            --
│    │    └─Conv2d: 3-21                 [1, 256, 4, 4]            2,304
│    │    └─BatchNorm2d: 3-22            [1, 256, 4, 4]            512
│    │    └─Conv2d: 3-23                 [1, 512, 4, 4]            131,072
│    │    └─BatchNorm2d: 3-24            [1, 512, 4, 4]            1,024
│    └─Block: 2-7                        [1, 512, 4, 4]            --
│    │    └─Conv2d: 3-25                 [1, 512, 4, 4]            4,608
│    │    └─BatchNorm2d: 3-26            [1, 512, 4, 4]            1,024
│    │    └─Conv2d: 3-27                 [1, 512, 4, 4]            262,144
│    │    └─BatchNorm2d: 3-28            [1, 512, 4, 4]            1,024
│    └─Block: 2-8                        [1, 512, 4, 4]            --
│    │    └─Conv2d: 3-29                 [1, 512, 4, 4]            4,608
│    │    └─BatchNorm2d: 3-30            [1, 512, 4, 4]            1,024
│    │    └─Conv2d: 3-31                 [1, 512, 4, 4]            262,144
│    │    └─BatchNorm2d: 3-32            [1, 512, 4, 4]            1,024
│    └─Block: 2-9                        [1, 512, 4, 4]            --
│    │    └─Conv2d: 3-33                 [1, 512, 4, 4]            4,608
│    │    └─BatchNorm2d: 3-34            [1, 512, 4, 4]            1,024
│    │    └─Conv2d: 3-35                 [1, 512, 4, 4]            262,144
│    │    └─BatchNorm2d: 3-36            [1, 512, 4, 4]            1,024
│    └─Block: 2-10                       [1, 512, 4, 4]            --
│    │    └─Conv2d: 3-37                 [1, 512, 4, 4]            4,608
│    │    └─BatchNorm2d: 3-38            [1, 512, 4, 4]            1,024
│    │    └─Conv2d: 3-39                 [1, 512, 4, 4]            262,144
│    │    └─BatchNorm2d: 3-40            [1, 512, 4, 4]            1,024
│    └─Block: 2-11                       [1, 512, 4, 4]            --
│    │    └─Conv2d: 3-41                 [1, 512, 4, 4]            4,608
│    │    └─BatchNorm2d: 3-42            [1, 512, 4, 4]            1,024
│    │    └─Conv2d: 3-43                 [1, 512, 4, 4]            262,144
│    │    └─BatchNorm2d: 3-44            [1, 512, 4, 4]            1,024
│    └─Block: 2-12                       [1, 1024, 2, 2]           --
│    │    └─Conv2d: 3-45                 [1, 512, 2, 2]            4,608
│    │    └─BatchNorm2d: 3-46            [1, 512, 2, 2]            1,024
│    │    └─Conv2d: 3-47                 [1, 1024, 2, 2]           524,288
│    │    └─BatchNorm2d: 3-48            [1, 1024, 2, 2]           2,048
│    └─Block: 2-13                       [1, 1024, 2, 2]           --
│    │    └─Conv2d: 3-49                 [1, 1024, 2, 2]           9,216
│    │    └─BatchNorm2d: 3-50            [1, 1024, 2, 2]           2,048
│    │    └─Conv2d: 3-51                 [1, 1024, 2, 2]           1,048,576
│    │    └─BatchNorm2d: 3-52            [1, 1024, 2, 2]           2,048
├─Linear: 1-4                            [1, 10]                   10,250
==========================================================================================
Total params: 3,217,226
Trainable params: 3,217,226
Non-trainable params: 0
Total mult-adds (M): 46.38
==========================================================================================
Input size (MB): 0.01
Forward/backward pass size (MB): 6.59
Params size (MB): 12.87
Estimated Total Size (MB): 19.47
…
