…
[INFO] Register zero_ops() for <class 'torch.nn.modules.pooling.MaxPool2d'>.
[INFO] Register zero_ops() for <class 'torch.nn.modules.container.Sequential'>.
[INFO] Register count_linear() for <class 'torch.nn.modules.linear.Linear'>.
Total FLO: 
 551954432.0
Total FLOPS: 
 67616819964.814766
==========================================================================================
Layer (type:depth-idx)                   Output Shape              Param #
==========================================================================================
VGG16                                    --                        --
├─Sequential: 1-1                        [1, 512, 1, 1]            --
│    └─Conv2d: 2-1                       [1, 64, 32, 32]           1,792
│    └─ReLU: 2-2                         [1, 64, 32, 32]           --
│    └─Conv2d: 2-3                       [1, 64, 32, 32]           36,928
│    └─ReLU: 2-4                         [1, 64, 32, 32]           --
│    └─MaxPool2d: 2-5                    [1, 64, 16, 16]           --
│    └─Conv2d: 2-6                       [1, 128, 16, 16]          73,856
│    └─ReLU: 2-7                         [1, 128, 16, 16]          --
│    └─Conv2d: 2-8                       [1, 128, 16, 16]          147,584
│    └─ReLU: 2-9                         [1, 128, 16, 16]          --
│    └─MaxPool2d: 2-10                   [1, 128, 8, 8]            --
│    └─Conv2d: 2-11                      [1, 256, 8, 8]            295,168
│    └─ReLU: 2-12                        [1, 256, 8, 8]            --
│    └─Conv2d: 2-13                      [1, 256, 8, 8]            590,080
│    └─ReLU: 2-14                        [1, 256, 8, 8]            --
│    └─MaxPool2d: 2-15                   [1, 256, 4, 4]            --
│    └─Conv2d: 2-16                      [1, 512, 4, 4]            1,180,160
│    └─ReLU: 2-17                        [1, 512, 4, 4]            --
│    └─Conv2d: 2-18                      [1, 512, 4, 4]            2,359,808
│    └─ReLU: 2-19                        [1, 512, 4, 4]            --
│    └─Conv2d: 2-20                      [1, 512, 4, 4]            2,359,808
│    └─ReLU: 2-21                        [1, 512, 4, 4]            --
│    └─MaxPool2d: 2-22                   [1, 512, 2, 2]            --
│    └─Conv2d: 2-23                      [1, 512, 2, 2]            2,359,808
│    └─ReLU: 2-24                        [1, 512, 2, 2]            --
│    └─Conv2d: 2-25                      [1, 512, 2, 2]            2,359,808
│    └─ReLU: 2-26                        [1, 512, 2, 2]            --
│    └─Conv2d: 2-27                      [1, 512, 2, 2]            2,359,808
│    └─ReLU: 2-28                        [1, 512, 2, 2]            --
│    └─MaxPool2d: 2-29                   [1, 512, 1, 1]            --
├─Sequential: 1-2                        [1, 10]                   --
│    └─Linear: 2-30                      [1, 512]                  262,656
│    └─ReLU: 2-31                        [1, 512]                  --
│    └─Linear: 2-32                      [1, 512]                  262,656
│    └─ReLU: 2-33                        [1, 512]                  --
│    └─Linear: 2-34                      [1, 10]                   5,130
==========================================================================================
Total params: 14,655,050
Trainable params: 14,655,050
Non-trainable params: 0
Total mult-adds (M): 276.24
==========================================================================================
Input size (MB): 0.01
Forward/backward pass size (MB): 2.09
Params size (MB): 58.62
Estimated Total Size (MB): 60.72
…
