…
Test accuracy: 99.14 % Test loss: 0.0332
Epoch: [25/25], Step: [100/468], Loss: 0.0004 Acc: 100.00%
Epoch: [25/25], Step: [200/468], Loss: 0.0005 Acc: 100.00%
Epoch: [25/25], Step: [300/468], Loss: 0.0005 Acc: 100.00%
Epoch: [25/25], Step: [400/468], Loss: 0.0005 Acc: 100.00%
Test accuracy: 99.12 % Test loss: 0.0340
==========================================================================================
Layer (type:depth-idx)                   Output Shape              Param #
==========================================================================================
SimpleCNN                                [1, 10]                   --
├─Conv2d: 1-1                            [1, 32, 28, 28]           320
├─MaxPool2d: 1-2                         [1, 32, 14, 14]           --
├─BatchNorm2d: 1-3                       [1, 32, 14, 14]           64
├─Conv2d: 1-4                            [1, 64, 14, 14]           18,496
├─MaxPool2d: 1-5                         [1, 64, 7, 7]             --
├─Linear: 1-6                            [1, 10]                   31,370
==========================================================================================
Total params: 50,250
Trainable params: 50,250
Non-trainable params: 0
Total mult-adds (M): 3.91
==========================================================================================
Input size (MB): 0.00
Forward/backward pass size (MB): 0.35
Params size (MB): 0.20
Estimated Total Size (MB): 0.56
==========================================================================================
…
