Model: "sequential"
_________________________________________________________________
Layer (type)                 Output Shape              Param #   
=================================================================
conv0 (Conv2D)               (None, 32, 32, 64)        1792      
_________________________________________________________________
activation (Activation)      (None, 32, 32, 64)        0         
_________________________________________________________________
pool1 (MaxPooling2D)         (None, 16, 16, 64)        0         
_________________________________________________________________
conv2 (Conv2D)               (None, 16, 16, 128)       73856     
_________________________________________________________________
activation_1 (Activation)    (None, 16, 16, 128)       0         
_________________________________________________________________
pool3 (MaxPooling2D)         (None, 8, 8, 128)         0         
_________________________________________________________________
conv4 (Conv2D)               (None, 8, 8, 256)         295168    
_________________________________________________________________
activation_2 (Activation)    (None, 8, 8, 256)         0         
_________________________________________________________________
conv5 (Conv2D)               (None, 8, 8, 256)         590080    
_________________________________________________________________
activation_3 (Activation)    (None, 8, 8, 256)         0         
_________________________________________________________________
pool6 (MaxPooling2D)         (None, 4, 4, 256)         0         
_________________________________________________________________
conv7 (Conv2D)               (None, 4, 4, 512)         1180160   
_________________________________________________________________
activation_4 (Activation)    (None, 4, 4, 512)         0         
_________________________________________________________________
conv8 (Conv2D)               (None, 4, 4, 512)         2359808   
_________________________________________________________________
activation_5 (Activation)    (None, 4, 4, 512)         0         
_________________________________________________________________
pool9 (MaxPooling2D)         (None, 2, 2, 512)         0         
_________________________________________________________________
conv10 (Conv2D)              (None, 2, 2, 512)         2359808   
_________________________________________________________________
activation_6 (Activation)    (None, 2, 2, 512)         0         
_________________________________________________________________
conv11 (Conv2D)              (None, 2, 2, 512)         2359808   
_________________________________________________________________
activation_7 (Activation)    (None, 2, 2, 512)         0         
_________________________________________________________________
pool12 (MaxPooling2D)        (None, 1, 1, 512)         0         
_________________________________________________________________
flatten (Flatten)            (None, 512)               0         
_________________________________________________________________
dense1 (Dense)               (None, 512)               262656    
_________________________________________________________________
activation_8 (Activation)    (None, 512)               0         
_________________________________________________________________
dense2 (Dense)               (None, 512)               262656    
_________________________________________________________________
activation_9 (Activation)    (None, 512)               0         
_________________________________________________________________
dense3 (Dense)               (None, 10)                5130      
_________________________________________________________________
activation_10 (Activation)   (None, 10)                0         
=================================================================
Total params: 9,750,922
Trainable params: 9,750,922
Non-trainable params: 0
_________________________________________________________________
Epoch 1/100
391/391 - 20s - loss: 1.6769 - accuracy: 0.3761 - val_loss: 1.3861 - val_accuracy: 0.4899
Epoch 2/100
391/391 - 8s - loss: 1.2342 - accuracy: 0.5509 - val_loss: 1.1807 - val_accuracy: 0.5699
…
